<?xml version="1.0" ?>
<net batch="1" name="model" version="2">
	<layers>
		<layer id="372" name="data" precision="FP16" type="Input">
			<output>
				<port id="0">
					<dim>1</dim>
					<dim>3</dim>
					<dim>160</dim>
					<dim>80</dim>
				</port>
			</output>
		</layer>
		<layer id="430" name="conv1_1/conv" precision="FP16" type="Convolution">
			<data dilation-x="1" dilation-y="1" group="1" kernel-x="7" kernel-y="7" output="16" pad-x="3" pad-y="3" stride="1,1,2,2" stride-x="2" stride-y="2"/>
			<input>
				<port id="0">
					<dim>1</dim>
					<dim>3</dim>
					<dim>160</dim>
					<dim>80</dim>
				</port>
			</input>
			<output>
				<port id="2">
					<dim>1</dim>
					<dim>16</dim>
					<dim>80</dim>
					<dim>40</dim>
				</port>
			</output>
			<blobs>
				<weights offset="1771056" size="4704"/>
			</blobs>
		</layer>
		<layer id="666" name="conv1_1/bn" precision="FP16" type="BatchNormalization">
			<data epsilon="9.999999747378752e-06"/>
			<input>
				<port id="0">
					<dim>1</dim>
					<dim>16</dim>
					<dim>80</dim>
					<dim>40</dim>
				</port>
			</input>
			<output>
				<port id="3">
					<dim>1</dim>
					<dim>16</dim>
					<dim>80</dim>
					<dim>40</dim>
				</port>
			</output>
			<blobs>
				<biases offset="973440" size="32"/>
				<weights offset="1464496" size="32"/>
			</blobs>
		</layer>
		<layer id="227" name="conv1_1/neg" precision="FP16" type="Power">
			<data power="1.0" scale="-1.0" shift="0.0"/>
			<input>
				<port id="0">
					<dim>1</dim>
					<dim>16</dim>
					<dim>80</dim>
					<dim>40</dim>
				</port>
			</input>
			<output>
				<port id="1">
					<dim>1</dim>
					<dim>16</dim>
					<dim>80</dim>
					<dim>40</dim>
				</port>
			</output>
		</layer>
		<layer id="526" name="conv1_1/concat" precision="FP16" type="Concat">
			<data axis="1"/>
			<input>
				<port id="0">
					<dim>1</dim>
					<dim>16</dim>
					<dim>80</dim>
					<dim>40</dim>
				</port>
				<port id="1">
					<dim>1</dim>
					<dim>16</dim>
					<dim>80</dim>
					<dim>40</dim>
				</port>
			</input>
			<output>
				<port id="2">
					<dim>1</dim>
					<dim>32</dim>
					<dim>80</dim>
					<dim>40</dim>
				</port>
			</output>
		</layer>
		<layer id="49" name="conv1_1/scale" precision="FP16" type="ScaleShift">
			<input>
				<port id="0">
					<dim>1</dim>
					<dim>32</dim>
					<dim>80</dim>
					<dim>40</dim>
				</port>
			</input>
			<output>
				<port id="3">
					<dim>1</dim>
					<dim>32</dim>
					<dim>80</dim>
					<dim>40</dim>
				</port>
			</output>
			<blobs>
				<weights offset="922944" size="64"/>
				<biases offset="1394928" size="64"/>
			</blobs>
		</layer>
		<layer id="189" name="conv1_1/relu" precision="FP16" type="ReLU">
			<data engine="caffe.ReLUParameter.DEFAULT" negative_slope="0.0"/>
			<input>
				<port id="0">
					<dim>1</dim>
					<dim>32</dim>
					<dim>80</dim>
					<dim>40</dim>
				</port>
			</input>
			<output>
				<port id="1">
					<dim>1</dim>
					<dim>32</dim>
					<dim>80</dim>
					<dim>40</dim>
				</port>
			</output>
		</layer>
		<layer id="586" name="pool1" precision="FP16" type="Pooling">
			<data exclude-pad="false" kernel-x="3" kernel-y="3" pad-x="0" pad-y="0" pool-method="max" rounding_type="ceil" stride="1,1,2,2" stride-x="2" stride-y="2"/>
			<input>
				<port id="0">
					<dim>1</dim>
					<dim>32</dim>
					<dim>80</dim>
					<dim>40</dim>
				</port>
			</input>
			<output>
				<port id="1">
					<dim>1</dim>
					<dim>32</dim>
					<dim>40</dim>
					<dim>20</dim>
				</port>
			</output>
		</layer>
		<layer id="545" name="conv2_1/1/conv" precision="FP16" type="Convolution">
			<data dilation-x="1" dilation-y="1" group="1" kernel-x="1" kernel-y="1" output="24" pad-x="0" pad-y="0" stride="1,1,1,1" stride-x="1" stride-y="1"/>
			<input>
				<port id="0">
					<dim>1</dim>
					<dim>32</dim>
					<dim>40</dim>
					<dim>20</dim>
				</port>
			</input>
			<output>
				<port id="3">
					<dim>1</dim>
					<dim>24</dim>
					<dim>40</dim>
					<dim>20</dim>
				</port>
			</output>
			<blobs>
				<weights offset="636224" size="1536"/>
				<biases offset="1056480" size="48"/>
			</blobs>
		</layer>
		<layer id="417" name="conv2_1/2/bn" precision="FP16" type="BatchNormalization">
			<data epsilon="9.999999747378752e-06"/>
			<input>
				<port id="0">
					<dim>1</dim>
					<dim>24</dim>
					<dim>40</dim>
					<dim>20</dim>
				</port>
			</input>
			<output>
				<port id="3">
					<dim>1</dim>
					<dim>24</dim>
					<dim>40</dim>
					<dim>20</dim>
				</port>
			</output>
			<blobs>
				<biases offset="922896" size="48"/>
				<weights offset="1127392" size="48"/>
			</blobs>
		</layer>
		<layer id="552" name="conv2_1/2/bn_scale" precision="FP16" type="ScaleShift">
			<input>
				<port id="0">
					<dim>1</dim>
					<dim>24</dim>
					<dim>40</dim>
					<dim>20</dim>
				</port>
			</input>
			<output>
				<port id="3">
					<dim>1</dim>
					<dim>24</dim>
					<dim>40</dim>
					<dim>20</dim>
				</port>
			</output>
			<blobs>
				<weights offset="213216" size="48"/>
				<biases offset="925680" size="48"/>
			</blobs>
		</layer>
		<layer id="581" name="conv2_1/2/relu" precision="FP16" type="ReLU">
			<data engine="caffe.ReLUParameter.DEFAULT" negative_slope="0.0"/>
			<input>
				<port id="0">
					<dim>1</dim>
					<dim>24</dim>
					<dim>40</dim>
					<dim>20</dim>
				</port>
			</input>
			<output>
				<port id="1">
					<dim>1</dim>
					<dim>24</dim>
					<dim>40</dim>
					<dim>20</dim>
				</port>
			</output>
		</layer>
		<layer id="290" name="conv2_1/2/conv" precision="FP16" type="Convolution">
			<data dilation-x="1" dilation-y="1" group="1" kernel-x="3" kernel-y="3" output="24" pad-x="1" pad-y="1" stride="1,1,1,1" stride-x="1" stride-y="1"/>
			<input>
				<port id="0">
					<dim>1</dim>
					<dim>24</dim>
					<dim>40</dim>
					<dim>20</dim>
				</port>
			</input>
			<output>
				<port id="3">
					<dim>1</dim>
					<dim>24</dim>
					<dim>40</dim>
					<dim>20</dim>
				</port>
			</output>
			<blobs>
				<weights offset="147552" size="10368"/>
				<biases offset="1776144" size="48"/>
			</blobs>
		</layer>
		<layer id="76" name="conv2_1/3/bn" precision="FP16" type="BatchNormalization">
			<data epsilon="9.999999747378752e-06"/>
			<input>
				<port id="0">
					<dim>1</dim>
					<dim>24</dim>
					<dim>40</dim>
					<dim>20</dim>
				</port>
			</input>
			<output>
				<port id="3">
					<dim>1</dim>
					<dim>24</dim>
					<dim>40</dim>
					<dim>20</dim>
				</port>
			</output>
			<blobs>
				<biases offset="1539952" size="48"/>
				<weights offset="773552" size="48"/>
			</blobs>
		</layer>
		<layer id="110" name="conv2_1/3/neg" precision="FP16" type="Power">
			<data power="1.0" scale="-1.0" shift="0.0"/>
			<input>
				<port id="0">
					<dim>1</dim>
					<dim>24</dim>
					<dim>40</dim>
					<dim>20</dim>
				</port>
			</input>
			<output>
				<port id="1">
					<dim>1</dim>
					<dim>24</dim>
					<dim>40</dim>
					<dim>20</dim>
				</port>
			</output>
		</layer>
		<layer id="289" name="conv2_1/3/concat" precision="FP16" type="Concat">
			<data axis="1"/>
			<input>
				<port id="0">
					<dim>1</dim>
					<dim>24</dim>
					<dim>40</dim>
					<dim>20</dim>
				</port>
				<port id="1">
					<dim>1</dim>
					<dim>24</dim>
					<dim>40</dim>
					<dim>20</dim>
				</port>
			</input>
			<output>
				<port id="2">
					<dim>1</dim>
					<dim>48</dim>
					<dim>40</dim>
					<dim>20</dim>
				</port>
			</output>
		</layer>
		<layer id="549" name="conv2_1/3/scale" precision="FP16" type="ScaleShift">
			<input>
				<port id="0">
					<dim>1</dim>
					<dim>48</dim>
					<dim>40</dim>
					<dim>20</dim>
				</port>
			</input>
			<output>
				<port id="3">
					<dim>1</dim>
					<dim>48</dim>
					<dim>40</dim>
					<dim>20</dim>
				</port>
			</output>
			<blobs>
				<weights offset="1519824" size="96"/>
				<biases offset="1614880" size="96"/>
			</blobs>
		</layer>
		<layer id="410" name="conv2_1/3/relu" precision="FP16" type="ReLU">
			<data engine="caffe.ReLUParameter.DEFAULT" negative_slope="0.0"/>
			<input>
				<port id="0">
					<dim>1</dim>
					<dim>48</dim>
					<dim>40</dim>
					<dim>20</dim>
				</port>
			</input>
			<output>
				<port id="1">
					<dim>1</dim>
					<dim>48</dim>
					<dim>40</dim>
					<dim>20</dim>
				</port>
			</output>
		</layer>
		<layer id="536" name="conv2_1/3/conv" precision="FP16" type="Convolution">
			<data dilation-x="1" dilation-y="1" group="1" kernel-x="1" kernel-y="1" output="64" pad-x="0" pad-y="0" stride="1,1,1,1" stride-x="1" stride-y="1"/>
			<input>
				<port id="0">
					<dim>1</dim>
					<dim>48</dim>
					<dim>40</dim>
					<dim>20</dim>
				</port>
			</input>
			<output>
				<port id="3">
					<dim>1</dim>
					<dim>64</dim>
					<dim>40</dim>
					<dim>20</dim>
				</port>
			</output>
			<blobs>
				<weights offset="1016704" size="6144"/>
				<biases offset="1649744" size="128"/>
			</blobs>
		</layer>
		<layer id="563" name="conv2_1/proj" precision="FP16" type="Convolution">
			<data dilation-x="1" dilation-y="1" group="1" kernel-x="1" kernel-y="1" output="64" pad-x="0" pad-y="0" stride="1,1,1,1" stride-x="1" stride-y="1"/>
			<input>
				<port id="0">
					<dim>1</dim>
					<dim>32</dim>
					<dim>40</dim>
					<dim>20</dim>
				</port>
			</input>
			<output>
				<port id="3">
					<dim>1</dim>
					<dim>64</dim>
					<dim>40</dim>
					<dim>20</dim>
				</port>
			</output>
			<blobs>
				<weights offset="968192" size="4096"/>
				<biases offset="992192" size="128"/>
			</blobs>
		</layer>
		<layer id="373" name="conv2_1" precision="FP16" type="Eltwise">
			<data coeff="1.0,1.0" operation="sum"/>
			<input>
				<port id="0">
					<dim>1</dim>
					<dim>64</dim>
					<dim>40</dim>
					<dim>20</dim>
				</port>
				<port id="1">
					<dim>1</dim>
					<dim>64</dim>
					<dim>40</dim>
					<dim>20</dim>
				</port>
			</input>
			<output>
				<port id="2">
					<dim>1</dim>
					<dim>64</dim>
					<dim>40</dim>
					<dim>20</dim>
				</port>
			</output>
		</layer>
		<layer id="460" name="conv2_2/1/bn" precision="FP16" type="BatchNormalization">
			<data epsilon="9.999999747378752e-06"/>
			<input>
				<port id="0">
					<dim>1</dim>
					<dim>64</dim>
					<dim>40</dim>
					<dim>20</dim>
				</port>
			</input>
			<output>
				<port id="3">
					<dim>1</dim>
					<dim>64</dim>
					<dim>40</dim>
					<dim>20</dim>
				</port>
			</output>
			<blobs>
				<biases offset="923456" size="128"/>
				<weights offset="774080" size="128"/>
			</blobs>
		</layer>
		<layer id="315" name="conv2_2/1/bn_scale" precision="FP16" type="ScaleShift">
			<input>
				<port id="0">
					<dim>1</dim>
					<dim>64</dim>
					<dim>40</dim>
					<dim>20</dim>
				</port>
			</input>
			<output>
				<port id="3">
					<dim>1</dim>
					<dim>64</dim>
					<dim>40</dim>
					<dim>20</dim>
				</port>
			</output>
			<blobs>
				<weights offset="404672" size="128"/>
				<biases offset="1480912" size="128"/>
			</blobs>
		</layer>
		<layer id="623" name="conv2_2/1/relu" precision="FP16" type="ReLU">
			<data engine="caffe.ReLUParameter.DEFAULT" negative_slope="0.0"/>
			<input>
				<port id="0">
					<dim>1</dim>
					<dim>64</dim>
					<dim>40</dim>
					<dim>20</dim>
				</port>
			</input>
			<output>
				<port id="1">
					<dim>1</dim>
					<dim>64</dim>
					<dim>40</dim>
					<dim>20</dim>
				</port>
			</output>
		</layer>
		<layer id="717" name="conv2_2/1/conv" precision="FP16" type="Convolution">
			<data dilation-x="1" dilation-y="1" group="1" kernel-x="1" kernel-y="1" output="24" pad-x="0" pad-y="0" stride="1,1,1,1" stride-x="1" stride-y="1"/>
			<input>
				<port id="0">
					<dim>1</dim>
					<dim>64</dim>
					<dim>40</dim>
					<dim>20</dim>
				</port>
			</input>
			<output>
				<port id="3">
					<dim>1</dim>
					<dim>24</dim>
					<dim>40</dim>
					<dim>20</dim>
				</port>
			</output>
			<blobs>
				<weights offset="1013408" size="3072"/>
				<biases offset="925632" size="48"/>
			</blobs>
		</layer>
		<layer id="63" name="conv2_2/2/bn" precision="FP16" type="BatchNormalization">
			<data epsilon="9.999999747378752e-06"/>
			<input>
				<port id="0">
					<dim>1</dim>
					<dim>24</dim>
					<dim>40</dim>
					<dim>20</dim>
				</port>
			</input>
			<output>
				<port id="3">
					<dim>1</dim>
					<dim>24</dim>
					<dim>40</dim>
					<dim>20</dim>
				</port>
			</output>
			<blobs>
				<biases offset="923408" size="48"/>
				<weights offset="979856" size="48"/>
			</blobs>
		</layer>
		<layer id="630" name="conv2_2/2/bn_scale" precision="FP16" type="ScaleShift">
			<input>
				<port id="0">
					<dim>1</dim>
					<dim>24</dim>
					<dim>40</dim>
					<dim>20</dim>
				</port>
			</input>
			<output>
				<port id="3">
					<dim>1</dim>
					<dim>24</dim>
					<dim>40</dim>
					<dim>20</dim>
				</port>
			</output>
			<blobs>
				<weights offset="404112" size="48"/>
				<biases offset="362352" size="48"/>
			</blobs>
		</layer>
		<layer id="367" name="conv2_2/2/relu" precision="FP16" type="ReLU">
			<data engine="caffe.ReLUParameter.DEFAULT" negative_slope="0.0"/>
			<input>
				<port id="0">
					<dim>1</dim>
					<dim>24</dim>
					<dim>40</dim>
					<dim>20</dim>
				</port>
			</input>
			<output>
				<port id="1">
					<dim>1</dim>
					<dim>24</dim>
					<dim>40</dim>
					<dim>20</dim>
				</port>
			</output>
		</layer>
		<layer id="270" name="conv2_2/2/conv" precision="FP16" type="Convolution">
			<data dilation-x="1" dilation-y="1" group="1" kernel-x="3" kernel-y="3" output="24" pad-x="1" pad-y="1" stride="1,1,1,1" stride-x="1" stride-y="1"/>
			<input>
				<port id="0">
					<dim>1</dim>
					<dim>24</dim>
					<dim>40</dim>
					<dim>20</dim>
				</port>
			</input>
			<output>
				<port id="3">
					<dim>1</dim>
					<dim>24</dim>
					<dim>40</dim>
					<dim>20</dim>
				</port>
			</output>
			<blobs>
				<weights offset="133664" size="10368"/>
				<biases offset="362496" size="48"/>
			</blobs>
		</layer>
		<layer id="461" name="conv2_2/3/bn" precision="FP16" type="BatchNormalization">
			<data epsilon="9.999999747378752e-06"/>
			<input>
				<port id="0">
					<dim>1</dim>
					<dim>24</dim>
					<dim>40</dim>
					<dim>20</dim>
				</port>
			</input>
			<output>
				<port id="3">
					<dim>1</dim>
					<dim>24</dim>
					<dim>40</dim>
					<dim>20</dim>
				</port>
			</output>
			<blobs>
				<biases offset="147360" size="48"/>
				<weights offset="1647936" size="48"/>
			</blobs>
		</layer>
		<layer id="501" name="conv2_2/3/neg" precision="FP16" type="Power">
			<data power="1.0" scale="-1.0" shift="0.0"/>
			<input>
				<port id="0">
					<dim>1</dim>
					<dim>24</dim>
					<dim>40</dim>
					<dim>20</dim>
				</port>
			</input>
			<output>
				<port id="1">
					<dim>1</dim>
					<dim>24</dim>
					<dim>40</dim>
					<dim>20</dim>
				</port>
			</output>
		</layer>
		<layer id="286" name="conv2_2/3/concat" precision="FP16" type="Concat">
			<data axis="1"/>
			<input>
				<port id="0">
					<dim>1</dim>
					<dim>24</dim>
					<dim>40</dim>
					<dim>20</dim>
				</port>
				<port id="1">
					<dim>1</dim>
					<dim>24</dim>
					<dim>40</dim>
					<dim>20</dim>
				</port>
			</input>
			<output>
				<port id="2">
					<dim>1</dim>
					<dim>48</dim>
					<dim>40</dim>
					<dim>20</dim>
				</port>
			</output>
		</layer>
		<layer id="663" name="conv2_2/input" precision="FP16" type="Power">
			<data power="1.0" scale="1.0" shift="0.0"/>
			<input>
				<port id="0">
					<dim>1</dim>
					<dim>64</dim>
					<dim>40</dim>
					<dim>20</dim>
				</port>
			</input>
			<output>
				<port id="1">
					<dim>1</dim>
					<dim>64</dim>
					<dim>40</dim>
					<dim>20</dim>
				</port>
			</output>
		</layer>
		<layer id="425" name="conv2_2/3/scale" precision="FP16" type="ScaleShift">
			<input>
				<port id="0">
					<dim>1</dim>
					<dim>48</dim>
					<dim>40</dim>
					<dim>20</dim>
				</port>
			</input>
			<output>
				<port id="3">
					<dim>1</dim>
					<dim>48</dim>
					<dim>40</dim>
					<dim>20</dim>
				</port>
			</output>
			<blobs>
				<weights offset="1464048" size="96"/>
				<biases offset="2194880" size="96"/>
			</blobs>
		</layer>
		<layer id="348" name="conv2_2/3/relu" precision="FP16" type="ReLU">
			<data engine="caffe.ReLUParameter.DEFAULT" negative_slope="0.0"/>
			<input>
				<port id="0">
					<dim>1</dim>
					<dim>48</dim>
					<dim>40</dim>
					<dim>20</dim>
				</port>
			</input>
			<output>
				<port id="1">
					<dim>1</dim>
					<dim>48</dim>
					<dim>40</dim>
					<dim>20</dim>
				</port>
			</output>
		</layer>
		<layer id="759" name="conv2_2/3/conv" precision="FP16" type="Convolution">
			<data dilation-x="1" dilation-y="1" group="1" kernel-x="1" kernel-y="1" output="64" pad-x="0" pad-y="0" stride="1,1,1,1" stride-x="1" stride-y="1"/>
			<input>
				<port id="0">
					<dim>1</dim>
					<dim>48</dim>
					<dim>40</dim>
					<dim>20</dim>
				</port>
			</input>
			<output>
				<port id="3">
					<dim>1</dim>
					<dim>64</dim>
					<dim>40</dim>
					<dim>20</dim>
				</port>
			</output>
			<blobs>
				<weights offset="1416192" size="6144"/>
				<biases offset="1101808" size="128"/>
			</blobs>
		</layer>
		<layer id="438" name="conv2_2" precision="FP16" type="Eltwise">
			<data coeff="1.0,1.0" operation="sum"/>
			<input>
				<port id="0">
					<dim>1</dim>
					<dim>64</dim>
					<dim>40</dim>
					<dim>20</dim>
				</port>
				<port id="1">
					<dim>1</dim>
					<dim>64</dim>
					<dim>40</dim>
					<dim>20</dim>
				</port>
			</input>
			<output>
				<port id="2">
					<dim>1</dim>
					<dim>64</dim>
					<dim>40</dim>
					<dim>20</dim>
				</port>
			</output>
		</layer>
		<layer id="297" name="conv2_3/1/bn" precision="FP16" type="BatchNormalization">
			<data epsilon="9.999999747378752e-06"/>
			<input>
				<port id="0">
					<dim>1</dim>
					<dim>64</dim>
					<dim>40</dim>
					<dim>20</dim>
				</port>
			</input>
			<output>
				<port id="3">
					<dim>1</dim>
					<dim>64</dim>
					<dim>40</dim>
					<dim>20</dim>
				</port>
			</output>
			<blobs>
				<biases offset="404896" size="128"/>
				<weights offset="1961344" size="128"/>
			</blobs>
		</layer>
		<layer id="391" name="conv2_3/1/bn_scale" precision="FP16" type="ScaleShift">
			<input>
				<port id="0">
					<dim>1</dim>
					<dim>64</dim>
					<dim>40</dim>
					<dim>20</dim>
				</port>
			</input>
			<output>
				<port id="3">
					<dim>1</dim>
					<dim>64</dim>
					<dim>40</dim>
					<dim>20</dim>
				</port>
			</output>
			<blobs>
				<weights offset="1776016" size="128"/>
				<biases offset="1494256" size="128"/>
			</blobs>
		</layer>
		<layer id="88" name="conv2_3/1/relu" precision="FP16" type="ReLU">
			<data engine="caffe.ReLUParameter.DEFAULT" negative_slope="0.0"/>
			<input>
				<port id="0">
					<dim>1</dim>
					<dim>64</dim>
					<dim>40</dim>
					<dim>20</dim>
				</port>
			</input>
			<output>
				<port id="1">
					<dim>1</dim>
					<dim>64</dim>
					<dim>40</dim>
					<dim>20</dim>
				</port>
			</output>
		</layer>
		<layer id="564" name="conv2_3/1/conv" precision="FP16" type="Convolution">
			<data dilation-x="1" dilation-y="1" group="1" kernel-x="1" kernel-y="1" output="24" pad-x="0" pad-y="0" stride="1,1,1,1" stride-x="1" stride-y="1"/>
			<input>
				<port id="0">
					<dim>1</dim>
					<dim>64</dim>
					<dim>40</dim>
					<dim>20</dim>
				</port>
			</input>
			<output>
				<port id="3">
					<dim>1</dim>
					<dim>24</dim>
					<dim>40</dim>
					<dim>20</dim>
				</port>
			</output>
			<blobs>
				<weights offset="144032" size="3072"/>
				<biases offset="2134304" size="48"/>
			</blobs>
		</layer>
		<layer id="198" name="conv2_3/2/bn" precision="FP16" type="BatchNormalization">
			<data epsilon="9.999999747378752e-06"/>
			<input>
				<port id="0">
					<dim>1</dim>
					<dim>24</dim>
					<dim>40</dim>
					<dim>20</dim>
				</port>
			</input>
			<output>
				<port id="3">
					<dim>1</dim>
					<dim>24</dim>
					<dim>40</dim>
					<dim>20</dim>
				</port>
			</output>
			<blobs>
				<biases offset="1919728" size="48"/>
				<weights offset="1127344" size="48"/>
			</blobs>
		</layer>
		<layer id="339" name="conv2_3/2/bn_scale" precision="FP16" type="ScaleShift">
			<input>
				<port id="0">
					<dim>1</dim>
					<dim>24</dim>
					<dim>40</dim>
					<dim>20</dim>
				</port>
			</input>
			<output>
				<port id="3">
					<dim>1</dim>
					<dim>24</dim>
					<dim>40</dim>
					<dim>20</dim>
				</port>
			</output>
			<blobs>
				<weights offset="968016" size="48"/>
				<biases offset="1961472" size="48"/>
			</blobs>
		</layer>
		<layer id="202" name="conv2_3/2/relu" precision="FP16" type="ReLU">
			<data engine="caffe.ReLUParameter.DEFAULT" negative_slope="0.0"/>
			<input>
				<port id="0">
					<dim>1</dim>
					<dim>24</dim>
					<dim>40</dim>
					<dim>20</dim>
				</port>
			</input>
			<output>
				<port id="1">
					<dim>1</dim>
					<dim>24</dim>
					<dim>40</dim>
					<dim>20</dim>
				</port>
			</output>
		</layer>
		<layer id="82" name="conv2_3/2/conv" precision="FP16" type="Convolution">
			<data dilation-x="1" dilation-y="1" group="1" kernel-x="3" kernel-y="3" output="24" pad-x="1" pad-y="1" stride="1,1,1,1" stride-x="1" stride-y="1"/>
			<input>
				<port id="0">
					<dim>1</dim>
					<dim>24</dim>
					<dim>40</dim>
					<dim>20</dim>
				</port>
			</input>
			<output>
				<port id="3">
					<dim>1</dim>
					<dim>24</dim>
					<dim>40</dim>
					<dim>20</dim>
				</port>
			</output>
			<blobs>
				<weights offset="1760592" size="10368"/>
				<biases offset="1788480" size="48"/>
			</blobs>
		</layer>
		<layer id="254" name="conv2_3/3/bn" precision="FP16" type="BatchNormalization">
			<data epsilon="9.999999747378752e-06"/>
			<input>
				<port id="0">
					<dim>1</dim>
					<dim>24</dim>
					<dim>40</dim>
					<dim>20</dim>
				</port>
			</input>
			<output>
				<port id="3">
					<dim>1</dim>
					<dim>24</dim>
					<dim>40</dim>
					<dim>20</dim>
				</port>
			</output>
			<blobs>
				<biases offset="1481040" size="48"/>
				<weights offset="923008" size="48"/>
			</blobs>
		</layer>
		<layer id="531" name="conv2_3/3/neg" precision="FP16" type="Power">
			<data power="1.0" scale="-1.0" shift="0.0"/>
			<input>
				<port id="0">
					<dim>1</dim>
					<dim>24</dim>
					<dim>40</dim>
					<dim>20</dim>
				</port>
			</input>
			<output>
				<port id="1">
					<dim>1</dim>
					<dim>24</dim>
					<dim>40</dim>
					<dim>20</dim>
				</port>
			</output>
		</layer>
		<layer id="130" name="conv2_3/3/concat" precision="FP16" type="Concat">
			<data axis="1"/>
			<input>
				<port id="0">
					<dim>1</dim>
					<dim>24</dim>
					<dim>40</dim>
					<dim>20</dim>
				</port>
				<port id="1">
					<dim>1</dim>
					<dim>24</dim>
					<dim>40</dim>
					<dim>20</dim>
				</port>
			</input>
			<output>
				<port id="2">
					<dim>1</dim>
					<dim>48</dim>
					<dim>40</dim>
					<dim>20</dim>
				</port>
			</output>
		</layer>
		<layer id="708" name="conv2_3/3/scale" precision="FP16" type="ScaleShift">
			<input>
				<port id="0">
					<dim>1</dim>
					<dim>48</dim>
					<dim>40</dim>
					<dim>20</dim>
				</port>
			</input>
			<output>
				<port id="3">
					<dim>1</dim>
					<dim>48</dim>
					<dim>40</dim>
					<dim>20</dim>
				</port>
			</output>
			<blobs>
				<weights offset="1648496" size="96"/>
				<biases offset="1394832" size="96"/>
			</blobs>
		</layer>
		<layer id="138" name="conv2_3/3/relu" precision="FP16" type="ReLU">
			<data engine="caffe.ReLUParameter.DEFAULT" negative_slope="0.0"/>
			<input>
				<port id="0">
					<dim>1</dim>
					<dim>48</dim>
					<dim>40</dim>
					<dim>20</dim>
				</port>
			</input>
			<output>
				<port id="1">
					<dim>1</dim>
					<dim>48</dim>
					<dim>40</dim>
					<dim>20</dim>
				</port>
			</output>
		</layer>
		<layer id="176" name="conv2_3/3/conv" precision="FP16" type="Convolution">
			<data dilation-x="1" dilation-y="1" group="1" kernel-x="1" kernel-y="1" output="64" pad-x="0" pad-y="0" stride="1,1,1,1" stride-x="1" stride-y="1"/>
			<input>
				<port id="0">
					<dim>1</dim>
					<dim>48</dim>
					<dim>40</dim>
					<dim>20</dim>
				</port>
			</input>
			<output>
				<port id="3">
					<dim>1</dim>
					<dim>64</dim>
					<dim>40</dim>
					<dim>20</dim>
				</port>
			</output>
			<blobs>
				<weights offset="1521392" size="6144"/>
				<biases offset="1381872" size="128"/>
			</blobs>
		</layer>
		<layer id="513" name="conv2_3/input" precision="FP16" type="Power">
			<data power="1.0" scale="1.0" shift="0.0"/>
			<input>
				<port id="0">
					<dim>1</dim>
					<dim>64</dim>
					<dim>40</dim>
					<dim>20</dim>
				</port>
			</input>
			<output>
				<port id="1">
					<dim>1</dim>
					<dim>64</dim>
					<dim>40</dim>
					<dim>20</dim>
				</port>
			</output>
		</layer>
		<layer id="525" name="conv2_3" precision="FP16" type="Eltwise">
			<data coeff="1.0,1.0" operation="sum"/>
			<input>
				<port id="0">
					<dim>1</dim>
					<dim>64</dim>
					<dim>40</dim>
					<dim>20</dim>
				</port>
				<port id="1">
					<dim>1</dim>
					<dim>64</dim>
					<dim>40</dim>
					<dim>20</dim>
				</port>
			</input>
			<output>
				<port id="2">
					<dim>1</dim>
					<dim>64</dim>
					<dim>40</dim>
					<dim>20</dim>
				</port>
			</output>
		</layer>
		<layer id="40" name="conv3_1/1/bn" precision="FP16" type="BatchNormalization">
			<data epsilon="9.999999747378752e-06"/>
			<input>
				<port id="0">
					<dim>1</dim>
					<dim>64</dim>
					<dim>40</dim>
					<dim>20</dim>
				</port>
			</input>
			<output>
				<port id="3">
					<dim>1</dim>
					<dim>64</dim>
					<dim>40</dim>
					<dim>20</dim>
				</port>
			</output>
			<blobs>
				<biases offset="74496" size="128"/>
				<weights offset="1494384" size="128"/>
			</blobs>
		</layer>
		<layer id="503" name="conv3_1/1/bn_scale" precision="FP16" type="ScaleShift">
			<input>
				<port id="0">
					<dim>1</dim>
					<dim>64</dim>
					<dim>40</dim>
					<dim>20</dim>
				</port>
			</input>
			<output>
				<port id="3">
					<dim>1</dim>
					<dim>64</dim>
					<dim>40</dim>
					<dim>20</dim>
				</port>
			</output>
			<blobs>
				<weights offset="133440" size="128"/>
				<biases offset="1648592" size="128"/>
			</blobs>
		</layer>
		<layer id="169" name="conv3_1/1/relu" precision="FP16" type="ReLU">
			<data engine="caffe.ReLUParameter.DEFAULT" negative_slope="0.0"/>
			<input>
				<port id="0">
					<dim>1</dim>
					<dim>64</dim>
					<dim>40</dim>
					<dim>20</dim>
				</port>
			</input>
			<output>
				<port id="1">
					<dim>1</dim>
					<dim>64</dim>
					<dim>40</dim>
					<dim>20</dim>
				</port>
			</output>
		</layer>
		<layer id="512" name="conv3_1/1/conv" precision="FP16" type="Convolution">
			<data dilation-x="1" dilation-y="1" group="1" kernel-x="1" kernel-y="1" output="48" pad-x="0" pad-y="0" stride="1,1,2,2" stride-x="2" stride-y="2"/>
			<input>
				<port id="0">
					<dim>1</dim>
					<dim>64</dim>
					<dim>40</dim>
					<dim>20</dim>
				</port>
			</input>
			<output>
				<port id="3">
					<dim>1</dim>
					<dim>48</dim>
					<dim>20</dim>
					<dim>10</dim>
				</port>
			</output>
			<blobs>
				<weights offset="973520" size="6144"/>
				<biases offset="925184" size="96"/>
			</blobs>
		</layer>
		<layer id="779" name="conv3_1/2/bn" precision="FP16" type="BatchNormalization">
			<data epsilon="9.999999747378752e-06"/>
			<input>
				<port id="0">
					<dim>1</dim>
					<dim>48</dim>
					<dim>20</dim>
					<dim>10</dim>
				</port>
			</input>
			<output>
				<port id="3">
					<dim>1</dim>
					<dim>48</dim>
					<dim>20</dim>
					<dim>10</dim>
				</port>
			</output>
			<blobs>
				<biases offset="773984" size="96"/>
				<weights offset="213312" size="96"/>
			</blobs>
		</layer>
		<layer id="159" name="conv3_1/2/bn_scale" precision="FP16" type="ScaleShift">
			<input>
				<port id="0">
					<dim>1</dim>
					<dim>48</dim>
					<dim>20</dim>
					<dim>10</dim>
				</port>
			</input>
			<output>
				<port id="3">
					<dim>1</dim>
					<dim>48</dim>
					<dim>20</dim>
					<dim>10</dim>
				</port>
			</output>
			<blobs>
				<weights offset="1614976" size="96"/>
				<biases offset="212560" size="96"/>
			</blobs>
		</layer>
		<layer id="104" name="conv3_1/2/relu" precision="FP16" type="ReLU">
			<data engine="caffe.ReLUParameter.DEFAULT" negative_slope="0.0"/>
			<input>
				<port id="0">
					<dim>1</dim>
					<dim>48</dim>
					<dim>20</dim>
					<dim>10</dim>
				</port>
			</input>
			<output>
				<port id="1">
					<dim>1</dim>
					<dim>48</dim>
					<dim>20</dim>
					<dim>10</dim>
				</port>
			</output>
		</layer>
		<layer id="676" name="conv3_1/2/conv" precision="FP16" type="Convolution">
			<data dilation-x="1" dilation-y="1" group="1" kernel-x="3" kernel-y="3" output="48" pad-x="1" pad-y="1" stride="1,1,1,1" stride-x="1" stride-y="1"/>
			<input>
				<port id="0">
					<dim>1</dim>
					<dim>48</dim>
					<dim>20</dim>
					<dim>10</dim>
				</port>
			</input>
			<output>
				<port id="3">
					<dim>1</dim>
					<dim>48</dim>
					<dim>20</dim>
					<dim>10</dim>
				</port>
			</output>
			<blobs>
				<weights offset="1919872" size="41472"/>
				<biases offset="1962128" size="96"/>
			</blobs>
		</layer>
		<layer id="161" name="conv3_1/3/bn" precision="FP16" type="BatchNormalization">
			<data epsilon="9.999999747378752e-06"/>
			<input>
				<port id="0">
					<dim>1</dim>
					<dim>48</dim>
					<dim>20</dim>
					<dim>10</dim>
				</port>
			</input>
			<output>
				<port id="3">
					<dim>1</dim>
					<dim>48</dim>
					<dim>20</dim>
					<dim>10</dim>
				</port>
			</output>
			<blobs>
				<biases offset="133344" size="96"/>
				<weights offset="774208" size="96"/>
			</blobs>
		</layer>
		<layer id="436" name="conv3_1/3/neg" precision="FP16" type="Power">
			<data power="1.0" scale="-1.0" shift="0.0"/>
			<input>
				<port id="0">
					<dim>1</dim>
					<dim>48</dim>
					<dim>20</dim>
					<dim>10</dim>
				</port>
			</input>
			<output>
				<port id="1">
					<dim>1</dim>
					<dim>48</dim>
					<dim>20</dim>
					<dim>10</dim>
				</port>
			</output>
		</layer>
		<layer id="85" name="conv3_1/3/concat" precision="FP16" type="Concat">
			<data axis="1"/>
			<input>
				<port id="0">
					<dim>1</dim>
					<dim>48</dim>
					<dim>20</dim>
					<dim>10</dim>
				</port>
				<port id="1">
					<dim>1</dim>
					<dim>48</dim>
					<dim>20</dim>
					<dim>10</dim>
				</port>
			</input>
			<output>
				<port id="2">
					<dim>1</dim>
					<dim>96</dim>
					<dim>20</dim>
					<dim>10</dim>
				</port>
			</output>
		</layer>
		<layer id="330" name="conv3_1/3/scale" precision="FP16" type="ScaleShift">
			<input>
				<port id="0">
					<dim>1</dim>
					<dim>96</dim>
					<dim>20</dim>
					<dim>10</dim>
				</port>
			</input>
			<output>
				<port id="3">
					<dim>1</dim>
					<dim>96</dim>
					<dim>20</dim>
					<dim>10</dim>
				</port>
			</output>
			<blobs>
				<weights offset="2134352" size="192"/>
				<biases offset="2193792" size="192"/>
			</blobs>
		</layer>
		<layer id="218" name="conv3_1/3/relu" precision="FP16" type="ReLU">
			<data engine="caffe.ReLUParameter.DEFAULT" negative_slope="0.0"/>
			<input>
				<port id="0">
					<dim>1</dim>
					<dim>96</dim>
					<dim>20</dim>
					<dim>10</dim>
				</port>
			</input>
			<output>
				<port id="1">
					<dim>1</dim>
					<dim>96</dim>
					<dim>20</dim>
					<dim>10</dim>
				</port>
			</output>
		</layer>
		<layer id="648" name="conv3_1/3/conv" precision="FP16" type="Convolution">
			<data dilation-x="1" dilation-y="1" group="1" kernel-x="1" kernel-y="1" output="128" pad-x="0" pad-y="0" stride="1,1,1,1" stride-x="1" stride-y="1"/>
			<input>
				<port id="0">
					<dim>1</dim>
					<dim>96</dim>
					<dim>20</dim>
					<dim>10</dim>
				</port>
			</input>
			<output>
				<port id="3">
					<dim>1</dim>
					<dim>128</dim>
					<dim>20</dim>
					<dim>10</dim>
				</port>
			</output>
			<blobs>
				<weights offset="2168944" size="24576"/>
				<biases offset="773728" size="256"/>
			</blobs>
		</layer>
		<layer id="627" name="conv3_1/proj" precision="FP16" type="Convolution">
			<data dilation-x="1" dilation-y="1" group="1" kernel-x="1" kernel-y="1" output="128" pad-x="0" pad-y="0" stride="1,1,2,2" stride-x="2" stride-y="2"/>
			<input>
				<port id="0">
					<dim>1</dim>
					<dim>64</dim>
					<dim>40</dim>
					<dim>20</dim>
				</port>
			</input>
			<output>
				<port id="3">
					<dim>1</dim>
					<dim>128</dim>
					<dim>20</dim>
					<dim>10</dim>
				</port>
			</output>
			<blobs>
				<weights offset="116448" size="16384"/>
				<biases offset="635616" size="256"/>
			</blobs>
		</layer>
		<layer id="15" name="conv3_1" precision="FP16" type="Eltwise">
			<data coeff="1.0,1.0" operation="sum"/>
			<input>
				<port id="0">
					<dim>1</dim>
					<dim>128</dim>
					<dim>20</dim>
					<dim>10</dim>
				</port>
				<port id="1">
					<dim>1</dim>
					<dim>128</dim>
					<dim>20</dim>
					<dim>10</dim>
				</port>
			</input>
			<output>
				<port id="2">
					<dim>1</dim>
					<dim>128</dim>
					<dim>20</dim>
					<dim>10</dim>
				</port>
			</output>
		</layer>
		<layer id="718" name="conv3_2/1/bn" precision="FP16" type="BatchNormalization">
			<data epsilon="9.999999747378752e-06"/>
			<input>
				<port id="0">
					<dim>1</dim>
					<dim>128</dim>
					<dim>20</dim>
					<dim>10</dim>
				</port>
			</input>
			<output>
				<port id="3">
					<dim>1</dim>
					<dim>128</dim>
					<dim>20</dim>
					<dim>10</dim>
				</port>
			</output>
			<blobs>
				<biases offset="923152" size="256"/>
				<weights offset="924096" size="256"/>
			</blobs>
		</layer>
		<layer id="566" name="conv3_2/1/bn_scale" precision="FP16" type="ScaleShift">
			<input>
				<port id="0">
					<dim>1</dim>
					<dim>128</dim>
					<dim>20</dim>
					<dim>10</dim>
				</port>
			</input>
			<output>
				<port id="3">
					<dim>1</dim>
					<dim>128</dim>
					<dim>20</dim>
					<dim>10</dim>
				</port>
			</output>
			<blobs>
				<weights offset="1649488" size="256"/>
				<biases offset="1912976" size="256"/>
			</blobs>
		</layer>
		<layer id="474" name="conv3_2/1/relu" precision="FP16" type="ReLU">
			<data engine="caffe.ReLUParameter.DEFAULT" negative_slope="0.0"/>
			<input>
				<port id="0">
					<dim>1</dim>
					<dim>128</dim>
					<dim>20</dim>
					<dim>10</dim>
				</port>
			</input>
			<output>
				<port id="1">
					<dim>1</dim>
					<dim>128</dim>
					<dim>20</dim>
					<dim>10</dim>
				</port>
			</output>
		</layer>
		<layer id="246" name="conv3_2/1/conv" precision="FP16" type="Convolution">
			<data dilation-x="1" dilation-y="1" group="1" kernel-x="1" kernel-y="1" output="48" pad-x="0" pad-y="0" stride="1,1,1,1" stride-x="1" stride-y="1"/>
			<input>
				<port id="0">
					<dim>1</dim>
					<dim>128</dim>
					<dim>20</dim>
					<dim>10</dim>
				</port>
			</input>
			<output>
				<port id="3">
					<dim>1</dim>
					<dim>48</dim>
					<dim>20</dim>
					<dim>10</dim>
				</port>
			</output>
			<blobs>
				<weights offset="637984" size="12288"/>
				<biases offset="1770960" size="96"/>
			</blobs>
		</layer>
		<layer id="455" name="conv3_2/input" precision="FP16" type="Power">
			<data power="1.0" scale="1.0" shift="0.0"/>
			<input>
				<port id="0">
					<dim>1</dim>
					<dim>128</dim>
					<dim>20</dim>
					<dim>10</dim>
				</port>
			</input>
			<output>
				<port id="1">
					<dim>1</dim>
					<dim>128</dim>
					<dim>20</dim>
					<dim>10</dim>
				</port>
			</output>
		</layer>
		<layer id="778" name="conv3_2/2/bn" precision="FP16" type="BatchNormalization">
			<data epsilon="9.999999747378752e-06"/>
			<input>
				<port id="0">
					<dim>1</dim>
					<dim>48</dim>
					<dim>20</dim>
					<dim>10</dim>
				</port>
			</input>
			<output>
				<port id="3">
					<dim>1</dim>
					<dim>48</dim>
					<dim>20</dim>
					<dim>10</dim>
				</port>
			</output>
			<blobs>
				<biases offset="2195072" size="96"/>
				<weights offset="147408" size="96"/>
			</blobs>
		</layer>
		<layer id="318" name="conv3_2/2/bn_scale" precision="FP16" type="ScaleShift">
			<input>
				<port id="0">
					<dim>1</dim>
					<dim>48</dim>
					<dim>20</dim>
					<dim>10</dim>
				</port>
			</input>
			<output>
				<port id="3">
					<dim>1</dim>
					<dim>48</dim>
					<dim>20</dim>
					<dim>10</dim>
				</port>
			</output>
			<blobs>
				<weights offset="1382000" size="96"/>
				<biases offset="925088" size="96"/>
			</blobs>
		</layer>
		<layer id="281" name="conv3_2/2/relu" precision="FP16" type="ReLU">
			<data engine="caffe.ReLUParameter.DEFAULT" negative_slope="0.0"/>
			<input>
				<port id="0">
					<dim>1</dim>
					<dim>48</dim>
					<dim>20</dim>
					<dim>10</dim>
				</port>
			</input>
			<output>
				<port id="1">
					<dim>1</dim>
					<dim>48</dim>
					<dim>20</dim>
					<dim>10</dim>
				</port>
			</output>
		</layer>
		<layer id="284" name="conv3_2/2/conv" precision="FP16" type="Convolution">
			<data dilation-x="1" dilation-y="1" group="1" kernel-x="3" kernel-y="3" output="48" pad-x="1" pad-y="1" stride="1,1,1,1" stride-x="1" stride-y="1"/>
			<input>
				<port id="0">
					<dim>1</dim>
					<dim>48</dim>
					<dim>20</dim>
					<dim>10</dim>
				</port>
			</input>
			<output>
				<port id="3">
					<dim>1</dim>
					<dim>48</dim>
					<dim>20</dim>
					<dim>10</dim>
				</port>
			</output>
			<blobs>
				<weights offset="33024" size="41472"/>
				<biases offset="1394736" size="96"/>
			</blobs>
		</layer>
		<layer id="14" name="conv3_2/3/bn" precision="FP16" type="BatchNormalization">
			<data epsilon="9.999999747378752e-06"/>
			<input>
				<port id="0">
					<dim>1</dim>
					<dim>48</dim>
					<dim>20</dim>
					<dim>10</dim>
				</port>
			</input>
			<output>
				<port id="3">
					<dim>1</dim>
					<dim>48</dim>
					<dim>20</dim>
					<dim>10</dim>
				</port>
			</output>
			<blobs>
				<biases offset="1648720" size="96"/>
				<weights offset="1464400" size="96"/>
			</blobs>
		</layer>
		<layer id="125" name="conv3_2/3/neg" precision="FP16" type="Power">
			<data power="1.0" scale="-1.0" shift="0.0"/>
			<input>
				<port id="0">
					<dim>1</dim>
					<dim>48</dim>
					<dim>20</dim>
					<dim>10</dim>
				</port>
			</input>
			<output>
				<port id="1">
					<dim>1</dim>
					<dim>48</dim>
					<dim>20</dim>
					<dim>10</dim>
				</port>
			</output>
		</layer>
		<layer id="517" name="conv3_2/3/concat" precision="FP16" type="Concat">
			<data axis="1"/>
			<input>
				<port id="0">
					<dim>1</dim>
					<dim>48</dim>
					<dim>20</dim>
					<dim>10</dim>
				</port>
				<port id="1">
					<dim>1</dim>
					<dim>48</dim>
					<dim>20</dim>
					<dim>10</dim>
				</port>
			</input>
			<output>
				<port id="2">
					<dim>1</dim>
					<dim>96</dim>
					<dim>20</dim>
					<dim>10</dim>
				</port>
			</output>
		</layer>
		<layer id="244" name="conv3_2/3/scale" precision="FP16" type="ScaleShift">
			<input>
				<port id="0">
					<dim>1</dim>
					<dim>96</dim>
					<dim>20</dim>
					<dim>10</dim>
				</port>
			</input>
			<output>
				<port id="3">
					<dim>1</dim>
					<dim>96</dim>
					<dim>20</dim>
					<dim>10</dim>
				</port>
			</output>
			<blobs>
				<weights offset="1101936" size="192"/>
				<biases offset="212368" size="192"/>
			</blobs>
		</layer>
		<layer id="6" name="conv3_2/3/relu" precision="FP16" type="ReLU">
			<data engine="caffe.ReLUParameter.DEFAULT" negative_slope="0.0"/>
			<input>
				<port id="0">
					<dim>1</dim>
					<dim>96</dim>
					<dim>20</dim>
					<dim>10</dim>
				</port>
			</input>
			<output>
				<port id="1">
					<dim>1</dim>
					<dim>96</dim>
					<dim>20</dim>
					<dim>10</dim>
				</port>
			</output>
		</layer>
		<layer id="402" name="conv3_2/3/conv" precision="FP16" type="Convolution">
			<data dilation-x="1" dilation-y="1" group="1" kernel-x="1" kernel-y="1" output="128" pad-x="0" pad-y="0" stride="1,1,1,1" stride-x="1" stride-y="1"/>
			<input>
				<port id="0">
					<dim>1</dim>
					<dim>96</dim>
					<dim>20</dim>
					<dim>10</dim>
				</port>
			</input>
			<output>
				<port id="3">
					<dim>1</dim>
					<dim>128</dim>
					<dim>20</dim>
					<dim>10</dim>
				</port>
			</output>
			<blobs>
				<weights offset="1962224" size="24576"/>
				<biases offset="972544" size="256"/>
			</blobs>
		</layer>
		<layer id="774" name="conv3_2" precision="FP16" type="Eltwise">
			<data coeff="1.0,1.0" operation="sum"/>
			<input>
				<port id="0">
					<dim>1</dim>
					<dim>128</dim>
					<dim>20</dim>
					<dim>10</dim>
				</port>
				<port id="1">
					<dim>1</dim>
					<dim>128</dim>
					<dim>20</dim>
					<dim>10</dim>
				</port>
			</input>
			<output>
				<port id="2">
					<dim>1</dim>
					<dim>128</dim>
					<dim>20</dim>
					<dim>10</dim>
				</port>
			</output>
		</layer>
		<layer id="688" name="conv3_3/1/bn" precision="FP16" type="BatchNormalization">
			<data epsilon="9.999999747378752e-06"/>
			<input>
				<port id="0">
					<dim>1</dim>
					<dim>128</dim>
					<dim>20</dim>
					<dim>10</dim>
				</port>
			</input>
			<output>
				<port id="3">
					<dim>1</dim>
					<dim>128</dim>
					<dim>20</dim>
					<dim>10</dim>
				</port>
			</output>
			<blobs>
				<biases offset="1494736" size="256"/>
				<weights offset="147104" size="256"/>
			</blobs>
		</layer>
		<layer id="479" name="conv3_3/1/bn_scale" precision="FP16" type="ScaleShift">
			<input>
				<port id="0">
					<dim>1</dim>
					<dim>128</dim>
					<dim>20</dim>
					<dim>10</dim>
				</port>
			</input>
			<output>
				<port id="3">
					<dim>1</dim>
					<dim>128</dim>
					<dim>20</dim>
					<dim>10</dim>
				</port>
			</output>
			<blobs>
				<weights offset="1519568" size="256"/>
				<biases offset="1055872" size="256"/>
			</blobs>
		</layer>
		<layer id="86" name="conv3_3/1/relu" precision="FP16" type="ReLU">
			<data engine="caffe.ReLUParameter.DEFAULT" negative_slope="0.0"/>
			<input>
				<port id="0">
					<dim>1</dim>
					<dim>128</dim>
					<dim>20</dim>
					<dim>10</dim>
				</port>
			</input>
			<output>
				<port id="1">
					<dim>1</dim>
					<dim>128</dim>
					<dim>20</dim>
					<dim>10</dim>
				</port>
			</output>
		</layer>
		<layer id="716" name="conv3_3/1/conv" precision="FP16" type="Convolution">
			<data dilation-x="1" dilation-y="1" group="1" kernel-x="1" kernel-y="1" output="48" pad-x="0" pad-y="0" stride="1,1,1,1" stride-x="1" stride-y="1"/>
			<input>
				<port id="0">
					<dim>1</dim>
					<dim>128</dim>
					<dim>20</dim>
					<dim>10</dim>
				</port>
			</input>
			<output>
				<port id="3">
					<dim>1</dim>
					<dim>48</dim>
					<dim>20</dim>
					<dim>10</dim>
				</port>
			</output>
			<blobs>
				<weights offset="1382352" size="12288"/>
				<biases offset="922800" size="96"/>
			</blobs>
		</layer>
		<layer id="505" name="conv3_3/2/bn" precision="FP16" type="BatchNormalization">
			<data epsilon="9.999999747378752e-06"/>
			<input>
				<port id="0">
					<dim>1</dim>
					<dim>48</dim>
					<dim>20</dim>
					<dim>10</dim>
				</port>
			</input>
			<output>
				<port id="3">
					<dim>1</dim>
					<dim>48</dim>
					<dim>20</dim>
					<dim>10</dim>
				</port>
			</output>
			<blobs>
				<biases offset="1315856" size="96"/>
				<weights offset="1013056" size="96"/>
			</blobs>
		</layer>
		<layer id="156" name="conv3_3/2/bn_scale" precision="FP16" type="ScaleShift">
			<input>
				<port id="0">
					<dim>1</dim>
					<dim>48</dim>
					<dim>20</dim>
					<dim>10</dim>
				</port>
			</input>
			<output>
				<port id="3">
					<dim>1</dim>
					<dim>48</dim>
					<dim>20</dim>
					<dim>10</dim>
				</port>
			</output>
			<blobs>
				<weights offset="116096" size="96"/>
				<biases offset="637888" size="96"/>
			</blobs>
		</layer>
		<layer id="277" name="conv3_3/2/relu" precision="FP16" type="ReLU">
			<data engine="caffe.ReLUParameter.DEFAULT" negative_slope="0.0"/>
			<input>
				<port id="0">
					<dim>1</dim>
					<dim>48</dim>
					<dim>20</dim>
					<dim>10</dim>
				</port>
			</input>
			<output>
				<port id="1">
					<dim>1</dim>
					<dim>48</dim>
					<dim>20</dim>
					<dim>10</dim>
				</port>
			</output>
		</layer>
		<layer id="45" name="conv3_3/2/conv" precision="FP16" type="Convolution">
			<data dilation-x="1" dilation-y="1" group="1" kernel-x="3" kernel-y="3" output="48" pad-x="1" pad-y="1" stride="1,1,1,1" stride-x="1" stride-y="1"/>
			<input>
				<port id="0">
					<dim>1</dim>
					<dim>48</dim>
					<dim>20</dim>
					<dim>10</dim>
				</port>
			</input>
			<output>
				<port id="3">
					<dim>1</dim>
					<dim>48</dim>
					<dim>20</dim>
					<dim>10</dim>
				</port>
			</output>
			<blobs>
				<weights offset="1573120" size="41472"/>
				<biases offset="1913488" size="96"/>
			</blobs>
		</layer>
		<layer id="450" name="conv3_3/3/bn" precision="FP16" type="BatchNormalization">
			<data epsilon="9.999999747378752e-06"/>
			<input>
				<port id="0">
					<dim>1</dim>
					<dim>48</dim>
					<dim>20</dim>
					<dim>10</dim>
				</port>
			</input>
			<output>
				<port id="3">
					<dim>1</dim>
					<dim>48</dim>
					<dim>20</dim>
					<dim>10</dim>
				</port>
			</output>
			<blobs>
				<biases offset="1540000" size="96"/>
				<weights offset="1416000" size="96"/>
			</blobs>
		</layer>
		<layer id="719" name="conv3_3/3/neg" precision="FP16" type="Power">
			<data power="1.0" scale="-1.0" shift="0.0"/>
			<input>
				<port id="0">
					<dim>1</dim>
					<dim>48</dim>
					<dim>20</dim>
					<dim>10</dim>
				</port>
			</input>
			<output>
				<port id="1">
					<dim>1</dim>
					<dim>48</dim>
					<dim>20</dim>
					<dim>10</dim>
				</port>
			</output>
		</layer>
		<layer id="547" name="conv3_3/3/concat" precision="FP16" type="Concat">
			<data axis="1"/>
			<input>
				<port id="0">
					<dim>1</dim>
					<dim>48</dim>
					<dim>20</dim>
					<dim>10</dim>
				</port>
				<port id="1">
					<dim>1</dim>
					<dim>48</dim>
					<dim>20</dim>
					<dim>10</dim>
				</port>
			</input>
			<output>
				<port id="2">
					<dim>1</dim>
					<dim>96</dim>
					<dim>20</dim>
					<dim>10</dim>
				</port>
			</output>
		</layer>
		<layer id="141" name="conv3_3/3/scale" precision="FP16" type="ScaleShift">
			<input>
				<port id="0">
					<dim>1</dim>
					<dim>96</dim>
					<dim>20</dim>
					<dim>10</dim>
				</port>
			</input>
			<output>
				<port id="3">
					<dim>1</dim>
					<dim>96</dim>
					<dim>20</dim>
					<dim>10</dim>
				</port>
			</output>
			<blobs>
				<weights offset="1789008" size="192"/>
				<biases offset="1481088" size="192"/>
			</blobs>
		</layer>
		<layer id="38" name="conv3_3/3/relu" precision="FP16" type="ReLU">
			<data engine="caffe.ReLUParameter.DEFAULT" negative_slope="0.0"/>
			<input>
				<port id="0">
					<dim>1</dim>
					<dim>96</dim>
					<dim>20</dim>
					<dim>10</dim>
				</port>
			</input>
			<output>
				<port id="1">
					<dim>1</dim>
					<dim>96</dim>
					<dim>20</dim>
					<dim>10</dim>
				</port>
			</output>
		</layer>
		<layer id="416" name="conv3_3/3/conv" precision="FP16" type="Convolution">
			<data dilation-x="1" dilation-y="1" group="1" kernel-x="1" kernel-y="1" output="128" pad-x="0" pad-y="0" stride="1,1,1,1" stride-x="1" stride-y="1"/>
			<input>
				<port id="0">
					<dim>1</dim>
					<dim>96</dim>
					<dim>20</dim>
					<dim>10</dim>
				</port>
			</input>
			<output>
				<port id="3">
					<dim>1</dim>
					<dim>128</dim>
					<dim>20</dim>
					<dim>10</dim>
				</port>
			</output>
			<blobs>
				<weights offset="1102768" size="24576"/>
				<biases offset="1381616" size="256"/>
			</blobs>
		</layer>
		<layer id="467" name="conv3_3/input" precision="FP16" type="Power">
			<data power="1.0" scale="1.0" shift="0.0"/>
			<input>
				<port id="0">
					<dim>1</dim>
					<dim>128</dim>
					<dim>20</dim>
					<dim>10</dim>
				</port>
			</input>
			<output>
				<port id="1">
					<dim>1</dim>
					<dim>128</dim>
					<dim>20</dim>
					<dim>10</dim>
				</port>
			</output>
		</layer>
		<layer id="17" name="conv3_3" precision="FP16" type="Eltwise">
			<data coeff="1.0,1.0" operation="sum"/>
			<input>
				<port id="0">
					<dim>1</dim>
					<dim>128</dim>
					<dim>20</dim>
					<dim>10</dim>
				</port>
				<port id="1">
					<dim>1</dim>
					<dim>128</dim>
					<dim>20</dim>
					<dim>10</dim>
				</port>
			</input>
			<output>
				<port id="2">
					<dim>1</dim>
					<dim>128</dim>
					<dim>20</dim>
					<dim>10</dim>
				</port>
			</output>
		</layer>
		<layer id="705" name="conv3_4/1/bn" precision="FP16" type="BatchNormalization">
			<data epsilon="9.999999747378752e-06"/>
			<input>
				<port id="0">
					<dim>1</dim>
					<dim>128</dim>
					<dim>20</dim>
					<dim>10</dim>
				</port>
			</input>
			<output>
				<port id="3">
					<dim>1</dim>
					<dim>128</dim>
					<dim>20</dim>
					<dim>10</dim>
				</port>
			</output>
			<blobs>
				<biases offset="972288" size="256"/>
				<weights offset="2195168" size="256"/>
			</blobs>
		</layer>
		<layer id="321" name="conv3_4/1/bn_scale" precision="FP16" type="ScaleShift">
			<input>
				<port id="0">
					<dim>1</dim>
					<dim>128</dim>
					<dim>20</dim>
					<dim>10</dim>
				</port>
			</input>
			<output>
				<port id="3">
					<dim>1</dim>
					<dim>128</dim>
					<dim>20</dim>
					<dim>10</dim>
				</port>
			</output>
			<blobs>
				<weights offset="1519920" size="256"/>
				<biases offset="1056224" size="256"/>
			</blobs>
		</layer>
		<layer id="684" name="conv3_4/1/relu" precision="FP16" type="ReLU">
			<data engine="caffe.ReLUParameter.DEFAULT" negative_slope="0.0"/>
			<input>
				<port id="0">
					<dim>1</dim>
					<dim>128</dim>
					<dim>20</dim>
					<dim>10</dim>
				</port>
			</input>
			<output>
				<port id="1">
					<dim>1</dim>
					<dim>128</dim>
					<dim>20</dim>
					<dim>10</dim>
				</port>
			</output>
		</layer>
		<layer id="275" name="conv3_4/1/conv" precision="FP16" type="Convolution">
			<data dilation-x="1" dilation-y="1" group="1" kernel-x="1" kernel-y="1" output="48" pad-x="0" pad-y="0" stride="1,1,1,1" stride-x="1" stride-y="1"/>
			<input>
				<port id="0">
					<dim>1</dim>
					<dim>128</dim>
					<dim>20</dim>
					<dim>10</dim>
				</port>
			</input>
			<output>
				<port id="3">
					<dim>1</dim>
					<dim>48</dim>
					<dim>20</dim>
					<dim>10</dim>
				</port>
			</output>
			<blobs>
				<weights offset="1481840" size="12288"/>
				<biases offset="1649392" size="96"/>
			</blobs>
		</layer>
		<layer id="107" name="conv3_4/2/bn" precision="FP16" type="BatchNormalization">
			<data epsilon="9.999999747378752e-06"/>
			<input>
				<port id="0">
					<dim>1</dim>
					<dim>48</dim>
					<dim>20</dim>
					<dim>10</dim>
				</port>
			</input>
			<output>
				<port id="3">
					<dim>1</dim>
					<dim>48</dim>
					<dim>20</dim>
					<dim>10</dim>
				</port>
			</output>
			<blobs>
				<biases offset="1614592" size="96"/>
				<weights offset="1788912" size="96"/>
			</blobs>
		</layer>
		<layer id="389" name="conv3_4/2/bn_scale" precision="FP16" type="ScaleShift">
			<input>
				<port id="0">
					<dim>1</dim>
					<dim>48</dim>
					<dim>20</dim>
					<dim>10</dim>
				</port>
			</input>
			<output>
				<port id="3">
					<dim>1</dim>
					<dim>48</dim>
					<dim>20</dim>
					<dim>10</dim>
				</port>
			</output>
			<blobs>
				<weights offset="1416096" size="96"/>
				<biases offset="1521296" size="96"/>
			</blobs>
		</layer>
		<layer id="751" name="conv3_4/2/relu" precision="FP16" type="ReLU">
			<data engine="caffe.ReLUParameter.DEFAULT" negative_slope="0.0"/>
			<input>
				<port id="0">
					<dim>1</dim>
					<dim>48</dim>
					<dim>20</dim>
					<dim>10</dim>
				</port>
			</input>
			<output>
				<port id="1">
					<dim>1</dim>
					<dim>48</dim>
					<dim>20</dim>
					<dim>10</dim>
				</port>
			</output>
		</layer>
		<layer id="308" name="conv3_4/2/conv" precision="FP16" type="Convolution">
			<data dilation-x="1" dilation-y="1" group="1" kernel-x="3" kernel-y="3" output="48" pad-x="1" pad-y="1" stride="1,1,1,1" stride-x="1" stride-y="1"/>
			<input>
				<port id="0">
					<dim>1</dim>
					<dim>48</dim>
					<dim>20</dim>
					<dim>10</dim>
				</port>
			</input>
			<output>
				<port id="3">
					<dim>1</dim>
					<dim>48</dim>
					<dim>20</dim>
					<dim>10</dim>
				</port>
			</output>
			<blobs>
				<weights offset="594144" size="41472"/>
				<biases offset="362256" size="96"/>
			</blobs>
		</layer>
		<layer id="105" name="conv3_4/3/bn" precision="FP16" type="BatchNormalization">
			<data epsilon="9.999999747378752e-06"/>
			<input>
				<port id="0">
					<dim>1</dim>
					<dim>48</dim>
					<dim>20</dim>
					<dim>10</dim>
				</port>
			</input>
			<output>
				<port id="3">
					<dim>1</dim>
					<dim>48</dim>
					<dim>20</dim>
					<dim>10</dim>
				</port>
			</output>
			<blobs>
				<biases offset="1614688" size="96"/>
				<weights offset="924352" size="96"/>
			</blobs>
		</layer>
		<layer id="248" name="conv3_4/3/neg" precision="FP16" type="Power">
			<data power="1.0" scale="-1.0" shift="0.0"/>
			<input>
				<port id="0">
					<dim>1</dim>
					<dim>48</dim>
					<dim>20</dim>
					<dim>10</dim>
				</port>
			</input>
			<output>
				<port id="1">
					<dim>1</dim>
					<dim>48</dim>
					<dim>20</dim>
					<dim>10</dim>
				</port>
			</output>
		</layer>
		<layer id="407" name="conv3_4/3/concat" precision="FP16" type="Concat">
			<data axis="1"/>
			<input>
				<port id="0">
					<dim>1</dim>
					<dim>48</dim>
					<dim>20</dim>
					<dim>10</dim>
				</port>
				<port id="1">
					<dim>1</dim>
					<dim>48</dim>
					<dim>20</dim>
					<dim>10</dim>
				</port>
			</input>
			<output>
				<port id="2">
					<dim>1</dim>
					<dim>96</dim>
					<dim>20</dim>
					<dim>10</dim>
				</port>
			</output>
		</layer>
		<layer id="163" name="conv3_4/3/scale" precision="FP16" type="ScaleShift">
			<input>
				<port id="0">
					<dim>1</dim>
					<dim>96</dim>
					<dim>20</dim>
					<dim>10</dim>
				</port>
			</input>
			<output>
				<port id="3">
					<dim>1</dim>
					<dim>96</dim>
					<dim>20</dim>
					<dim>10</dim>
				</port>
			</output>
			<blobs>
				<weights offset="1649200" size="192"/>
				<biases offset="158016" size="192"/>
			</blobs>
		</layer>
		<layer id="41" name="conv3_4/3/relu" precision="FP16" type="ReLU">
			<data engine="caffe.ReLUParameter.DEFAULT" negative_slope="0.0"/>
			<input>
				<port id="0">
					<dim>1</dim>
					<dim>96</dim>
					<dim>20</dim>
					<dim>10</dim>
				</port>
			</input>
			<output>
				<port id="1">
					<dim>1</dim>
					<dim>96</dim>
					<dim>20</dim>
					<dim>10</dim>
				</port>
			</output>
		</layer>
		<layer id="325" name="conv3_4/3/conv" precision="FP16" type="Convolution">
			<data dilation-x="1" dilation-y="1" group="1" kernel-x="1" kernel-y="1" output="128" pad-x="0" pad-y="0" stride="1,1,1,1" stride-x="1" stride-y="1"/>
			<input>
				<port id="0">
					<dim>1</dim>
					<dim>96</dim>
					<dim>20</dim>
					<dim>10</dim>
				</port>
			</input>
			<output>
				<port id="3">
					<dim>1</dim>
					<dim>128</dim>
					<dim>20</dim>
					<dim>10</dim>
				</port>
			</output>
			<blobs>
				<weights offset="1494992" size="24576"/>
				<biases offset="1464144" size="256"/>
			</blobs>
		</layer>
		<layer id="614" name="conv3_4/input" precision="FP16" type="Power">
			<data power="1.0" scale="1.0" shift="0.0"/>
			<input>
				<port id="0">
					<dim>1</dim>
					<dim>128</dim>
					<dim>20</dim>
					<dim>10</dim>
				</port>
			</input>
			<output>
				<port id="1">
					<dim>1</dim>
					<dim>128</dim>
					<dim>20</dim>
					<dim>10</dim>
				</port>
			</output>
		</layer>
		<layer id="229" name="conv3_4" precision="FP16" type="Eltwise">
			<data coeff="1.0,1.0" operation="sum"/>
			<input>
				<port id="0">
					<dim>1</dim>
					<dim>128</dim>
					<dim>20</dim>
					<dim>10</dim>
				</port>
				<port id="1">
					<dim>1</dim>
					<dim>128</dim>
					<dim>20</dim>
					<dim>10</dim>
				</port>
			</input>
			<output>
				<port id="2">
					<dim>1</dim>
					<dim>128</dim>
					<dim>20</dim>
					<dim>10</dim>
				</port>
			</output>
		</layer>
		<layer id="744" name="conv4_1/proj" precision="FP16" type="Convolution">
			<data dilation-x="1" dilation-y="1" group="1" kernel-x="1" kernel-y="1" output="256" pad-x="0" pad-y="0" stride="1,1,2,2" stride-x="2" stride-y="2"/>
			<input>
				<port id="0">
					<dim>1</dim>
					<dim>128</dim>
					<dim>20</dim>
					<dim>10</dim>
				</port>
			</input>
			<output>
				<port id="3">
					<dim>1</dim>
					<dim>256</dim>
					<dim>10</dim>
					<dim>5</dim>
				</port>
			</output>
			<blobs>
				<weights offset="1316080" size="65536"/>
				<biases offset="1647984" size="512"/>
			</blobs>
		</layer>
		<layer id="482" name="Convolution_red" precision="FP16" type="Convolution">
			<data dilation-x="1" dilation-y="1" group="1" kernel-x="1" kernel-y="1" output="256" pad-x="0" pad-y="0" stride="1,1,2,2" stride-x="2" stride-y="2"/>
			<input>
				<port id="0">
					<dim>1</dim>
					<dim>128</dim>
					<dim>20</dim>
					<dim>10</dim>
				</port>
			</input>
			<output>
				<port id="2">
					<dim>1</dim>
					<dim>256</dim>
					<dim>10</dim>
					<dim>5</dim>
				</port>
			</output>
			<blobs>
				<weights offset="405024" size="65536"/>
			</blobs>
		</layer>
		<layer id="446" name="conv4_1/incep/bn" precision="FP16" type="BatchNormalization">
			<data epsilon="9.999999747378752e-06"/>
			<input>
				<port id="0">
					<dim>1</dim>
					<dim>128</dim>
					<dim>20</dim>
					<dim>10</dim>
				</port>
			</input>
			<output>
				<port id="3">
					<dim>1</dim>
					<dim>128</dim>
					<dim>20</dim>
					<dim>10</dim>
				</port>
			</output>
			<blobs>
				<biases offset="967760" size="256"/>
				<weights offset="1788528" size="256"/>
			</blobs>
		</layer>
		<layer id="113" name="conv4_1/incep/bn_scale" precision="FP16" type="ScaleShift">
			<input>
				<port id="0">
					<dim>1</dim>
					<dim>128</dim>
					<dim>20</dim>
					<dim>10</dim>
				</port>
			</input>
			<output>
				<port id="3">
					<dim>1</dim>
					<dim>128</dim>
					<dim>20</dim>
					<dim>10</dim>
				</port>
			</output>
			<blobs>
				<weights offset="178992" size="256"/>
				<biases offset="179344" size="256"/>
			</blobs>
		</layer>
		<layer id="21" name="conv4_1/incep/relu" precision="FP16" type="ReLU">
			<data engine="caffe.ReLUParameter.DEFAULT" negative_slope="0.0"/>
			<input>
				<port id="0">
					<dim>1</dim>
					<dim>128</dim>
					<dim>20</dim>
					<dim>10</dim>
				</port>
			</input>
			<output>
				<port id="1">
					<dim>1</dim>
					<dim>128</dim>
					<dim>20</dim>
					<dim>10</dim>
				</port>
			</output>
		</layer>
		<layer id="36" name="conv4_1/incep/pool" precision="FP16" type="Pooling">
			<data exclude-pad="false" kernel-x="3" kernel-y="3" pad-x="0" pad-y="0" pool-method="max" rounding_type="ceil" stride="1,1,2,2" stride-x="2" stride-y="2"/>
			<input>
				<port id="0">
					<dim>1</dim>
					<dim>128</dim>
					<dim>20</dim>
					<dim>10</dim>
				</port>
			</input>
			<output>
				<port id="1">
					<dim>1</dim>
					<dim>128</dim>
					<dim>10</dim>
					<dim>5</dim>
				</port>
			</output>
		</layer>
		<layer id="142" name="conv4_1/incep/poolproj/conv" precision="FP16" type="Convolution">
			<data dilation-x="1" dilation-y="1" group="1" kernel-x="1" kernel-y="1" output="128" pad-x="0" pad-y="0" stride="1,1,1,1" stride-x="1" stride-y="1"/>
			<input>
				<port id="0">
					<dim>1</dim>
					<dim>128</dim>
					<dim>10</dim>
					<dim>5</dim>
				</port>
			</input>
			<output>
				<port id="2">
					<dim>1</dim>
					<dim>128</dim>
					<dim>10</dim>
					<dim>5</dim>
				</port>
			</output>
			<blobs>
				<weights offset="179600" size="32768"/>
			</blobs>
		</layer>
		<layer id="698" name="conv4_1/incep/poolproj/bn" precision="FP16" type="BatchNormalization">
			<data epsilon="9.999999747378752e-06"/>
			<input>
				<port id="0">
					<dim>1</dim>
					<dim>128</dim>
					<dim>10</dim>
					<dim>5</dim>
				</port>
			</input>
			<output>
				<port id="3">
					<dim>1</dim>
					<dim>128</dim>
					<dim>10</dim>
					<dim>5</dim>
				</port>
			</output>
			<blobs>
				<biases offset="924832" size="256"/>
				<weights offset="0" size="256"/>
			</blobs>
		</layer>
		<layer id="594" name="conv4_1/incep/poolproj/bn_scale" precision="FP16" type="ScaleShift">
			<input>
				<port id="0">
					<dim>1</dim>
					<dim>128</dim>
					<dim>10</dim>
					<dim>5</dim>
				</port>
			</input>
			<output>
				<port id="3">
					<dim>1</dim>
					<dim>128</dim>
					<dim>10</dim>
					<dim>5</dim>
				</port>
			</output>
			<blobs>
				<weights offset="650416" size="256"/>
				<biases offset="1572864" size="256"/>
			</blobs>
		</layer>
		<layer id="750" name="conv4_1/incep/poolproj/relu" precision="FP16" type="ReLU">
			<data engine="caffe.ReLUParameter.DEFAULT" negative_slope="0.0"/>
			<input>
				<port id="0">
					<dim>1</dim>
					<dim>128</dim>
					<dim>10</dim>
					<dim>5</dim>
				</port>
			</input>
			<output>
				<port id="1">
					<dim>1</dim>
					<dim>128</dim>
					<dim>10</dim>
					<dim>5</dim>
				</port>
			</output>
		</layer>
		<layer id="327" name="conv4_1/incep/1_reduce/conv" precision="FP16" type="Convolution">
			<data dilation-x="1" dilation-y="1" group="1" kernel-x="1" kernel-y="1" output="48" pad-x="0" pad-y="0" stride="1,1,2,2" stride-x="2" stride-y="2"/>
			<input>
				<port id="0">
					<dim>1</dim>
					<dim>128</dim>
					<dim>20</dim>
					<dim>10</dim>
				</port>
			</input>
			<output>
				<port id="2">
					<dim>1</dim>
					<dim>48</dim>
					<dim>10</dim>
					<dim>5</dim>
				</port>
			</output>
			<blobs>
				<weights offset="1056528" size="12288"/>
			</blobs>
		</layer>
		<layer id="521" name="conv4_1/incep/1_reduce/bn" precision="FP16" type="BatchNormalization">
			<data epsilon="9.999999747378752e-06"/>
			<input>
				<port id="0">
					<dim>1</dim>
					<dim>48</dim>
					<dim>10</dim>
					<dim>5</dim>
				</port>
			</input>
			<output>
				<port id="3">
					<dim>1</dim>
					<dim>48</dim>
					<dim>10</dim>
					<dim>5</dim>
				</port>
			</output>
			<blobs>
				<biases offset="593536" size="96"/>
				<weights offset="133568" size="96"/>
			</blobs>
		</layer>
		<layer id="730" name="conv4_1/incep/1_reduce/bn_scale" precision="FP16" type="ScaleShift">
			<input>
				<port id="0">
					<dim>1</dim>
					<dim>48</dim>
					<dim>10</dim>
					<dim>5</dim>
				</port>
			</input>
			<output>
				<port id="3">
					<dim>1</dim>
					<dim>48</dim>
					<dim>10</dim>
					<dim>5</dim>
				</port>
			</output>
			<blobs>
				<weights offset="362400" size="96"/>
				<biases offset="2194784" size="96"/>
			</blobs>
		</layer>
		<layer id="128" name="conv4_1/incep/1_reduce/relu" precision="FP16" type="ReLU">
			<data engine="caffe.ReLUParameter.DEFAULT" negative_slope="0.0"/>
			<input>
				<port id="0">
					<dim>1</dim>
					<dim>48</dim>
					<dim>10</dim>
					<dim>5</dim>
				</port>
			</input>
			<output>
				<port id="1">
					<dim>1</dim>
					<dim>48</dim>
					<dim>10</dim>
					<dim>5</dim>
				</port>
			</output>
		</layer>
		<layer id="387" name="conv4_1/incep/1_0/conv" precision="FP16" type="Convolution">
			<data dilation-x="1" dilation-y="1" group="1" kernel-x="3" kernel-y="3" output="128" pad-x="1" pad-y="1" stride="1,1,1,1" stride-x="1" stride-y="1"/>
			<input>
				<port id="0">
					<dim>1</dim>
					<dim>48</dim>
					<dim>10</dim>
					<dim>5</dim>
				</port>
			</input>
			<output>
				<port id="2">
					<dim>1</dim>
					<dim>128</dim>
					<dim>10</dim>
					<dim>5</dim>
				</port>
			</output>
			<blobs>
				<weights offset="1650000" size="110592"/>
			</blobs>
		</layer>
		<layer id="360" name="conv4_1/incep/1_0/bn" precision="FP16" type="BatchNormalization">
			<data epsilon="9.999999747378752e-06"/>
			<input>
				<port id="0">
					<dim>1</dim>
					<dim>128</dim>
					<dim>10</dim>
					<dim>5</dim>
				</port>
			</input>
			<output>
				<port id="3">
					<dim>1</dim>
					<dim>128</dim>
					<dim>10</dim>
					<dim>5</dim>
				</port>
			</output>
			<blobs>
				<biases offset="212704" size="256"/>
				<weights offset="1913232" size="256"/>
			</blobs>
		</layer>
		<layer id="475" name="conv4_1/incep/1_0/bn_scale" precision="FP16" type="ScaleShift">
			<input>
				<port id="0">
					<dim>1</dim>
					<dim>128</dim>
					<dim>10</dim>
					<dim>5</dim>
				</port>
			</input>
			<output>
				<port id="3">
					<dim>1</dim>
					<dim>128</dim>
					<dim>10</dim>
					<dim>5</dim>
				</port>
			</output>
			<blobs>
				<weights offset="1382096" size="256"/>
				<biases offset="2194112" size="256"/>
			</blobs>
		</layer>
		<layer id="681" name="conv4_1/incep/1_0/relu" precision="FP16" type="ReLU">
			<data engine="caffe.ReLUParameter.DEFAULT" negative_slope="0.0"/>
			<input>
				<port id="0">
					<dim>1</dim>
					<dim>128</dim>
					<dim>10</dim>
					<dim>5</dim>
				</port>
			</input>
			<output>
				<port id="1">
					<dim>1</dim>
					<dim>128</dim>
					<dim>10</dim>
					<dim>5</dim>
				</port>
			</output>
		</layer>
		<layer id="124" name="conv4_1/incep/2_reduce/conv" precision="FP16" type="Convolution">
			<data dilation-x="1" dilation-y="1" group="1" kernel-x="1" kernel-y="1" output="24" pad-x="0" pad-y="0" stride="1,1,2,2" stride-x="2" stride-y="2"/>
			<input>
				<port id="0">
					<dim>1</dim>
					<dim>128</dim>
					<dim>20</dim>
					<dim>10</dim>
				</port>
			</input>
			<output>
				<port id="2">
					<dim>1</dim>
					<dim>24</dim>
					<dim>10</dim>
					<dim>5</dim>
				</port>
			</output>
			<blobs>
				<weights offset="1913584" size="6144"/>
			</blobs>
		</layer>
		<layer id="181" name="conv4_1/incep/2_reduce/bn" precision="FP16" type="BatchNormalization">
			<data epsilon="9.999999747378752e-06"/>
			<input>
				<port id="0">
					<dim>1</dim>
					<dim>24</dim>
					<dim>10</dim>
					<dim>5</dim>
				</port>
			</input>
			<output>
				<port id="3">
					<dim>1</dim>
					<dim>24</dim>
					<dim>10</dim>
					<dim>5</dim>
				</port>
			</output>
			<blobs>
				<biases offset="213264" size="48"/>
				<weights offset="362112" size="48"/>
			</blobs>
		</layer>
		<layer id="502" name="conv4_1/incep/2_reduce/bn_scale" precision="FP16" type="ScaleShift">
			<input>
				<port id="0">
					<dim>1</dim>
					<dim>24</dim>
					<dim>10</dim>
					<dim>5</dim>
				</port>
			</input>
			<output>
				<port id="3">
					<dim>1</dim>
					<dim>24</dim>
					<dim>10</dim>
					<dim>5</dim>
				</port>
			</output>
			<blobs>
				<weights offset="1394992" size="48"/>
				<biases offset="973472" size="48"/>
			</blobs>
		</layer>
		<layer id="689" name="conv4_1/incep/2_reduce/relu" precision="FP16" type="ReLU">
			<data engine="caffe.ReLUParameter.DEFAULT" negative_slope="0.0"/>
			<input>
				<port id="0">
					<dim>1</dim>
					<dim>24</dim>
					<dim>10</dim>
					<dim>5</dim>
				</port>
			</input>
			<output>
				<port id="1">
					<dim>1</dim>
					<dim>24</dim>
					<dim>10</dim>
					<dim>5</dim>
				</port>
			</output>
		</layer>
		<layer id="710" name="conv4_1/incep/2_0/conv" precision="FP16" type="Convolution">
			<data dilation-x="1" dilation-y="1" group="1" kernel-x="3" kernel-y="3" output="48" pad-x="1" pad-y="1" stride="1,1,1,1" stride-x="1" stride-y="1"/>
			<input>
				<port id="0">
					<dim>1</dim>
					<dim>24</dim>
					<dim>10</dim>
					<dim>5</dim>
				</port>
			</input>
			<output>
				<port id="2">
					<dim>1</dim>
					<dim>48</dim>
					<dim>10</dim>
					<dim>5</dim>
				</port>
			</output>
			<blobs>
				<weights offset="992320" size="20736"/>
			</blobs>
		</layer>
		<layer id="48" name="conv4_1/incep/2_0/bn" precision="FP16" type="BatchNormalization">
			<data epsilon="9.999999747378752e-06"/>
			<input>
				<port id="0">
					<dim>1</dim>
					<dim>48</dim>
					<dim>10</dim>
					<dim>5</dim>
				</port>
			</input>
			<output>
				<port id="3">
					<dim>1</dim>
					<dim>48</dim>
					<dim>10</dim>
					<dim>5</dim>
				</port>
			</output>
			<blobs>
				<biases offset="1395040" size="96"/>
				<weights offset="2134544" size="96"/>
			</blobs>
		</layer>
		<layer id="477" name="conv4_1/incep/2_0/bn_scale" precision="FP16" type="ScaleShift">
			<input>
				<port id="0">
					<dim>1</dim>
					<dim>48</dim>
					<dim>10</dim>
					<dim>5</dim>
				</port>
			</input>
			<output>
				<port id="3">
					<dim>1</dim>
					<dim>48</dim>
					<dim>10</dim>
					<dim>5</dim>
				</port>
			</output>
			<blobs>
				<weights offset="923056" size="96"/>
				<biases offset="362544" size="96"/>
			</blobs>
		</layer>
		<layer id="395" name="conv4_1/incep/2_0/relu" precision="FP16" type="ReLU">
			<data engine="caffe.ReLUParameter.DEFAULT" negative_slope="0.0"/>
			<input>
				<port id="0">
					<dim>1</dim>
					<dim>48</dim>
					<dim>10</dim>
					<dim>5</dim>
				</port>
			</input>
			<output>
				<port id="1">
					<dim>1</dim>
					<dim>48</dim>
					<dim>10</dim>
					<dim>5</dim>
				</port>
			</output>
		</layer>
		<layer id="271" name="conv4_1/incep/2_1/conv" precision="FP16" type="Convolution">
			<data dilation-x="1" dilation-y="1" group="1" kernel-x="3" kernel-y="3" output="48" pad-x="1" pad-y="1" stride="1,1,1,1" stride-x="1" stride-y="1"/>
			<input>
				<port id="0">
					<dim>1</dim>
					<dim>48</dim>
					<dim>10</dim>
					<dim>5</dim>
				</port>
			</input>
			<output>
				<port id="2">
					<dim>1</dim>
					<dim>48</dim>
					<dim>10</dim>
					<dim>5</dim>
				</port>
			</output>
			<blobs>
				<weights offset="362640" size="41472"/>
			</blobs>
		</layer>
		<layer id="510" name="conv4_1/incep/2_1/bn" precision="FP16" type="BatchNormalization">
			<data epsilon="9.999999747378752e-06"/>
			<input>
				<port id="0">
					<dim>1</dim>
					<dim>48</dim>
					<dim>10</dim>
					<dim>5</dim>
				</port>
			</input>
			<output>
				<port id="3">
					<dim>1</dim>
					<dim>48</dim>
					<dim>10</dim>
					<dim>5</dim>
				</port>
			</output>
			<blobs>
				<biases offset="922448" size="96"/>
				<weights offset="1394640" size="96"/>
			</blobs>
		</layer>
		<layer id="92" name="conv4_1/incep/2_1/bn_scale" precision="FP16" type="ScaleShift">
			<input>
				<port id="0">
					<dim>1</dim>
					<dim>48</dim>
					<dim>10</dim>
					<dim>5</dim>
				</port>
			</input>
			<output>
				<port id="3">
					<dim>1</dim>
					<dim>48</dim>
					<dim>10</dim>
					<dim>5</dim>
				</port>
			</output>
			<blobs>
				<weights offset="1016608" size="96"/>
				<biases offset="2194496" size="96"/>
			</blobs>
		</layer>
		<layer id="331" name="conv4_1/incep/2_1/relu" precision="FP16" type="ReLU">
			<data engine="caffe.ReLUParameter.DEFAULT" negative_slope="0.0"/>
			<input>
				<port id="0">
					<dim>1</dim>
					<dim>48</dim>
					<dim>10</dim>
					<dim>5</dim>
				</port>
			</input>
			<output>
				<port id="1">
					<dim>1</dim>
					<dim>48</dim>
					<dim>10</dim>
					<dim>5</dim>
				</port>
			</output>
		</layer>
		<layer id="439" name="conv4_1/incep/0/conv" precision="FP16" type="Convolution">
			<data dilation-x="1" dilation-y="1" group="1" kernel-x="1" kernel-y="1" output="64" pad-x="0" pad-y="0" stride="1,1,2,2" stride-x="2" stride-y="2"/>
			<input>
				<port id="0">
					<dim>1</dim>
					<dim>128</dim>
					<dim>20</dim>
					<dim>10</dim>
				</port>
			</input>
			<output>
				<port id="2">
					<dim>1</dim>
					<dim>64</dim>
					<dim>10</dim>
					<dim>5</dim>
				</port>
			</output>
			<blobs>
				<weights offset="1464528" size="16384"/>
			</blobs>
		</layer>
		<layer id="168" name="conv4_1/incep/0/bn" precision="FP16" type="BatchNormalization">
			<data epsilon="9.999999747378752e-06"/>
			<input>
				<port id="0">
					<dim>1</dim>
					<dim>64</dim>
					<dim>10</dim>
					<dim>5</dim>
				</port>
			</input>
			<output>
				<port id="3">
					<dim>1</dim>
					<dim>64</dim>
					<dim>10</dim>
					<dim>5</dim>
				</port>
			</output>
			<blobs>
				<biases offset="1788784" size="128"/>
				<weights offset="1494128" size="128"/>
			</blobs>
		</layer>
		<layer id="537" name="conv4_1/incep/0/bn_scale" precision="FP16" type="ScaleShift">
			<input>
				<port id="0">
					<dim>1</dim>
					<dim>64</dim>
					<dim>10</dim>
					<dim>5</dim>
				</port>
			</input>
			<output>
				<port id="3">
					<dim>1</dim>
					<dim>64</dim>
					<dim>10</dim>
					<dim>5</dim>
				</port>
			</output>
			<blobs>
				<weights offset="2194368" size="128"/>
				<biases offset="1494608" size="128"/>
			</blobs>
		</layer>
		<layer id="785" name="conv4_1/incep/0/relu" precision="FP16" type="ReLU">
			<data engine="caffe.ReLUParameter.DEFAULT" negative_slope="0.0"/>
			<input>
				<port id="0">
					<dim>1</dim>
					<dim>64</dim>
					<dim>10</dim>
					<dim>5</dim>
				</port>
			</input>
			<output>
				<port id="1">
					<dim>1</dim>
					<dim>64</dim>
					<dim>10</dim>
					<dim>5</dim>
				</port>
			</output>
		</layer>
		<layer id="413" name="conv4_1/incep" precision="FP16" type="Concat">
			<data axis="1"/>
			<input>
				<port id="0">
					<dim>1</dim>
					<dim>64</dim>
					<dim>10</dim>
					<dim>5</dim>
				</port>
				<port id="1">
					<dim>1</dim>
					<dim>128</dim>
					<dim>10</dim>
					<dim>5</dim>
				</port>
				<port id="2">
					<dim>1</dim>
					<dim>48</dim>
					<dim>10</dim>
					<dim>5</dim>
				</port>
				<port id="3">
					<dim>1</dim>
					<dim>128</dim>
					<dim>10</dim>
					<dim>5</dim>
				</port>
			</input>
			<output>
				<port id="4">
					<dim>1</dim>
					<dim>368</dim>
					<dim>10</dim>
					<dim>5</dim>
				</port>
			</output>
		</layer>
		<layer id="179" name="conv4_1/out/conv" precision="FP16" type="Convolution">
			<data dilation-x="1" dilation-y="1" group="1" kernel-x="1" kernel-y="1" output="256" pad-x="0" pad-y="0" stride="1,1,1,1" stride-x="1" stride-y="1"/>
			<input>
				<port id="0">
					<dim>1</dim>
					<dim>368</dim>
					<dim>10</dim>
					<dim>5</dim>
				</port>
			</input>
			<output>
				<port id="3">
					<dim>1</dim>
					<dim>256</dim>
					<dim>10</dim>
					<dim>5</dim>
				</port>
			</output>
			<blobs>
				<weights offset="1127440" size="188416"/>
				<biases offset="2168432" size="512"/>
			</blobs>
		</layer>
		<layer id="399" name="conv4_1" precision="FP16" type="Eltwise">
			<data coeff="1.0,1.0" operation="sum"/>
			<input>
				<port id="0">
					<dim>1</dim>
					<dim>256</dim>
					<dim>10</dim>
					<dim>5</dim>
				</port>
				<port id="1">
					<dim>1</dim>
					<dim>256</dim>
					<dim>10</dim>
					<dim>5</dim>
				</port>
			</input>
			<output>
				<port id="2">
					<dim>1</dim>
					<dim>256</dim>
					<dim>10</dim>
					<dim>5</dim>
				</port>
			</output>
		</layer>
		<layer id="73" name="conv4_2/input" precision="FP16" type="Power">
			<data power="1.0" scale="1.0" shift="0.0"/>
			<input>
				<port id="0">
					<dim>1</dim>
					<dim>256</dim>
					<dim>10</dim>
					<dim>5</dim>
				</port>
			</input>
			<output>
				<port id="1">
					<dim>1</dim>
					<dim>256</dim>
					<dim>10</dim>
					<dim>5</dim>
				</port>
			</output>
		</layer>
		<layer id="590" name="conv4_2/incep/bn" precision="FP16" type="BatchNormalization">
			<data epsilon="9.999999747378752e-06"/>
			<input>
				<port id="0">
					<dim>1</dim>
					<dim>256</dim>
					<dim>10</dim>
					<dim>5</dim>
				</port>
			</input>
			<output>
				<port id="3">
					<dim>1</dim>
					<dim>256</dim>
					<dim>10</dim>
					<dim>5</dim>
				</port>
			</output>
			<blobs>
				<biases offset="593632" size="512"/>
				<weights offset="132832" size="512"/>
			</blobs>
		</layer>
		<layer id="694" name="conv4_2/incep/bn_scale" precision="FP16" type="ScaleShift">
			<input>
				<port id="0">
					<dim>1</dim>
					<dim>256</dim>
					<dim>10</dim>
					<dim>5</dim>
				</port>
			</input>
			<output>
				<port id="3">
					<dim>1</dim>
					<dim>256</dim>
					<dim>10</dim>
					<dim>5</dim>
				</port>
			</output>
			<blobs>
				<weights offset="925776" size="512"/>
				<biases offset="1102128" size="512"/>
			</blobs>
		</layer>
		<layer id="256" name="conv4_2/incep/relu" precision="FP16" type="ReLU">
			<data engine="caffe.ReLUParameter.DEFAULT" negative_slope="0.0"/>
			<input>
				<port id="0">
					<dim>1</dim>
					<dim>256</dim>
					<dim>10</dim>
					<dim>5</dim>
				</port>
			</input>
			<output>
				<port id="1">
					<dim>1</dim>
					<dim>256</dim>
					<dim>10</dim>
					<dim>5</dim>
				</port>
			</output>
		</layer>
		<layer id="32" name="conv4_2/incep/1_reduce/conv" precision="FP16" type="Convolution">
			<data dilation-x="1" dilation-y="1" group="1" kernel-x="1" kernel-y="1" output="64" pad-x="0" pad-y="0" stride="1,1,1,1" stride-x="1" stride-y="1"/>
			<input>
				<port id="0">
					<dim>1</dim>
					<dim>256</dim>
					<dim>10</dim>
					<dim>5</dim>
				</port>
			</input>
			<output>
				<port id="2">
					<dim>1</dim>
					<dim>64</dim>
					<dim>10</dim>
					<dim>5</dim>
				</port>
			</output>
			<blobs>
				<weights offset="1069040" size="32768"/>
			</blobs>
		</layer>
		<layer id="72" name="conv4_2/incep/1_reduce/bn" precision="FP16" type="BatchNormalization">
			<data epsilon="9.999999747378752e-06"/>
			<input>
				<port id="0">
					<dim>1</dim>
					<dim>64</dim>
					<dim>10</dim>
					<dim>5</dim>
				</port>
			</input>
			<output>
				<port id="3">
					<dim>1</dim>
					<dim>64</dim>
					<dim>10</dim>
					<dim>5</dim>
				</port>
			</output>
			<blobs>
				<biases offset="1102640" size="128"/>
				<weights offset="1068816" size="128"/>
			</blobs>
		</layer>
		<layer id="659" name="conv4_2/incep/1_reduce/bn_scale" precision="FP16" type="ScaleShift">
			<input>
				<port id="0">
					<dim>1</dim>
					<dim>64</dim>
					<dim>10</dim>
					<dim>5</dim>
				</port>
			</input>
			<output>
				<port id="3">
					<dim>1</dim>
					<dim>64</dim>
					<dim>10</dim>
					<dim>5</dim>
				</port>
			</output>
			<blobs>
				<weights offset="1315952" size="128"/>
				<biases offset="1649872" size="128"/>
			</blobs>
		</layer>
		<layer id="484" name="conv4_2/incep/1_reduce/relu" precision="FP16" type="ReLU">
			<data engine="caffe.ReLUParameter.DEFAULT" negative_slope="0.0"/>
			<input>
				<port id="0">
					<dim>1</dim>
					<dim>64</dim>
					<dim>10</dim>
					<dim>5</dim>
				</port>
			</input>
			<output>
				<port id="1">
					<dim>1</dim>
					<dim>64</dim>
					<dim>10</dim>
					<dim>5</dim>
				</port>
			</output>
		</layer>
		<layer id="69" name="conv4_2/incep/1_0/conv" precision="FP16" type="Convolution">
			<data dilation-x="1" dilation-y="1" group="1" kernel-x="3" kernel-y="3" output="128" pad-x="1" pad-y="1" stride="1,1,1,1" stride-x="1" stride-y="1"/>
			<input>
				<port id="0">
					<dim>1</dim>
					<dim>64</dim>
					<dim>10</dim>
					<dim>5</dim>
				</port>
			</input>
			<output>
				<port id="2">
					<dim>1</dim>
					<dim>128</dim>
					<dim>10</dim>
					<dim>5</dim>
				</port>
			</output>
			<blobs>
				<weights offset="1986848" size="147456"/>
			</blobs>
		</layer>
		<layer id="672" name="conv4_2/incep/1_0/bn" precision="FP16" type="BatchNormalization">
			<data epsilon="9.999999747378752e-06"/>
			<input>
				<port id="0">
					<dim>1</dim>
					<dim>128</dim>
					<dim>10</dim>
					<dim>5</dim>
				</port>
			</input>
			<output>
				<port id="3">
					<dim>1</dim>
					<dim>128</dim>
					<dim>10</dim>
					<dim>5</dim>
				</port>
			</output>
			<blobs>
				<biases offset="213920" size="256"/>
				<weights offset="212960" size="256"/>
			</blobs>
		</layer>
		<layer id="217" name="conv4_2/incep/1_0/bn_scale" precision="FP16" type="ScaleShift">
			<input>
				<port id="0">
					<dim>1</dim>
					<dim>128</dim>
					<dim>10</dim>
					<dim>5</dim>
				</port>
			</input>
			<output>
				<port id="3">
					<dim>1</dim>
					<dim>128</dim>
					<dim>10</dim>
					<dim>5</dim>
				</port>
			</output>
			<blobs>
				<weights offset="214400" size="256"/>
				<biases offset="2135152" size="256"/>
			</blobs>
		</layer>
		<layer id="421" name="conv4_2/incep/1_0/relu" precision="FP16" type="ReLU">
			<data engine="caffe.ReLUParameter.DEFAULT" negative_slope="0.0"/>
			<input>
				<port id="0">
					<dim>1</dim>
					<dim>128</dim>
					<dim>10</dim>
					<dim>5</dim>
				</port>
			</input>
			<output>
				<port id="1">
					<dim>1</dim>
					<dim>128</dim>
					<dim>10</dim>
					<dim>5</dim>
				</port>
			</output>
		</layer>
		<layer id="496" name="conv4_2/incep/0/conv" precision="FP16" type="Convolution">
			<data dilation-x="1" dilation-y="1" group="1" kernel-x="1" kernel-y="1" output="64" pad-x="0" pad-y="0" stride="1,1,1,1" stride-x="1" stride-y="1"/>
			<input>
				<port id="0">
					<dim>1</dim>
					<dim>256</dim>
					<dim>10</dim>
					<dim>5</dim>
				</port>
			</input>
			<output>
				<port id="2">
					<dim>1</dim>
					<dim>64</dim>
					<dim>10</dim>
					<dim>5</dim>
				</port>
			</output>
			<blobs>
				<weights offset="1022848" size="32768"/>
			</blobs>
		</layer>
		<layer id="134" name="conv4_2/incep/0/bn" precision="FP16" type="BatchNormalization">
			<data epsilon="9.999999747378752e-06"/>
			<input>
				<port id="0">
					<dim>1</dim>
					<dim>64</dim>
					<dim>10</dim>
					<dim>5</dim>
				</port>
			</input>
			<output>
				<port id="3">
					<dim>1</dim>
					<dim>64</dim>
					<dim>10</dim>
					<dim>5</dim>
				</port>
			</output>
			<blobs>
				<biases offset="1912336" size="128"/>
				<weights offset="2135408" size="128"/>
			</blobs>
		</layer>
		<layer id="571" name="conv4_2/incep/0/bn_scale" precision="FP16" type="ScaleShift">
			<input>
				<port id="0">
					<dim>1</dim>
					<dim>64</dim>
					<dim>10</dim>
					<dim>5</dim>
				</port>
			</input>
			<output>
				<port id="3">
					<dim>1</dim>
					<dim>64</dim>
					<dim>10</dim>
					<dim>5</dim>
				</port>
			</output>
			<blobs>
				<weights offset="968064" size="128"/>
				<biases offset="1527536" size="128"/>
			</blobs>
		</layer>
		<layer id="565" name="conv4_2/incep/0/relu" precision="FP16" type="ReLU">
			<data engine="caffe.ReLUParameter.DEFAULT" negative_slope="0.0"/>
			<input>
				<port id="0">
					<dim>1</dim>
					<dim>64</dim>
					<dim>10</dim>
					<dim>5</dim>
				</port>
			</input>
			<output>
				<port id="1">
					<dim>1</dim>
					<dim>64</dim>
					<dim>10</dim>
					<dim>5</dim>
				</port>
			</output>
		</layer>
		<layer id="397" name="conv4_2/incep/2_reduce/conv" precision="FP16" type="Convolution">
			<data dilation-x="1" dilation-y="1" group="1" kernel-x="1" kernel-y="1" output="24" pad-x="0" pad-y="0" stride="1,1,1,1" stride-x="1" stride-y="1"/>
			<input>
				<port id="0">
					<dim>1</dim>
					<dim>256</dim>
					<dim>10</dim>
					<dim>5</dim>
				</port>
			</input>
			<output>
				<port id="2">
					<dim>1</dim>
					<dim>24</dim>
					<dim>10</dim>
					<dim>5</dim>
				</port>
			</output>
			<blobs>
				<weights offset="1776192" size="12288"/>
			</blobs>
		</layer>
		<layer id="481" name="conv4_2/incep/2_reduce/bn" precision="FP16" type="BatchNormalization">
			<data epsilon="9.999999747378752e-06"/>
			<input>
				<port id="0">
					<dim>1</dim>
					<dim>24</dim>
					<dim>10</dim>
					<dim>5</dim>
				</port>
			</input>
			<output>
				<port id="3">
					<dim>1</dim>
					<dim>24</dim>
					<dim>10</dim>
					<dim>5</dim>
				</port>
			</output>
			<blobs>
				<biases offset="925408" size="48"/>
				<weights offset="1986800" size="48"/>
			</blobs>
		</layer>
		<layer id="300" name="conv4_2/incep/2_reduce/bn_scale" precision="FP16" type="ScaleShift">
			<input>
				<port id="0">
					<dim>1</dim>
					<dim>24</dim>
					<dim>10</dim>
					<dim>5</dim>
				</port>
			</input>
			<output>
				<port id="3">
					<dim>1</dim>
					<dim>24</dim>
					<dim>10</dim>
					<dim>5</dim>
				</port>
			</output>
			<blobs>
				<weights offset="925456" size="48"/>
				<biases offset="1481280" size="48"/>
			</blobs>
		</layer>
		<layer id="506" name="conv4_2/incep/2_reduce/relu" precision="FP16" type="ReLU">
			<data engine="caffe.ReLUParameter.DEFAULT" negative_slope="0.0"/>
			<input>
				<port id="0">
					<dim>1</dim>
					<dim>24</dim>
					<dim>10</dim>
					<dim>5</dim>
				</port>
			</input>
			<output>
				<port id="1">
					<dim>1</dim>
					<dim>24</dim>
					<dim>10</dim>
					<dim>5</dim>
				</port>
			</output>
		</layer>
		<layer id="380" name="conv4_2/incep/2_0/conv" precision="FP16" type="Convolution">
			<data dilation-x="1" dilation-y="1" group="1" kernel-x="3" kernel-y="3" output="48" pad-x="1" pad-y="1" stride="1,1,1,1" stride-x="1" stride-y="1"/>
			<input>
				<port id="0">
					<dim>1</dim>
					<dim>24</dim>
					<dim>10</dim>
					<dim>5</dim>
				</port>
			</input>
			<output>
				<port id="2">
					<dim>1</dim>
					<dim>48</dim>
					<dim>10</dim>
					<dim>5</dim>
				</port>
			</output>
			<blobs>
				<weights offset="158208" size="20736"/>
			</blobs>
		</layer>
		<layer id="132" name="conv4_2/incep/2_0/bn" precision="FP16" type="BatchNormalization">
			<data epsilon="9.999999747378752e-06"/>
			<input>
				<port id="0">
					<dim>1</dim>
					<dim>48</dim>
					<dim>10</dim>
					<dim>5</dim>
				</port>
			</input>
			<output>
				<port id="3">
					<dim>1</dim>
					<dim>48</dim>
					<dim>10</dim>
					<dim>5</dim>
				</port>
			</output>
			<blobs>
				<biases offset="1494512" size="96"/>
				<weights offset="157920" size="96"/>
			</blobs>
		</layer>
		<layer id="443" name="conv4_2/incep/2_0/bn_scale" precision="FP16" type="ScaleShift">
			<input>
				<port id="0">
					<dim>1</dim>
					<dim>48</dim>
					<dim>10</dim>
					<dim>5</dim>
				</port>
			</input>
			<output>
				<port id="3">
					<dim>1</dim>
					<dim>48</dim>
					<dim>10</dim>
					<dim>5</dim>
				</port>
			</output>
			<blobs>
				<weights offset="1463952" size="96"/>
				<biases offset="1614784" size="96"/>
			</blobs>
		</layer>
		<layer id="599" name="conv4_2/incep/2_0/relu" precision="FP16" type="ReLU">
			<data engine="caffe.ReLUParameter.DEFAULT" negative_slope="0.0"/>
			<input>
				<port id="0">
					<dim>1</dim>
					<dim>48</dim>
					<dim>10</dim>
					<dim>5</dim>
				</port>
			</input>
			<output>
				<port id="1">
					<dim>1</dim>
					<dim>48</dim>
					<dim>10</dim>
					<dim>5</dim>
				</port>
			</output>
		</layer>
		<layer id="559" name="conv4_2/incep/2_1/conv" precision="FP16" type="Convolution">
			<data dilation-x="1" dilation-y="1" group="1" kernel-x="3" kernel-y="3" output="48" pad-x="1" pad-y="1" stride="1,1,1,1" stride-x="1" stride-y="1"/>
			<input>
				<port id="0">
					<dim>1</dim>
					<dim>48</dim>
					<dim>10</dim>
					<dim>5</dim>
				</port>
			</input>
			<output>
				<port id="2">
					<dim>1</dim>
					<dim>48</dim>
					<dim>10</dim>
					<dim>5</dim>
				</port>
			</output>
			<blobs>
				<weights offset="74624" size="41472"/>
			</blobs>
		</layer>
		<layer id="725" name="conv4_2/incep/2_1/bn" precision="FP16" type="BatchNormalization">
			<data epsilon="9.999999747378752e-06"/>
			<input>
				<port id="0">
					<dim>1</dim>
					<dim>48</dim>
					<dim>10</dim>
					<dim>5</dim>
				</port>
			</input>
			<output>
				<port id="3">
					<dim>1</dim>
					<dim>48</dim>
					<dim>10</dim>
					<dim>5</dim>
				</port>
			</output>
			<blobs>
				<biases offset="362160" size="96"/>
				<weights offset="2194592" size="96"/>
			</blobs>
		</layer>
		<layer id="737" name="conv4_2/incep/2_1/bn_scale" precision="FP16" type="ScaleShift">
			<input>
				<port id="0">
					<dim>1</dim>
					<dim>48</dim>
					<dim>10</dim>
					<dim>5</dim>
				</port>
			</input>
			<output>
				<port id="3">
					<dim>1</dim>
					<dim>48</dim>
					<dim>10</dim>
					<dim>5</dim>
				</port>
			</output>
			<blobs>
				<weights offset="214304" size="96"/>
				<biases offset="179248" size="96"/>
			</blobs>
		</layer>
		<layer id="728" name="conv4_2/incep/2_1/relu" precision="FP16" type="ReLU">
			<data engine="caffe.ReLUParameter.DEFAULT" negative_slope="0.0"/>
			<input>
				<port id="0">
					<dim>1</dim>
					<dim>48</dim>
					<dim>10</dim>
					<dim>5</dim>
				</port>
			</input>
			<output>
				<port id="1">
					<dim>1</dim>
					<dim>48</dim>
					<dim>10</dim>
					<dim>5</dim>
				</port>
			</output>
		</layer>
		<layer id="75" name="conv4_2/incep" precision="FP16" type="Concat">
			<data axis="1"/>
			<input>
				<port id="0">
					<dim>1</dim>
					<dim>64</dim>
					<dim>10</dim>
					<dim>5</dim>
				</port>
				<port id="1">
					<dim>1</dim>
					<dim>128</dim>
					<dim>10</dim>
					<dim>5</dim>
				</port>
				<port id="2">
					<dim>1</dim>
					<dim>48</dim>
					<dim>10</dim>
					<dim>5</dim>
				</port>
			</input>
			<output>
				<port id="3">
					<dim>1</dim>
					<dim>240</dim>
					<dim>10</dim>
					<dim>5</dim>
				</port>
			</output>
		</layer>
		<layer id="167" name="conv4_2/out/conv" precision="FP16" type="Convolution">
			<data dilation-x="1" dilation-y="1" group="1" kernel-x="1" kernel-y="1" output="256" pad-x="0" pad-y="0" stride="1,1,1,1" stride-x="1" stride-y="1"/>
			<input>
				<port id="0">
					<dim>1</dim>
					<dim>240</dim>
					<dim>10</dim>
					<dim>5</dim>
				</port>
			</input>
			<output>
				<port id="3">
					<dim>1</dim>
					<dim>256</dim>
					<dim>10</dim>
					<dim>5</dim>
				</port>
			</output>
			<blobs>
				<weights offset="650672" size="122880"/>
				<biases offset="1912464" size="512"/>
			</blobs>
		</layer>
		<layer id="485" name="conv4_2" precision="FP16" type="Eltwise">
			<data coeff="1.0,1.0" operation="sum"/>
			<input>
				<port id="0">
					<dim>1</dim>
					<dim>256</dim>
					<dim>10</dim>
					<dim>5</dim>
				</port>
				<port id="1">
					<dim>1</dim>
					<dim>256</dim>
					<dim>10</dim>
					<dim>5</dim>
				</port>
			</input>
			<output>
				<port id="2">
					<dim>1</dim>
					<dim>256</dim>
					<dim>10</dim>
					<dim>5</dim>
				</port>
			</output>
		</layer>
		<layer id="304" name="conv4_3/incep/bn" precision="FP16" type="BatchNormalization">
			<data epsilon="9.999999747378752e-06"/>
			<input>
				<port id="0">
					<dim>1</dim>
					<dim>256</dim>
					<dim>10</dim>
					<dim>5</dim>
				</port>
			</input>
			<output>
				<port id="3">
					<dim>1</dim>
					<dim>256</dim>
					<dim>10</dim>
					<dim>5</dim>
				</port>
			</output>
			<blobs>
				<biases offset="213408" size="512"/>
				<weights offset="2134640" size="512"/>
			</blobs>
		</layer>
		<layer id="126" name="conv4_3/input" precision="FP16" type="Power">
			<data power="1.0" scale="1.0" shift="0.0"/>
			<input>
				<port id="0">
					<dim>1</dim>
					<dim>256</dim>
					<dim>10</dim>
					<dim>5</dim>
				</port>
			</input>
			<output>
				<port id="1">
					<dim>1</dim>
					<dim>256</dim>
					<dim>10</dim>
					<dim>5</dim>
				</port>
			</output>
		</layer>
		<layer id="123" name="conv4_3/incep/bn_scale" precision="FP16" type="ScaleShift">
			<input>
				<port id="0">
					<dim>1</dim>
					<dim>256</dim>
					<dim>10</dim>
					<dim>5</dim>
				</port>
			</input>
			<output>
				<port id="3">
					<dim>1</dim>
					<dim>256</dim>
					<dim>10</dim>
					<dim>5</dim>
				</port>
			</output>
			<blobs>
				<weights offset="1481328" size="512"/>
				<biases offset="774304" size="512"/>
			</blobs>
		</layer>
		<layer id="84" name="conv4_3/incep/relu" precision="FP16" type="ReLU">
			<data engine="caffe.ReLUParameter.DEFAULT" negative_slope="0.0"/>
			<input>
				<port id="0">
					<dim>1</dim>
					<dim>256</dim>
					<dim>10</dim>
					<dim>5</dim>
				</port>
			</input>
			<output>
				<port id="1">
					<dim>1</dim>
					<dim>256</dim>
					<dim>10</dim>
					<dim>5</dim>
				</port>
			</output>
		</layer>
		<layer id="595" name="conv4_3/incep/0/conv" precision="FP16" type="Convolution">
			<data dilation-x="1" dilation-y="1" group="1" kernel-x="1" kernel-y="1" output="64" pad-x="0" pad-y="0" stride="1,1,1,1" stride-x="1" stride-y="1"/>
			<input>
				<port id="0">
					<dim>1</dim>
					<dim>256</dim>
					<dim>10</dim>
					<dim>5</dim>
				</port>
			</input>
			<output>
				<port id="2">
					<dim>1</dim>
					<dim>64</dim>
					<dim>10</dim>
					<dim>5</dim>
				</port>
			</output>
			<blobs>
				<weights offset="256" size="32768"/>
			</blobs>
		</layer>
		<layer id="761" name="conv4_3/incep/0/bn" precision="FP16" type="BatchNormalization">
			<data epsilon="9.999999747378752e-06"/>
			<input>
				<port id="0">
					<dim>1</dim>
					<dim>64</dim>
					<dim>10</dim>
					<dim>5</dim>
				</port>
			</input>
			<output>
				<port id="3">
					<dim>1</dim>
					<dim>64</dim>
					<dim>10</dim>
					<dim>5</dim>
				</port>
			</output>
			<blobs>
				<biases offset="214176" size="128"/>
				<weights offset="925504" size="128"/>
			</blobs>
		</layer>
		<layer id="332" name="conv4_3/incep/0/bn_scale" precision="FP16" type="ScaleShift">
			<input>
				<port id="0">
					<dim>1</dim>
					<dim>64</dim>
					<dim>10</dim>
					<dim>5</dim>
				</port>
			</input>
			<output>
				<port id="3">
					<dim>1</dim>
					<dim>64</dim>
					<dim>10</dim>
					<dim>5</dim>
				</port>
			</output>
			<blobs>
				<weights offset="922320" size="128"/>
				<biases offset="637760" size="128"/>
			</blobs>
		</layer>
		<layer id="632" name="conv4_3/incep/0/relu" precision="FP16" type="ReLU">
			<data engine="caffe.ReLUParameter.DEFAULT" negative_slope="0.0"/>
			<input>
				<port id="0">
					<dim>1</dim>
					<dim>64</dim>
					<dim>10</dim>
					<dim>5</dim>
				</port>
			</input>
			<output>
				<port id="1">
					<dim>1</dim>
					<dim>64</dim>
					<dim>10</dim>
					<dim>5</dim>
				</port>
			</output>
		</layer>
		<layer id="734" name="conv4_3/incep/1_reduce/conv" precision="FP16" type="Convolution">
			<data dilation-x="1" dilation-y="1" group="1" kernel-x="1" kernel-y="1" output="64" pad-x="0" pad-y="0" stride="1,1,1,1" stride-x="1" stride-y="1"/>
			<input>
				<port id="0">
					<dim>1</dim>
					<dim>256</dim>
					<dim>10</dim>
					<dim>5</dim>
				</port>
			</input>
			<output>
				<port id="2">
					<dim>1</dim>
					<dim>64</dim>
					<dim>10</dim>
					<dim>5</dim>
				</port>
			</output>
			<blobs>
				<weights offset="1615072" size="32768"/>
			</blobs>
		</layer>
		<layer id="613" name="conv4_3/incep/1_reduce/bn" precision="FP16" type="BatchNormalization">
			<data epsilon="9.999999747378752e-06"/>
			<input>
				<port id="0">
					<dim>1</dim>
					<dim>64</dim>
					<dim>10</dim>
					<dim>5</dim>
				</port>
			</input>
			<output>
				<port id="3">
					<dim>1</dim>
					<dim>64</dim>
					<dim>10</dim>
					<dim>5</dim>
				</port>
			</output>
			<blobs>
				<biases offset="1013152" size="128"/>
				<weights offset="773600" size="128"/>
			</blobs>
		</layer>
		<layer id="762" name="conv4_3/incep/1_reduce/bn_scale" precision="FP16" type="ScaleShift">
			<input>
				<port id="0">
					<dim>1</dim>
					<dim>64</dim>
					<dim>10</dim>
					<dim>5</dim>
				</port>
			</input>
			<output>
				<port id="3">
					<dim>1</dim>
					<dim>64</dim>
					<dim>10</dim>
					<dim>5</dim>
				</port>
			</output>
			<blobs>
				<weights offset="925280" size="128"/>
				<biases offset="972800" size="128"/>
			</blobs>
		</layer>
		<layer id="355" name="conv4_3/incep/1_reduce/relu" precision="FP16" type="ReLU">
			<data engine="caffe.ReLUParameter.DEFAULT" negative_slope="0.0"/>
			<input>
				<port id="0">
					<dim>1</dim>
					<dim>64</dim>
					<dim>10</dim>
					<dim>5</dim>
				</port>
			</input>
			<output>
				<port id="1">
					<dim>1</dim>
					<dim>64</dim>
					<dim>10</dim>
					<dim>5</dim>
				</port>
			</output>
		</layer>
		<layer id="782" name="conv4_3/incep/1_0/conv" precision="FP16" type="Convolution">
			<data dilation-x="1" dilation-y="1" group="1" kernel-x="3" kernel-y="3" output="128" pad-x="1" pad-y="1" stride="1,1,1,1" stride-x="1" stride-y="1"/>
			<input>
				<port id="0">
					<dim>1</dim>
					<dim>64</dim>
					<dim>10</dim>
					<dim>5</dim>
				</port>
			</input>
			<output>
				<port id="2">
					<dim>1</dim>
					<dim>128</dim>
					<dim>10</dim>
					<dim>5</dim>
				</port>
			</output>
			<blobs>
				<weights offset="774864" size="147456"/>
			</blobs>
		</layer>
		<layer id="440" name="conv4_3/incep/1_0/bn" precision="FP16" type="BatchNormalization">
			<data epsilon="9.999999747378752e-06"/>
			<input>
				<port id="0">
					<dim>1</dim>
					<dim>128</dim>
					<dim>10</dim>
					<dim>5</dim>
				</port>
			</input>
			<output>
				<port id="3">
					<dim>1</dim>
					<dim>128</dim>
					<dim>10</dim>
					<dim>5</dim>
				</port>
			</output>
			<blobs>
				<biases offset="924576" size="256"/>
				<weights offset="1055616" size="256"/>
			</blobs>
		</layer>
		<layer id="615" name="conv4_3/incep/1_0/bn_scale" precision="FP16" type="ScaleShift">
			<input>
				<port id="0">
					<dim>1</dim>
					<dim>128</dim>
					<dim>10</dim>
					<dim>5</dim>
				</port>
			</input>
			<output>
				<port id="3">
					<dim>1</dim>
					<dim>128</dim>
					<dim>10</dim>
					<dim>5</dim>
				</port>
			</output>
			<blobs>
				<weights offset="116192" size="256"/>
				<biases offset="1648944" size="256"/>
			</blobs>
		</layer>
		<layer id="514" name="conv4_3/incep/1_0/relu" precision="FP16" type="ReLU">
			<data engine="caffe.ReLUParameter.DEFAULT" negative_slope="0.0"/>
			<input>
				<port id="0">
					<dim>1</dim>
					<dim>128</dim>
					<dim>10</dim>
					<dim>5</dim>
				</port>
			</input>
			<output>
				<port id="1">
					<dim>1</dim>
					<dim>128</dim>
					<dim>10</dim>
					<dim>5</dim>
				</port>
			</output>
		</layer>
		<layer id="679" name="conv4_3/incep/2_reduce/conv" precision="FP16" type="Convolution">
			<data dilation-x="1" dilation-y="1" group="1" kernel-x="1" kernel-y="1" output="24" pad-x="0" pad-y="0" stride="1,1,1,1" stride-x="1" stride-y="1"/>
			<input>
				<port id="0">
					<dim>1</dim>
					<dim>256</dim>
					<dim>10</dim>
					<dim>5</dim>
				</port>
			</input>
			<output>
				<port id="2">
					<dim>1</dim>
					<dim>24</dim>
					<dim>10</dim>
					<dim>5</dim>
				</port>
			</output>
			<blobs>
				<weights offset="1527664" size="12288"/>
			</blobs>
		</layer>
		<layer id="601" name="conv4_3/incep/2_reduce/bn" precision="FP16" type="BatchNormalization">
			<data epsilon="9.999999747378752e-06"/>
			<input>
				<port id="0">
					<dim>1</dim>
					<dim>24</dim>
					<dim>10</dim>
					<dim>5</dim>
				</port>
			</input>
			<output>
				<port id="3">
					<dim>1</dim>
					<dim>24</dim>
					<dim>10</dim>
					<dim>5</dim>
				</port>
			</output>
			<blobs>
				<biases offset="178944" size="48"/>
				<weights offset="925728" size="48"/>
			</blobs>
		</layer>
		<layer id="205" name="conv4_3/incep/2_reduce/bn_scale" precision="FP16" type="ScaleShift">
			<input>
				<port id="0">
					<dim>1</dim>
					<dim>24</dim>
					<dim>10</dim>
					<dim>5</dim>
				</port>
			</input>
			<output>
				<port id="3">
					<dim>1</dim>
					<dim>24</dim>
					<dim>10</dim>
					<dim>5</dim>
				</port>
			</output>
			<blobs>
				<weights offset="650368" size="48"/>
				<biases offset="1463904" size="48"/>
			</blobs>
		</layer>
		<layer id="53" name="conv4_3/incep/2_reduce/relu" precision="FP16" type="ReLU">
			<data engine="caffe.ReLUParameter.DEFAULT" negative_slope="0.0"/>
			<input>
				<port id="0">
					<dim>1</dim>
					<dim>24</dim>
					<dim>10</dim>
					<dim>5</dim>
				</port>
			</input>
			<output>
				<port id="1">
					<dim>1</dim>
					<dim>24</dim>
					<dim>10</dim>
					<dim>5</dim>
				</port>
			</output>
		</layer>
		<layer id="79" name="conv4_3/incep/2_0/conv" precision="FP16" type="Convolution">
			<data dilation-x="1" dilation-y="1" group="1" kernel-x="3" kernel-y="3" output="48" pad-x="1" pad-y="1" stride="1,1,1,1" stride-x="1" stride-y="1"/>
			<input>
				<port id="0">
					<dim>1</dim>
					<dim>24</dim>
					<dim>10</dim>
					<dim>5</dim>
				</port>
			</input>
			<output>
				<port id="2">
					<dim>1</dim>
					<dim>48</dim>
					<dim>10</dim>
					<dim>5</dim>
				</port>
			</output>
			<blobs>
				<weights offset="2195424" size="20736"/>
			</blobs>
		</layer>
		<layer id="334" name="conv4_3/incep/2_0/bn" precision="FP16" type="BatchNormalization">
			<data epsilon="9.999999747378752e-06"/>
			<input>
				<port id="0">
					<dim>1</dim>
					<dim>48</dim>
					<dim>10</dim>
					<dim>5</dim>
				</port>
			</input>
			<output>
				<port id="3">
					<dim>1</dim>
					<dim>48</dim>
					<dim>10</dim>
					<dim>5</dim>
				</port>
			</output>
			<blobs>
				<biases offset="636128" size="96"/>
				<weights offset="1919776" size="96"/>
			</blobs>
		</layer>
		<layer id="310" name="conv4_3/incep/2_0/bn_scale" precision="FP16" type="ScaleShift">
			<input>
				<port id="0">
					<dim>1</dim>
					<dim>48</dim>
					<dim>10</dim>
					<dim>5</dim>
				</port>
			</input>
			<output>
				<port id="3">
					<dim>1</dim>
					<dim>48</dim>
					<dim>10</dim>
					<dim>5</dim>
				</port>
			</output>
			<blobs>
				<weights offset="1068944" size="96"/>
				<biases offset="979760" size="96"/>
			</blobs>
		</layer>
		<layer id="497" name="conv4_3/incep/2_0/relu" precision="FP16" type="ReLU">
			<data engine="caffe.ReLUParameter.DEFAULT" negative_slope="0.0"/>
			<input>
				<port id="0">
					<dim>1</dim>
					<dim>48</dim>
					<dim>10</dim>
					<dim>5</dim>
				</port>
			</input>
			<output>
				<port id="1">
					<dim>1</dim>
					<dim>48</dim>
					<dim>10</dim>
					<dim>5</dim>
				</port>
			</output>
		</layer>
		<layer id="266" name="conv4_3/incep/2_1/conv" precision="FP16" type="Convolution">
			<data dilation-x="1" dilation-y="1" group="1" kernel-x="3" kernel-y="3" output="48" pad-x="1" pad-y="1" stride="1,1,1,1" stride-x="1" stride-y="1"/>
			<input>
				<port id="0">
					<dim>1</dim>
					<dim>48</dim>
					<dim>10</dim>
					<dim>5</dim>
				</port>
			</input>
			<output>
				<port id="2">
					<dim>1</dim>
					<dim>48</dim>
					<dim>10</dim>
					<dim>5</dim>
				</port>
			</output>
			<blobs>
				<weights offset="926288" size="41472"/>
			</blobs>
		</layer>
		<layer id="344" name="conv4_3/incep/2_1/bn" precision="FP16" type="BatchNormalization">
			<data epsilon="9.999999747378752e-06"/>
			<input>
				<port id="0">
					<dim>1</dim>
					<dim>48</dim>
					<dim>10</dim>
					<dim>5</dim>
				</port>
			</input>
			<output>
				<port id="3">
					<dim>1</dim>
					<dim>48</dim>
					<dim>10</dim>
					<dim>5</dim>
				</port>
			</output>
			<blobs>
				<biases offset="1520176" size="96"/>
				<weights offset="979664" size="96"/>
			</blobs>
		</layer>
		<layer id="544" name="conv4_3/incep/2_1/bn_scale" precision="FP16" type="ScaleShift">
			<input>
				<port id="0">
					<dim>1</dim>
					<dim>48</dim>
					<dim>10</dim>
					<dim>5</dim>
				</port>
			</input>
			<output>
				<port id="3">
					<dim>1</dim>
					<dim>48</dim>
					<dim>10</dim>
					<dim>5</dim>
				</port>
			</output>
			<blobs>
				<weights offset="650272" size="96"/>
				<biases offset="1962032" size="96"/>
			</blobs>
		</layer>
		<layer id="444" name="conv4_3/incep/2_1/relu" precision="FP16" type="ReLU">
			<data engine="caffe.ReLUParameter.DEFAULT" negative_slope="0.0"/>
			<input>
				<port id="0">
					<dim>1</dim>
					<dim>48</dim>
					<dim>10</dim>
					<dim>5</dim>
				</port>
			</input>
			<output>
				<port id="1">
					<dim>1</dim>
					<dim>48</dim>
					<dim>10</dim>
					<dim>5</dim>
				</port>
			</output>
		</layer>
		<layer id="462" name="conv4_3/incep" precision="FP16" type="Concat">
			<data axis="1"/>
			<input>
				<port id="0">
					<dim>1</dim>
					<dim>64</dim>
					<dim>10</dim>
					<dim>5</dim>
				</port>
				<port id="1">
					<dim>1</dim>
					<dim>128</dim>
					<dim>10</dim>
					<dim>5</dim>
				</port>
				<port id="2">
					<dim>1</dim>
					<dim>48</dim>
					<dim>10</dim>
					<dim>5</dim>
				</port>
			</input>
			<output>
				<port id="3">
					<dim>1</dim>
					<dim>240</dim>
					<dim>10</dim>
					<dim>5</dim>
				</port>
			</output>
		</layer>
		<layer id="147" name="conv4_3/out/conv" precision="FP16" type="Convolution">
			<data dilation-x="1" dilation-y="1" group="1" kernel-x="1" kernel-y="1" output="256" pad-x="0" pad-y="0" stride="1,1,1,1" stride-x="1" stride-y="1"/>
			<input>
				<port id="0">
					<dim>1</dim>
					<dim>240</dim>
					<dim>10</dim>
					<dim>5</dim>
				</port>
			</input>
			<output>
				<port id="3">
					<dim>1</dim>
					<dim>256</dim>
					<dim>10</dim>
					<dim>5</dim>
				</port>
			</output>
			<blobs>
				<weights offset="470656" size="122880"/>
				<biases offset="923584" size="512"/>
			</blobs>
		</layer>
		<layer id="226" name="conv4_3" precision="FP16" type="Eltwise">
			<data coeff="1.0,1.0" operation="sum"/>
			<input>
				<port id="0">
					<dim>1</dim>
					<dim>256</dim>
					<dim>10</dim>
					<dim>5</dim>
				</port>
				<port id="1">
					<dim>1</dim>
					<dim>256</dim>
					<dim>10</dim>
					<dim>5</dim>
				</port>
			</input>
			<output>
				<port id="2">
					<dim>1</dim>
					<dim>256</dim>
					<dim>10</dim>
					<dim>5</dim>
				</port>
			</output>
		</layer>
		<layer id="201" name="conv4_4/incep/bn" precision="FP16" type="BatchNormalization">
			<data epsilon="9.999999747378752e-06"/>
			<input>
				<port id="0">
					<dim>1</dim>
					<dim>256</dim>
					<dim>10</dim>
					<dim>5</dim>
				</port>
			</input>
			<output>
				<port id="3">
					<dim>1</dim>
					<dim>256</dim>
					<dim>10</dim>
					<dim>5</dim>
				</port>
			</output>
			<blobs>
				<biases offset="1520784" size="512"/>
				<weights offset="972928" size="512"/>
			</blobs>
		</layer>
		<layer id="239" name="conv4_4/incep/bn_scale" precision="FP16" type="ScaleShift">
			<input>
				<port id="0">
					<dim>1</dim>
					<dim>256</dim>
					<dim>10</dim>
					<dim>5</dim>
				</port>
			</input>
			<output>
				<port id="3">
					<dim>1</dim>
					<dim>256</dim>
					<dim>10</dim>
					<dim>5</dim>
				</port>
			</output>
			<blobs>
				<weights offset="1520272" size="512"/>
				<biases offset="404160" size="512"/>
			</blobs>
		</layer>
		<layer id="731" name="conv4_4/incep/relu" precision="FP16" type="ReLU">
			<data engine="caffe.ReLUParameter.DEFAULT" negative_slope="0.0"/>
			<input>
				<port id="0">
					<dim>1</dim>
					<dim>256</dim>
					<dim>10</dim>
					<dim>5</dim>
				</port>
			</input>
			<output>
				<port id="1">
					<dim>1</dim>
					<dim>256</dim>
					<dim>10</dim>
					<dim>5</dim>
				</port>
			</output>
		</layer>
		<layer id="763" name="conv4_4/incep/1_reduce/conv" precision="FP16" type="Convolution">
			<data dilation-x="1" dilation-y="1" group="1" kernel-x="1" kernel-y="1" output="64" pad-x="0" pad-y="0" stride="1,1,1,1" stride-x="1" stride-y="1"/>
			<input>
				<port id="0">
					<dim>1</dim>
					<dim>256</dim>
					<dim>10</dim>
					<dim>5</dim>
				</port>
			</input>
			<output>
				<port id="2">
					<dim>1</dim>
					<dim>64</dim>
					<dim>10</dim>
					<dim>5</dim>
				</port>
			</output>
			<blobs>
				<weights offset="1540096" size="32768"/>
			</blobs>
		</layer>
		<layer id="57" name="conv4_4/incep/1_reduce/bn" precision="FP16" type="BatchNormalization">
			<data epsilon="9.999999747378752e-06"/>
			<input>
				<port id="0">
					<dim>1</dim>
					<dim>64</dim>
					<dim>10</dim>
					<dim>5</dim>
				</port>
			</input>
			<output>
				<port id="3">
					<dim>1</dim>
					<dim>64</dim>
					<dim>10</dim>
					<dim>5</dim>
				</port>
			</output>
			<blobs>
				<biases offset="1016480" size="128"/>
				<weights offset="2168304" size="128"/>
			</blobs>
		</layer>
		<layer id="381" name="conv4_4/incep/1_reduce/bn_scale" precision="FP16" type="ScaleShift">
			<input>
				<port id="0">
					<dim>1</dim>
					<dim>64</dim>
					<dim>10</dim>
					<dim>5</dim>
				</port>
			</input>
			<output>
				<port id="3">
					<dim>1</dim>
					<dim>64</dim>
					<dim>10</dim>
					<dim>5</dim>
				</port>
			</output>
			<blobs>
				<weights offset="2193520" size="128"/>
				<biases offset="1395136" size="128"/>
			</blobs>
		</layer>
		<layer id="294" name="conv4_4/incep/1_reduce/relu" precision="FP16" type="ReLU">
			<data engine="caffe.ReLUParameter.DEFAULT" negative_slope="0.0"/>
			<input>
				<port id="0">
					<dim>1</dim>
					<dim>64</dim>
					<dim>10</dim>
					<dim>5</dim>
				</port>
			</input>
			<output>
				<port id="1">
					<dim>1</dim>
					<dim>64</dim>
					<dim>10</dim>
					<dim>5</dim>
				</port>
			</output>
		</layer>
		<layer id="90" name="conv4_4/incep/1_0/conv" precision="FP16" type="Convolution">
			<data dilation-x="1" dilation-y="1" group="1" kernel-x="3" kernel-y="3" output="128" pad-x="1" pad-y="1" stride="1,1,1,1" stride-x="1" stride-y="1"/>
			<input>
				<port id="0">
					<dim>1</dim>
					<dim>64</dim>
					<dim>10</dim>
					<dim>5</dim>
				</port>
			</input>
			<output>
				<port id="2">
					<dim>1</dim>
					<dim>128</dim>
					<dim>10</dim>
					<dim>5</dim>
				</port>
			</output>
			<blobs>
				<weights offset="214656" size="147456"/>
			</blobs>
		</layer>
		<layer id="59" name="conv4_4/incep/1_0/bn" precision="FP16" type="BatchNormalization">
			<data epsilon="9.999999747378752e-06"/>
			<input>
				<port id="0">
					<dim>1</dim>
					<dim>128</dim>
					<dim>10</dim>
					<dim>5</dim>
				</port>
			</input>
			<output>
				<port id="3">
					<dim>1</dim>
					<dim>128</dim>
					<dim>10</dim>
					<dim>5</dim>
				</port>
			</output>
			<blobs>
				<biases offset="1775760" size="256"/>
				<weights offset="1912080" size="256"/>
			</blobs>
		</layer>
		<layer id="288" name="conv4_4/incep/1_0/bn_scale" precision="FP16" type="ScaleShift">
			<input>
				<port id="0">
					<dim>1</dim>
					<dim>128</dim>
					<dim>10</dim>
					<dim>5</dim>
				</port>
			</input>
			<output>
				<port id="3">
					<dim>1</dim>
					<dim>128</dim>
					<dim>10</dim>
					<dim>5</dim>
				</port>
			</output>
			<blobs>
				<weights offset="922544" size="256"/>
				<biases offset="635872" size="256"/>
			</blobs>
		</layer>
		<layer id="394" name="conv4_4/incep/1_0/relu" precision="FP16" type="ReLU">
			<data engine="caffe.ReLUParameter.DEFAULT" negative_slope="0.0"/>
			<input>
				<port id="0">
					<dim>1</dim>
					<dim>128</dim>
					<dim>10</dim>
					<dim>5</dim>
				</port>
			</input>
			<output>
				<port id="1">
					<dim>1</dim>
					<dim>128</dim>
					<dim>10</dim>
					<dim>5</dim>
				</port>
			</output>
		</layer>
		<layer id="238" name="conv4_4/incep/0/conv" precision="FP16" type="Convolution">
			<data dilation-x="1" dilation-y="1" group="1" kernel-x="1" kernel-y="1" output="64" pad-x="0" pad-y="0" stride="1,1,1,1" stride-x="1" stride-y="1"/>
			<input>
				<port id="0">
					<dim>1</dim>
					<dim>256</dim>
					<dim>10</dim>
					<dim>5</dim>
				</port>
			</input>
			<output>
				<port id="2">
					<dim>1</dim>
					<dim>64</dim>
					<dim>10</dim>
					<dim>5</dim>
				</port>
			</output>
			<blobs>
				<weights offset="2135536" size="32768"/>
			</blobs>
		</layer>
		<layer id="263" name="conv4_4/incep/0/bn" precision="FP16" type="BatchNormalization">
			<data epsilon="9.999999747378752e-06"/>
			<input>
				<port id="0">
					<dim>1</dim>
					<dim>64</dim>
					<dim>10</dim>
					<dim>5</dim>
				</port>
			</input>
			<output>
				<port id="3">
					<dim>1</dim>
					<dim>64</dim>
					<dim>10</dim>
					<dim>5</dim>
				</port>
			</output>
			<blobs>
				<biases offset="1013280" size="128"/>
				<weights offset="924448" size="128"/>
			</blobs>
		</layer>
		<layer id="118" name="conv4_4/incep/0/bn_scale" precision="FP16" type="ScaleShift">
			<input>
				<port id="0">
					<dim>1</dim>
					<dim>64</dim>
					<dim>10</dim>
					<dim>5</dim>
				</port>
			</input>
			<output>
				<port id="3">
					<dim>1</dim>
					<dim>64</dim>
					<dim>10</dim>
					<dim>5</dim>
				</port>
			</output>
			<blobs>
				<weights offset="2193984" size="128"/>
				<biases offset="1648816" size="128"/>
			</blobs>
		</layer>
		<layer id="234" name="conv4_4/incep/0/relu" precision="FP16" type="ReLU">
			<data engine="caffe.ReLUParameter.DEFAULT" negative_slope="0.0"/>
			<input>
				<port id="0">
					<dim>1</dim>
					<dim>64</dim>
					<dim>10</dim>
					<dim>5</dim>
				</port>
			</input>
			<output>
				<port id="1">
					<dim>1</dim>
					<dim>64</dim>
					<dim>10</dim>
					<dim>5</dim>
				</port>
			</output>
		</layer>
		<layer id="451" name="conv4_4/incep/2_reduce/conv" precision="FP16" type="Convolution">
			<data dilation-x="1" dilation-y="1" group="1" kernel-x="1" kernel-y="1" output="24" pad-x="0" pad-y="0" stride="1,1,1,1" stride-x="1" stride-y="1"/>
			<input>
				<port id="0">
					<dim>1</dim>
					<dim>256</dim>
					<dim>10</dim>
					<dim>5</dim>
				</port>
			</input>
			<output>
				<port id="2">
					<dim>1</dim>
					<dim>24</dim>
					<dim>10</dim>
					<dim>5</dim>
				</port>
			</output>
			<blobs>
				<weights offset="979904" size="12288"/>
			</blobs>
		</layer>
		<layer id="10" name="conv4_4/incep/2_reduce/bn" precision="FP16" type="BatchNormalization">
			<data epsilon="9.999999747378752e-06"/>
			<input>
				<port id="0">
					<dim>1</dim>
					<dim>24</dim>
					<dim>10</dim>
					<dim>5</dim>
				</port>
			</input>
			<output>
				<port id="3">
					<dim>1</dim>
					<dim>24</dim>
					<dim>10</dim>
					<dim>5</dim>
				</port>
			</output>
			<blobs>
				<biases offset="774816" size="48"/>
				<weights offset="2193744" size="48"/>
			</blobs>
		</layer>
		<layer id="504" name="conv4_4/incep/2_reduce/bn_scale" precision="FP16" type="ScaleShift">
			<input>
				<port id="0">
					<dim>1</dim>
					<dim>24</dim>
					<dim>10</dim>
					<dim>5</dim>
				</port>
			</input>
			<output>
				<port id="3">
					<dim>1</dim>
					<dim>24</dim>
					<dim>10</dim>
					<dim>5</dim>
				</port>
			</output>
			<blobs>
				<weights offset="147504" size="48"/>
				<biases offset="212656" size="48"/>
			</blobs>
		</layer>
		<layer id="26" name="conv4_4/incep/2_reduce/relu" precision="FP16" type="ReLU">
			<data engine="caffe.ReLUParameter.DEFAULT" negative_slope="0.0"/>
			<input>
				<port id="0">
					<dim>1</dim>
					<dim>24</dim>
					<dim>10</dim>
					<dim>5</dim>
				</port>
			</input>
			<output>
				<port id="1">
					<dim>1</dim>
					<dim>24</dim>
					<dim>10</dim>
					<dim>5</dim>
				</port>
			</output>
		</layer>
		<layer id="465" name="conv4_4/incep/2_0/conv" precision="FP16" type="Convolution">
			<data dilation-x="1" dilation-y="1" group="1" kernel-x="3" kernel-y="3" output="48" pad-x="1" pad-y="1" stride="1,1,1,1" stride-x="1" stride-y="1"/>
			<input>
				<port id="0">
					<dim>1</dim>
					<dim>24</dim>
					<dim>10</dim>
					<dim>5</dim>
				</port>
			</input>
			<output>
				<port id="2">
					<dim>1</dim>
					<dim>48</dim>
					<dim>10</dim>
					<dim>5</dim>
				</port>
			</output>
			<blobs>
				<weights offset="1395264" size="20736"/>
			</blobs>
		</layer>
		<layer id="551" name="conv4_4/incep/2_0/bn" precision="FP16" type="BatchNormalization">
			<data epsilon="9.999999747378752e-06"/>
			<input>
				<port id="0">
					<dim>1</dim>
					<dim>48</dim>
					<dim>10</dim>
					<dim>5</dim>
				</port>
			</input>
			<output>
				<port id="3">
					<dim>1</dim>
					<dim>48</dim>
					<dim>10</dim>
					<dim>5</dim>
				</port>
			</output>
			<blobs>
				<biases offset="470560" size="96"/>
				<weights offset="1647840" size="96"/>
			</blobs>
		</layer>
		<layer id="480" name="conv4_4/incep/2_0/bn_scale" precision="FP16" type="ScaleShift">
			<input>
				<port id="0">
					<dim>1</dim>
					<dim>48</dim>
					<dim>10</dim>
					<dim>5</dim>
				</port>
			</input>
			<output>
				<port id="3">
					<dim>1</dim>
					<dim>48</dim>
					<dim>10</dim>
					<dim>5</dim>
				</port>
			</output>
			<blobs>
				<weights offset="2193648" size="96"/>
				<biases offset="1056128" size="96"/>
			</blobs>
		</layer>
		<layer id="313" name="conv4_4/incep/2_0/relu" precision="FP16" type="ReLU">
			<data engine="caffe.ReLUParameter.DEFAULT" negative_slope="0.0"/>
			<input>
				<port id="0">
					<dim>1</dim>
					<dim>48</dim>
					<dim>10</dim>
					<dim>5</dim>
				</port>
			</input>
			<output>
				<port id="1">
					<dim>1</dim>
					<dim>48</dim>
					<dim>10</dim>
					<dim>5</dim>
				</port>
			</output>
		</layer>
		<layer id="649" name="conv4_4/incep/2_1/conv" precision="FP16" type="Convolution">
			<data dilation-x="1" dilation-y="1" group="1" kernel-x="3" kernel-y="3" output="48" pad-x="1" pad-y="1" stride="1,1,1,1" stride-x="1" stride-y="1"/>
			<input>
				<port id="0">
					<dim>1</dim>
					<dim>48</dim>
					<dim>10</dim>
					<dim>5</dim>
				</port>
			</input>
			<output>
				<port id="2">
					<dim>1</dim>
					<dim>48</dim>
					<dim>10</dim>
					<dim>5</dim>
				</port>
			</output>
			<blobs>
				<weights offset="1422336" size="41472"/>
			</blobs>
		</layer>
		<layer id="195" name="conv4_4/incep/2_1/bn" precision="FP16" type="BatchNormalization">
			<data epsilon="9.999999747378752e-06"/>
			<input>
				<port id="0">
					<dim>1</dim>
					<dim>48</dim>
					<dim>10</dim>
					<dim>5</dim>
				</port>
			</input>
			<output>
				<port id="3">
					<dim>1</dim>
					<dim>48</dim>
					<dim>10</dim>
					<dim>5</dim>
				</port>
			</output>
			<blobs>
				<biases offset="2194976" size="96"/>
				<weights offset="2194688" size="96"/>
			</blobs>
		</layer>
		<layer id="225" name="conv4_4/incep/2_1/bn_scale" precision="FP16" type="ScaleShift">
			<input>
				<port id="0">
					<dim>1</dim>
					<dim>48</dim>
					<dim>10</dim>
					<dim>5</dim>
				</port>
			</input>
			<output>
				<port id="3">
					<dim>1</dim>
					<dim>48</dim>
					<dim>10</dim>
					<dim>5</dim>
				</port>
			</output>
			<blobs>
				<weights offset="1463808" size="96"/>
				<biases offset="404800" size="96"/>
			</blobs>
		</layer>
		<layer id="680" name="conv4_4/incep/2_1/relu" precision="FP16" type="ReLU">
			<data engine="caffe.ReLUParameter.DEFAULT" negative_slope="0.0"/>
			<input>
				<port id="0">
					<dim>1</dim>
					<dim>48</dim>
					<dim>10</dim>
					<dim>5</dim>
				</port>
			</input>
			<output>
				<port id="1">
					<dim>1</dim>
					<dim>48</dim>
					<dim>10</dim>
					<dim>5</dim>
				</port>
			</output>
		</layer>
		<layer id="642" name="conv4_4/incep" precision="FP16" type="Concat">
			<data axis="1"/>
			<input>
				<port id="0">
					<dim>1</dim>
					<dim>64</dim>
					<dim>10</dim>
					<dim>5</dim>
				</port>
				<port id="1">
					<dim>1</dim>
					<dim>128</dim>
					<dim>10</dim>
					<dim>5</dim>
				</port>
				<port id="2">
					<dim>1</dim>
					<dim>48</dim>
					<dim>10</dim>
					<dim>5</dim>
				</port>
			</input>
			<output>
				<port id="3">
					<dim>1</dim>
					<dim>240</dim>
					<dim>10</dim>
					<dim>5</dim>
				</port>
			</output>
		</layer>
		<layer id="483" name="conv4_4/out/conv" precision="FP16" type="Convolution">
			<data dilation-x="1" dilation-y="1" group="1" kernel-x="1" kernel-y="1" output="256" pad-x="0" pad-y="0" stride="1,1,1,1" stride-x="1" stride-y="1"/>
			<input>
				<port id="0">
					<dim>1</dim>
					<dim>240</dim>
					<dim>10</dim>
					<dim>5</dim>
				</port>
			</input>
			<output>
				<port id="3">
					<dim>1</dim>
					<dim>256</dim>
					<dim>10</dim>
					<dim>5</dim>
				</port>
			</output>
			<blobs>
				<weights offset="1789200" size="122880"/>
				<biases offset="1961520" size="512"/>
			</blobs>
		</layer>
		<layer id="295" name="conv4_4/input" precision="FP16" type="Power">
			<data power="1.0" scale="1.0" shift="0.0"/>
			<input>
				<port id="0">
					<dim>1</dim>
					<dim>256</dim>
					<dim>10</dim>
					<dim>5</dim>
				</port>
			</input>
			<output>
				<port id="1">
					<dim>1</dim>
					<dim>256</dim>
					<dim>10</dim>
					<dim>5</dim>
				</port>
			</output>
		</layer>
		<layer id="264" name="conv4_4" precision="FP16" type="Eltwise">
			<data coeff="1.0,1.0" operation="sum"/>
			<input>
				<port id="0">
					<dim>1</dim>
					<dim>256</dim>
					<dim>10</dim>
					<dim>5</dim>
				</port>
				<port id="1">
					<dim>1</dim>
					<dim>256</dim>
					<dim>10</dim>
					<dim>5</dim>
				</port>
			</input>
			<output>
				<port id="2">
					<dim>1</dim>
					<dim>256</dim>
					<dim>10</dim>
					<dim>5</dim>
				</port>
			</output>
		</layer>
		<layer id="228" name="hyperfeature" precision="FP16" type="Concat">
			<data axis="1"/>
			<input>
				<port id="0">
					<dim>1</dim>
					<dim>256</dim>
					<dim>10</dim>
					<dim>5</dim>
				</port>
				<port id="1">
					<dim>1</dim>
					<dim>256</dim>
					<dim>10</dim>
					<dim>5</dim>
				</port>
			</input>
			<output>
				<port id="2">
					<dim>1</dim>
					<dim>512</dim>
					<dim>10</dim>
					<dim>5</dim>
				</port>
			</output>
		</layer>
		<layer id="99" name="Convolution12__" precision="FP16" type="Convolution">
			<data dilation-x="1" dilation-y="1" group="1" kernel-x="1" kernel-y="1" output="6" pad-x="0" pad-y="0" stride="1,1,1,1" stride-x="1" stride-y="1"/>
			<input>
				<port id="0">
					<dim>1</dim>
					<dim>512</dim>
					<dim>10</dim>
					<dim>5</dim>
				</port>
			</input>
			<output>
				<port id="2">
					<dim>1</dim>
					<dim>6</dim>
					<dim>10</dim>
					<dim>5</dim>
				</port>
			</output>
			<blobs>
				<weights offset="2216160" size="6144"/>
			</blobs>
		</layer>
		<layer id="553" name="fc_attrib" precision="FP16" type="Pooling">
			<data exclude-pad="false" kernel-x="5" kernel-y="10" pad-x="0" pad-y="0" pool-method="max" rounding_type="ceil" stride="1,1,1,1" stride-x="1" stride-y="1"/>
			<input>
				<port id="0">
					<dim>1</dim>
					<dim>6</dim>
					<dim>10</dim>
					<dim>5</dim>
				</port>
			</input>
			<output>
				<port id="1">
					<dim>1</dim>
					<dim>6</dim>
					<dim>1</dim>
					<dim>1</dim>
				</port>
			</output>
		</layer>
		<layer id="199" name="sigmoid" precision="FP16" type="Sigmoid">
			<input>
				<port id="0">
					<dim>1</dim>
					<dim>6</dim>
					<dim>1</dim>
					<dim>1</dim>
				</port>
			</input>
			<output>
				<port id="1">
					<dim>1</dim>
					<dim>6</dim>
					<dim>1</dim>
					<dim>1</dim>
				</port>
			</output>
		</layer>
	</layers>
	<edges>
		<edge from-layer="372" from-port="0" to-layer="430" to-port="0"/>
		<edge from-layer="430" from-port="2" to-layer="666" to-port="0"/>
		<edge from-layer="666" from-port="3" to-layer="227" to-port="0"/>
		<edge from-layer="666" from-port="3" to-layer="526" to-port="0"/>
		<edge from-layer="227" from-port="1" to-layer="526" to-port="1"/>
		<edge from-layer="526" from-port="2" to-layer="49" to-port="0"/>
		<edge from-layer="49" from-port="3" to-layer="189" to-port="0"/>
		<edge from-layer="189" from-port="1" to-layer="586" to-port="0"/>
		<edge from-layer="586" from-port="1" to-layer="545" to-port="0"/>
		<edge from-layer="545" from-port="3" to-layer="417" to-port="0"/>
		<edge from-layer="417" from-port="3" to-layer="552" to-port="0"/>
		<edge from-layer="552" from-port="3" to-layer="581" to-port="0"/>
		<edge from-layer="581" from-port="1" to-layer="290" to-port="0"/>
		<edge from-layer="290" from-port="3" to-layer="76" to-port="0"/>
		<edge from-layer="76" from-port="3" to-layer="110" to-port="0"/>
		<edge from-layer="76" from-port="3" to-layer="289" to-port="0"/>
		<edge from-layer="110" from-port="1" to-layer="289" to-port="1"/>
		<edge from-layer="289" from-port="2" to-layer="549" to-port="0"/>
		<edge from-layer="549" from-port="3" to-layer="410" to-port="0"/>
		<edge from-layer="410" from-port="1" to-layer="536" to-port="0"/>
		<edge from-layer="586" from-port="1" to-layer="563" to-port="0"/>
		<edge from-layer="536" from-port="3" to-layer="373" to-port="0"/>
		<edge from-layer="563" from-port="3" to-layer="373" to-port="1"/>
		<edge from-layer="373" from-port="2" to-layer="460" to-port="0"/>
		<edge from-layer="460" from-port="3" to-layer="315" to-port="0"/>
		<edge from-layer="315" from-port="3" to-layer="623" to-port="0"/>
		<edge from-layer="623" from-port="1" to-layer="717" to-port="0"/>
		<edge from-layer="717" from-port="3" to-layer="63" to-port="0"/>
		<edge from-layer="63" from-port="3" to-layer="630" to-port="0"/>
		<edge from-layer="630" from-port="3" to-layer="367" to-port="0"/>
		<edge from-layer="367" from-port="1" to-layer="270" to-port="0"/>
		<edge from-layer="270" from-port="3" to-layer="461" to-port="0"/>
		<edge from-layer="461" from-port="3" to-layer="501" to-port="0"/>
		<edge from-layer="461" from-port="3" to-layer="286" to-port="0"/>
		<edge from-layer="501" from-port="1" to-layer="286" to-port="1"/>
		<edge from-layer="373" from-port="2" to-layer="663" to-port="0"/>
		<edge from-layer="286" from-port="2" to-layer="425" to-port="0"/>
		<edge from-layer="425" from-port="3" to-layer="348" to-port="0"/>
		<edge from-layer="348" from-port="1" to-layer="759" to-port="0"/>
		<edge from-layer="759" from-port="3" to-layer="438" to-port="0"/>
		<edge from-layer="663" from-port="1" to-layer="438" to-port="1"/>
		<edge from-layer="438" from-port="2" to-layer="297" to-port="0"/>
		<edge from-layer="297" from-port="3" to-layer="391" to-port="0"/>
		<edge from-layer="391" from-port="3" to-layer="88" to-port="0"/>
		<edge from-layer="88" from-port="1" to-layer="564" to-port="0"/>
		<edge from-layer="564" from-port="3" to-layer="198" to-port="0"/>
		<edge from-layer="198" from-port="3" to-layer="339" to-port="0"/>
		<edge from-layer="339" from-port="3" to-layer="202" to-port="0"/>
		<edge from-layer="202" from-port="1" to-layer="82" to-port="0"/>
		<edge from-layer="82" from-port="3" to-layer="254" to-port="0"/>
		<edge from-layer="254" from-port="3" to-layer="531" to-port="0"/>
		<edge from-layer="254" from-port="3" to-layer="130" to-port="0"/>
		<edge from-layer="531" from-port="1" to-layer="130" to-port="1"/>
		<edge from-layer="130" from-port="2" to-layer="708" to-port="0"/>
		<edge from-layer="708" from-port="3" to-layer="138" to-port="0"/>
		<edge from-layer="138" from-port="1" to-layer="176" to-port="0"/>
		<edge from-layer="438" from-port="2" to-layer="513" to-port="0"/>
		<edge from-layer="176" from-port="3" to-layer="525" to-port="0"/>
		<edge from-layer="513" from-port="1" to-layer="525" to-port="1"/>
		<edge from-layer="525" from-port="2" to-layer="40" to-port="0"/>
		<edge from-layer="40" from-port="3" to-layer="503" to-port="0"/>
		<edge from-layer="503" from-port="3" to-layer="169" to-port="0"/>
		<edge from-layer="169" from-port="1" to-layer="512" to-port="0"/>
		<edge from-layer="512" from-port="3" to-layer="779" to-port="0"/>
		<edge from-layer="779" from-port="3" to-layer="159" to-port="0"/>
		<edge from-layer="159" from-port="3" to-layer="104" to-port="0"/>
		<edge from-layer="104" from-port="1" to-layer="676" to-port="0"/>
		<edge from-layer="676" from-port="3" to-layer="161" to-port="0"/>
		<edge from-layer="161" from-port="3" to-layer="436" to-port="0"/>
		<edge from-layer="161" from-port="3" to-layer="85" to-port="0"/>
		<edge from-layer="436" from-port="1" to-layer="85" to-port="1"/>
		<edge from-layer="85" from-port="2" to-layer="330" to-port="0"/>
		<edge from-layer="330" from-port="3" to-layer="218" to-port="0"/>
		<edge from-layer="218" from-port="1" to-layer="648" to-port="0"/>
		<edge from-layer="169" from-port="1" to-layer="627" to-port="0"/>
		<edge from-layer="648" from-port="3" to-layer="15" to-port="0"/>
		<edge from-layer="627" from-port="3" to-layer="15" to-port="1"/>
		<edge from-layer="15" from-port="2" to-layer="718" to-port="0"/>
		<edge from-layer="718" from-port="3" to-layer="566" to-port="0"/>
		<edge from-layer="566" from-port="3" to-layer="474" to-port="0"/>
		<edge from-layer="474" from-port="1" to-layer="246" to-port="0"/>
		<edge from-layer="15" from-port="2" to-layer="455" to-port="0"/>
		<edge from-layer="246" from-port="3" to-layer="778" to-port="0"/>
		<edge from-layer="778" from-port="3" to-layer="318" to-port="0"/>
		<edge from-layer="318" from-port="3" to-layer="281" to-port="0"/>
		<edge from-layer="281" from-port="1" to-layer="284" to-port="0"/>
		<edge from-layer="284" from-port="3" to-layer="14" to-port="0"/>
		<edge from-layer="14" from-port="3" to-layer="125" to-port="0"/>
		<edge from-layer="14" from-port="3" to-layer="517" to-port="0"/>
		<edge from-layer="125" from-port="1" to-layer="517" to-port="1"/>
		<edge from-layer="517" from-port="2" to-layer="244" to-port="0"/>
		<edge from-layer="244" from-port="3" to-layer="6" to-port="0"/>
		<edge from-layer="6" from-port="1" to-layer="402" to-port="0"/>
		<edge from-layer="402" from-port="3" to-layer="774" to-port="0"/>
		<edge from-layer="455" from-port="1" to-layer="774" to-port="1"/>
		<edge from-layer="774" from-port="2" to-layer="688" to-port="0"/>
		<edge from-layer="688" from-port="3" to-layer="479" to-port="0"/>
		<edge from-layer="479" from-port="3" to-layer="86" to-port="0"/>
		<edge from-layer="86" from-port="1" to-layer="716" to-port="0"/>
		<edge from-layer="716" from-port="3" to-layer="505" to-port="0"/>
		<edge from-layer="505" from-port="3" to-layer="156" to-port="0"/>
		<edge from-layer="156" from-port="3" to-layer="277" to-port="0"/>
		<edge from-layer="277" from-port="1" to-layer="45" to-port="0"/>
		<edge from-layer="45" from-port="3" to-layer="450" to-port="0"/>
		<edge from-layer="450" from-port="3" to-layer="719" to-port="0"/>
		<edge from-layer="450" from-port="3" to-layer="547" to-port="0"/>
		<edge from-layer="719" from-port="1" to-layer="547" to-port="1"/>
		<edge from-layer="547" from-port="2" to-layer="141" to-port="0"/>
		<edge from-layer="141" from-port="3" to-layer="38" to-port="0"/>
		<edge from-layer="38" from-port="1" to-layer="416" to-port="0"/>
		<edge from-layer="774" from-port="2" to-layer="467" to-port="0"/>
		<edge from-layer="416" from-port="3" to-layer="17" to-port="0"/>
		<edge from-layer="467" from-port="1" to-layer="17" to-port="1"/>
		<edge from-layer="17" from-port="2" to-layer="705" to-port="0"/>
		<edge from-layer="705" from-port="3" to-layer="321" to-port="0"/>
		<edge from-layer="321" from-port="3" to-layer="684" to-port="0"/>
		<edge from-layer="684" from-port="1" to-layer="275" to-port="0"/>
		<edge from-layer="275" from-port="3" to-layer="107" to-port="0"/>
		<edge from-layer="107" from-port="3" to-layer="389" to-port="0"/>
		<edge from-layer="389" from-port="3" to-layer="751" to-port="0"/>
		<edge from-layer="751" from-port="1" to-layer="308" to-port="0"/>
		<edge from-layer="308" from-port="3" to-layer="105" to-port="0"/>
		<edge from-layer="105" from-port="3" to-layer="248" to-port="0"/>
		<edge from-layer="105" from-port="3" to-layer="407" to-port="0"/>
		<edge from-layer="248" from-port="1" to-layer="407" to-port="1"/>
		<edge from-layer="407" from-port="2" to-layer="163" to-port="0"/>
		<edge from-layer="163" from-port="3" to-layer="41" to-port="0"/>
		<edge from-layer="41" from-port="1" to-layer="325" to-port="0"/>
		<edge from-layer="17" from-port="2" to-layer="614" to-port="0"/>
		<edge from-layer="325" from-port="3" to-layer="229" to-port="0"/>
		<edge from-layer="614" from-port="1" to-layer="229" to-port="1"/>
		<edge from-layer="229" from-port="2" to-layer="744" to-port="0"/>
		<edge from-layer="229" from-port="2" to-layer="482" to-port="0"/>
		<edge from-layer="229" from-port="2" to-layer="446" to-port="0"/>
		<edge from-layer="446" from-port="3" to-layer="113" to-port="0"/>
		<edge from-layer="113" from-port="3" to-layer="21" to-port="0"/>
		<edge from-layer="21" from-port="1" to-layer="36" to-port="0"/>
		<edge from-layer="36" from-port="1" to-layer="142" to-port="0"/>
		<edge from-layer="142" from-port="2" to-layer="698" to-port="0"/>
		<edge from-layer="698" from-port="3" to-layer="594" to-port="0"/>
		<edge from-layer="594" from-port="3" to-layer="750" to-port="0"/>
		<edge from-layer="21" from-port="1" to-layer="327" to-port="0"/>
		<edge from-layer="327" from-port="2" to-layer="521" to-port="0"/>
		<edge from-layer="521" from-port="3" to-layer="730" to-port="0"/>
		<edge from-layer="730" from-port="3" to-layer="128" to-port="0"/>
		<edge from-layer="128" from-port="1" to-layer="387" to-port="0"/>
		<edge from-layer="387" from-port="2" to-layer="360" to-port="0"/>
		<edge from-layer="360" from-port="3" to-layer="475" to-port="0"/>
		<edge from-layer="475" from-port="3" to-layer="681" to-port="0"/>
		<edge from-layer="21" from-port="1" to-layer="124" to-port="0"/>
		<edge from-layer="124" from-port="2" to-layer="181" to-port="0"/>
		<edge from-layer="181" from-port="3" to-layer="502" to-port="0"/>
		<edge from-layer="502" from-port="3" to-layer="689" to-port="0"/>
		<edge from-layer="689" from-port="1" to-layer="710" to-port="0"/>
		<edge from-layer="710" from-port="2" to-layer="48" to-port="0"/>
		<edge from-layer="48" from-port="3" to-layer="477" to-port="0"/>
		<edge from-layer="477" from-port="3" to-layer="395" to-port="0"/>
		<edge from-layer="395" from-port="1" to-layer="271" to-port="0"/>
		<edge from-layer="271" from-port="2" to-layer="510" to-port="0"/>
		<edge from-layer="510" from-port="3" to-layer="92" to-port="0"/>
		<edge from-layer="92" from-port="3" to-layer="331" to-port="0"/>
		<edge from-layer="21" from-port="1" to-layer="439" to-port="0"/>
		<edge from-layer="439" from-port="2" to-layer="168" to-port="0"/>
		<edge from-layer="168" from-port="3" to-layer="537" to-port="0"/>
		<edge from-layer="537" from-port="3" to-layer="785" to-port="0"/>
		<edge from-layer="785" from-port="1" to-layer="413" to-port="0"/>
		<edge from-layer="681" from-port="1" to-layer="413" to-port="1"/>
		<edge from-layer="331" from-port="1" to-layer="413" to-port="2"/>
		<edge from-layer="750" from-port="1" to-layer="413" to-port="3"/>
		<edge from-layer="413" from-port="4" to-layer="179" to-port="0"/>
		<edge from-layer="179" from-port="3" to-layer="399" to-port="0"/>
		<edge from-layer="744" from-port="3" to-layer="399" to-port="1"/>
		<edge from-layer="399" from-port="2" to-layer="73" to-port="0"/>
		<edge from-layer="399" from-port="2" to-layer="590" to-port="0"/>
		<edge from-layer="590" from-port="3" to-layer="694" to-port="0"/>
		<edge from-layer="694" from-port="3" to-layer="256" to-port="0"/>
		<edge from-layer="256" from-port="1" to-layer="32" to-port="0"/>
		<edge from-layer="32" from-port="2" to-layer="72" to-port="0"/>
		<edge from-layer="72" from-port="3" to-layer="659" to-port="0"/>
		<edge from-layer="659" from-port="3" to-layer="484" to-port="0"/>
		<edge from-layer="484" from-port="1" to-layer="69" to-port="0"/>
		<edge from-layer="69" from-port="2" to-layer="672" to-port="0"/>
		<edge from-layer="672" from-port="3" to-layer="217" to-port="0"/>
		<edge from-layer="217" from-port="3" to-layer="421" to-port="0"/>
		<edge from-layer="256" from-port="1" to-layer="496" to-port="0"/>
		<edge from-layer="496" from-port="2" to-layer="134" to-port="0"/>
		<edge from-layer="134" from-port="3" to-layer="571" to-port="0"/>
		<edge from-layer="571" from-port="3" to-layer="565" to-port="0"/>
		<edge from-layer="256" from-port="1" to-layer="397" to-port="0"/>
		<edge from-layer="397" from-port="2" to-layer="481" to-port="0"/>
		<edge from-layer="481" from-port="3" to-layer="300" to-port="0"/>
		<edge from-layer="300" from-port="3" to-layer="506" to-port="0"/>
		<edge from-layer="506" from-port="1" to-layer="380" to-port="0"/>
		<edge from-layer="380" from-port="2" to-layer="132" to-port="0"/>
		<edge from-layer="132" from-port="3" to-layer="443" to-port="0"/>
		<edge from-layer="443" from-port="3" to-layer="599" to-port="0"/>
		<edge from-layer="599" from-port="1" to-layer="559" to-port="0"/>
		<edge from-layer="559" from-port="2" to-layer="725" to-port="0"/>
		<edge from-layer="725" from-port="3" to-layer="737" to-port="0"/>
		<edge from-layer="737" from-port="3" to-layer="728" to-port="0"/>
		<edge from-layer="565" from-port="1" to-layer="75" to-port="0"/>
		<edge from-layer="421" from-port="1" to-layer="75" to-port="1"/>
		<edge from-layer="728" from-port="1" to-layer="75" to-port="2"/>
		<edge from-layer="75" from-port="3" to-layer="167" to-port="0"/>
		<edge from-layer="167" from-port="3" to-layer="485" to-port="0"/>
		<edge from-layer="73" from-port="1" to-layer="485" to-port="1"/>
		<edge from-layer="485" from-port="2" to-layer="304" to-port="0"/>
		<edge from-layer="485" from-port="2" to-layer="126" to-port="0"/>
		<edge from-layer="304" from-port="3" to-layer="123" to-port="0"/>
		<edge from-layer="123" from-port="3" to-layer="84" to-port="0"/>
		<edge from-layer="84" from-port="1" to-layer="595" to-port="0"/>
		<edge from-layer="595" from-port="2" to-layer="761" to-port="0"/>
		<edge from-layer="761" from-port="3" to-layer="332" to-port="0"/>
		<edge from-layer="332" from-port="3" to-layer="632" to-port="0"/>
		<edge from-layer="84" from-port="1" to-layer="734" to-port="0"/>
		<edge from-layer="734" from-port="2" to-layer="613" to-port="0"/>
		<edge from-layer="613" from-port="3" to-layer="762" to-port="0"/>
		<edge from-layer="762" from-port="3" to-layer="355" to-port="0"/>
		<edge from-layer="355" from-port="1" to-layer="782" to-port="0"/>
		<edge from-layer="782" from-port="2" to-layer="440" to-port="0"/>
		<edge from-layer="440" from-port="3" to-layer="615" to-port="0"/>
		<edge from-layer="615" from-port="3" to-layer="514" to-port="0"/>
		<edge from-layer="84" from-port="1" to-layer="679" to-port="0"/>
		<edge from-layer="679" from-port="2" to-layer="601" to-port="0"/>
		<edge from-layer="601" from-port="3" to-layer="205" to-port="0"/>
		<edge from-layer="205" from-port="3" to-layer="53" to-port="0"/>
		<edge from-layer="53" from-port="1" to-layer="79" to-port="0"/>
		<edge from-layer="79" from-port="2" to-layer="334" to-port="0"/>
		<edge from-layer="334" from-port="3" to-layer="310" to-port="0"/>
		<edge from-layer="310" from-port="3" to-layer="497" to-port="0"/>
		<edge from-layer="497" from-port="1" to-layer="266" to-port="0"/>
		<edge from-layer="266" from-port="2" to-layer="344" to-port="0"/>
		<edge from-layer="344" from-port="3" to-layer="544" to-port="0"/>
		<edge from-layer="544" from-port="3" to-layer="444" to-port="0"/>
		<edge from-layer="632" from-port="1" to-layer="462" to-port="0"/>
		<edge from-layer="514" from-port="1" to-layer="462" to-port="1"/>
		<edge from-layer="444" from-port="1" to-layer="462" to-port="2"/>
		<edge from-layer="462" from-port="3" to-layer="147" to-port="0"/>
		<edge from-layer="147" from-port="3" to-layer="226" to-port="0"/>
		<edge from-layer="126" from-port="1" to-layer="226" to-port="1"/>
		<edge from-layer="226" from-port="2" to-layer="201" to-port="0"/>
		<edge from-layer="201" from-port="3" to-layer="239" to-port="0"/>
		<edge from-layer="239" from-port="3" to-layer="731" to-port="0"/>
		<edge from-layer="731" from-port="1" to-layer="763" to-port="0"/>
		<edge from-layer="763" from-port="2" to-layer="57" to-port="0"/>
		<edge from-layer="57" from-port="3" to-layer="381" to-port="0"/>
		<edge from-layer="381" from-port="3" to-layer="294" to-port="0"/>
		<edge from-layer="294" from-port="1" to-layer="90" to-port="0"/>
		<edge from-layer="90" from-port="2" to-layer="59" to-port="0"/>
		<edge from-layer="59" from-port="3" to-layer="288" to-port="0"/>
		<edge from-layer="288" from-port="3" to-layer="394" to-port="0"/>
		<edge from-layer="731" from-port="1" to-layer="238" to-port="0"/>
		<edge from-layer="238" from-port="2" to-layer="263" to-port="0"/>
		<edge from-layer="263" from-port="3" to-layer="118" to-port="0"/>
		<edge from-layer="118" from-port="3" to-layer="234" to-port="0"/>
		<edge from-layer="731" from-port="1" to-layer="451" to-port="0"/>
		<edge from-layer="451" from-port="2" to-layer="10" to-port="0"/>
		<edge from-layer="10" from-port="3" to-layer="504" to-port="0"/>
		<edge from-layer="504" from-port="3" to-layer="26" to-port="0"/>
		<edge from-layer="26" from-port="1" to-layer="465" to-port="0"/>
		<edge from-layer="465" from-port="2" to-layer="551" to-port="0"/>
		<edge from-layer="551" from-port="3" to-layer="480" to-port="0"/>
		<edge from-layer="480" from-port="3" to-layer="313" to-port="0"/>
		<edge from-layer="313" from-port="1" to-layer="649" to-port="0"/>
		<edge from-layer="649" from-port="2" to-layer="195" to-port="0"/>
		<edge from-layer="195" from-port="3" to-layer="225" to-port="0"/>
		<edge from-layer="225" from-port="3" to-layer="680" to-port="0"/>
		<edge from-layer="234" from-port="1" to-layer="642" to-port="0"/>
		<edge from-layer="394" from-port="1" to-layer="642" to-port="1"/>
		<edge from-layer="680" from-port="1" to-layer="642" to-port="2"/>
		<edge from-layer="642" from-port="3" to-layer="483" to-port="0"/>
		<edge from-layer="226" from-port="2" to-layer="295" to-port="0"/>
		<edge from-layer="483" from-port="3" to-layer="264" to-port="0"/>
		<edge from-layer="295" from-port="1" to-layer="264" to-port="1"/>
		<edge from-layer="264" from-port="2" to-layer="228" to-port="0"/>
		<edge from-layer="482" from-port="2" to-layer="228" to-port="1"/>
		<edge from-layer="228" from-port="2" to-layer="99" to-port="0"/>
		<edge from-layer="99" from-port="2" to-layer="553" to-port="0"/>
		<edge from-layer="553" from-port="1" to-layer="199" to-port="0"/>
	</edges>
</net>
