<net name="re_id" version="2" batch="1">
    <layers>
        <layer name="input" type="Input" precision="FP32" id="0">
            <output>
                <port id="0">
                    <dim>1</dim>
                    <dim>3</dim>
                    <dim>96</dim>
                    <dim>48</dim>
                </port>
            </output>
        </layer>
        <layer name="data_norm_scale" type="ScaleShift" precision="FP32" id="1">
            <input>
                <port id="1">
                    <dim>1</dim>
                    <dim>3</dim>
                    <dim>96</dim>
                    <dim>48</dim>
                </port>
            </input>
            <output>
                <port id="2">
                    <dim>1</dim>
                    <dim>3</dim>
                    <dim>96</dim>
                    <dim>48</dim>
                </port>
            </output>
            <weights offset="0" size="12"/>
            <biases offset="12" size="12"/>
        </layer>
        <layer name="init_block1_dim_inc_conv" type="Convolution" precision="FP32" id="2">
            <convolution_data stride-x="2" stride-y="2" pad-x="1" pad-y="1" kernel-x="3" kernel-y="3" output="32" group="1"/>
            <input>
                <port id="3">
                    <dim>1</dim>
                    <dim>3</dim>
                    <dim>96</dim>
                    <dim>48</dim>
                </port>
            </input>
            <output>
                <port id="4">
                    <dim>1</dim>
                    <dim>32</dim>
                    <dim>48</dim>
                    <dim>24</dim>
                </port>
            </output>
            <weights offset="24" size="3456"/>
            <biases offset="3480" size="128"/>
        </layer>
        <layer name="init_block1_dim_inc_fn" type="ReLU" precision="FP32" id="3">
            <input>
                <port id="5">
                    <dim>1</dim>
                    <dim>32</dim>
                    <dim>48</dim>
                    <dim>24</dim>
                </port>
            </input>
            <output>
                <port id="6">
                    <dim>1</dim>
                    <dim>32</dim>
                    <dim>48</dim>
                    <dim>24</dim>
                </port>
            </output>
        </layer>
        <layer name="bottleneck1_1_dim_red_conv" type="Convolution" precision="FP32" id="4">
            <convolution_data stride-x="1" stride-y="1" pad-x="0" pad-y="0" kernel-x="1" kernel-y="1" output="8" group="1"/>
            <input>
                <port id="7">
                    <dim>1</dim>
                    <dim>32</dim>
                    <dim>48</dim>
                    <dim>24</dim>
                </port>
            </input>
            <output>
                <port id="8">
                    <dim>1</dim>
                    <dim>8</dim>
                    <dim>48</dim>
                    <dim>24</dim>
                </port>
            </output>
            <weights offset="3608" size="1024"/>
            <biases offset="4632" size="32"/>
        </layer>
        <layer name="bottleneck1_1_dim_red_fn" type="ELU" precision="FP32" id="5">
            <input>
                <port id="9">
                    <dim>1</dim>
                    <dim>8</dim>
                    <dim>48</dim>
                    <dim>24</dim>
                </port>
            </input>
            <output>
                <port id="10">
                    <dim>1</dim>
                    <dim>8</dim>
                    <dim>48</dim>
                    <dim>24</dim>
                </port>
            </output>
        </layer>
        <layer name="bottleneck1_1_inner_dw1_conv" type="Convolution" precision="FP32" id="6">
            <convolution_data stride-x="1" stride-y="1" pad-x="1" pad-y="1" kernel-x="3" kernel-y="3" output="8" group="8"/>
            <input>
                <port id="11">
                    <dim>1</dim>
                    <dim>8</dim>
                    <dim>48</dim>
                    <dim>24</dim>
                </port>
            </input>
            <output>
                <port id="12">
                    <dim>1</dim>
                    <dim>8</dim>
                    <dim>48</dim>
                    <dim>24</dim>
                </port>
            </output>
            <weights offset="4664" size="288"/>
            <biases offset="4952" size="32"/>
        </layer>
        <layer name="bottleneck1_1_inner_dw1_fn" type="ELU" precision="FP32" id="7">
            <input>
                <port id="13">
                    <dim>1</dim>
                    <dim>8</dim>
                    <dim>48</dim>
                    <dim>24</dim>
                </port>
            </input>
            <output>
                <port id="14">
                    <dim>1</dim>
                    <dim>8</dim>
                    <dim>48</dim>
                    <dim>24</dim>
                </port>
            </output>
        </layer>
        <layer name="bottleneck1_1_dim_inc_conv" type="Convolution" precision="FP32" id="8">
            <convolution_data stride-x="1" stride-y="1" pad-x="0" pad-y="0" kernel-x="1" kernel-y="1" output="32" group="1"/>
            <input>
                <port id="15">
                    <dim>1</dim>
                    <dim>8</dim>
                    <dim>48</dim>
                    <dim>24</dim>
                </port>
            </input>
            <output>
                <port id="16">
                    <dim>1</dim>
                    <dim>32</dim>
                    <dim>48</dim>
                    <dim>24</dim>
                </port>
            </output>
            <weights offset="4984" size="1024"/>
            <biases offset="6008" size="128"/>
        </layer>
        <layer name="bottleneck1_1_add" type="Eltwise" precision="FP32" id="9">
            <elementwise_data operation="sum"/>
            <input>
                <port id="17">
                    <dim>1</dim>
                    <dim>32</dim>
                    <dim>48</dim>
                    <dim>24</dim>
                </port>
                <port id="18">
                    <dim>1</dim>
                    <dim>32</dim>
                    <dim>48</dim>
                    <dim>24</dim>
                </port>
            </input>
            <output>
                <port id="19">
                    <dim>1</dim>
                    <dim>32</dim>
                    <dim>48</dim>
                    <dim>24</dim>
                </port>
            </output>
        </layer>
        <layer name="bottleneck1_1_fn" type="ELU" precision="FP32" id="10">
            <input>
                <port id="20">
                    <dim>1</dim>
                    <dim>32</dim>
                    <dim>48</dim>
                    <dim>24</dim>
                </port>
            </input>
            <output>
                <port id="21">
                    <dim>1</dim>
                    <dim>32</dim>
                    <dim>48</dim>
                    <dim>24</dim>
                </port>
            </output>
        </layer>
        <layer name="bottleneck1_2_dim_red_conv" type="Convolution" precision="FP32" id="11">
            <convolution_data stride-x="1" stride-y="1" pad-x="0" pad-y="0" kernel-x="1" kernel-y="1" output="8" group="1"/>
            <input>
                <port id="22">
                    <dim>1</dim>
                    <dim>32</dim>
                    <dim>48</dim>
                    <dim>24</dim>
                </port>
            </input>
            <output>
                <port id="23">
                    <dim>1</dim>
                    <dim>8</dim>
                    <dim>48</dim>
                    <dim>24</dim>
                </port>
            </output>
            <weights offset="6136" size="1024"/>
            <biases offset="7160" size="32"/>
        </layer>
        <layer name="bottleneck1_2_dim_red_fn" type="ELU" precision="FP32" id="12">
            <input>
                <port id="24">
                    <dim>1</dim>
                    <dim>8</dim>
                    <dim>48</dim>
                    <dim>24</dim>
                </port>
            </input>
            <output>
                <port id="25">
                    <dim>1</dim>
                    <dim>8</dim>
                    <dim>48</dim>
                    <dim>24</dim>
                </port>
            </output>
        </layer>
        <layer name="bottleneck1_2_inner_dw1_conv" type="Convolution" precision="FP32" id="13">
            <convolution_data stride-x="1" stride-y="1" pad-x="1" pad-y="1" kernel-x="3" kernel-y="3" output="8" group="8"/>
            <input>
                <port id="26">
                    <dim>1</dim>
                    <dim>8</dim>
                    <dim>48</dim>
                    <dim>24</dim>
                </port>
            </input>
            <output>
                <port id="27">
                    <dim>1</dim>
                    <dim>8</dim>
                    <dim>48</dim>
                    <dim>24</dim>
                </port>
            </output>
            <weights offset="7192" size="288"/>
            <biases offset="7480" size="32"/>
        </layer>
        <layer name="bottleneck1_2_inner_dw1_fn" type="ELU" precision="FP32" id="14">
            <input>
                <port id="28">
                    <dim>1</dim>
                    <dim>8</dim>
                    <dim>48</dim>
                    <dim>24</dim>
                </port>
            </input>
            <output>
                <port id="29">
                    <dim>1</dim>
                    <dim>8</dim>
                    <dim>48</dim>
                    <dim>24</dim>
                </port>
            </output>
        </layer>
        <layer name="bottleneck1_2_dim_inc_conv" type="Convolution" precision="FP32" id="15">
            <convolution_data stride-x="1" stride-y="1" pad-x="0" pad-y="0" kernel-x="1" kernel-y="1" output="32" group="1"/>
            <input>
                <port id="30">
                    <dim>1</dim>
                    <dim>8</dim>
                    <dim>48</dim>
                    <dim>24</dim>
                </port>
            </input>
            <output>
                <port id="31">
                    <dim>1</dim>
                    <dim>32</dim>
                    <dim>48</dim>
                    <dim>24</dim>
                </port>
            </output>
            <weights offset="7512" size="1024"/>
            <biases offset="8536" size="128"/>
        </layer>
        <layer name="bottleneck1_2_add" type="Eltwise" precision="FP32" id="16">
            <elementwise_data operation="sum"/>
            <input>
                <port id="32">
                    <dim>1</dim>
                    <dim>32</dim>
                    <dim>48</dim>
                    <dim>24</dim>
                </port>
                <port id="33">
                    <dim>1</dim>
                    <dim>32</dim>
                    <dim>48</dim>
                    <dim>24</dim>
                </port>
            </input>
            <output>
                <port id="34">
                    <dim>1</dim>
                    <dim>32</dim>
                    <dim>48</dim>
                    <dim>24</dim>
                </port>
            </output>
        </layer>
        <layer name="bottleneck1_2_fn" type="ELU" precision="FP32" id="17">
            <input>
                <port id="35">
                    <dim>1</dim>
                    <dim>32</dim>
                    <dim>48</dim>
                    <dim>24</dim>
                </port>
            </input>
            <output>
                <port id="36">
                    <dim>1</dim>
                    <dim>32</dim>
                    <dim>48</dim>
                    <dim>24</dim>
                </port>
            </output>
        </layer>
        <layer name="bottleneck1_3_dim_red_conv" type="Convolution" precision="FP32" id="18">
            <convolution_data stride-x="1" stride-y="1" pad-x="0" pad-y="0" kernel-x="1" kernel-y="1" output="8" group="1"/>
            <input>
                <port id="37">
                    <dim>1</dim>
                    <dim>32</dim>
                    <dim>48</dim>
                    <dim>24</dim>
                </port>
            </input>
            <output>
                <port id="38">
                    <dim>1</dim>
                    <dim>8</dim>
                    <dim>48</dim>
                    <dim>24</dim>
                </port>
            </output>
            <weights offset="8664" size="1024"/>
            <biases offset="9688" size="32"/>
        </layer>
        <layer name="bottleneck1_3_dim_red_fn" type="ELU" precision="FP32" id="19">
            <input>
                <port id="39">
                    <dim>1</dim>
                    <dim>8</dim>
                    <dim>48</dim>
                    <dim>24</dim>
                </port>
            </input>
            <output>
                <port id="40">
                    <dim>1</dim>
                    <dim>8</dim>
                    <dim>48</dim>
                    <dim>24</dim>
                </port>
            </output>
        </layer>
        <layer name="bottleneck1_3_inner_dw1_conv" type="Convolution" precision="FP32" id="20">
            <convolution_data stride-x="1" stride-y="1" pad-x="1" pad-y="1" kernel-x="3" kernel-y="3" output="8" group="8"/>
            <input>
                <port id="41">
                    <dim>1</dim>
                    <dim>8</dim>
                    <dim>48</dim>
                    <dim>24</dim>
                </port>
            </input>
            <output>
                <port id="42">
                    <dim>1</dim>
                    <dim>8</dim>
                    <dim>48</dim>
                    <dim>24</dim>
                </port>
            </output>
            <weights offset="9720" size="288"/>
            <biases offset="10008" size="32"/>
        </layer>
        <layer name="bottleneck1_3_inner_dw1_fn" type="ELU" precision="FP32" id="21">
            <input>
                <port id="43">
                    <dim>1</dim>
                    <dim>8</dim>
                    <dim>48</dim>
                    <dim>24</dim>
                </port>
            </input>
            <output>
                <port id="44">
                    <dim>1</dim>
                    <dim>8</dim>
                    <dim>48</dim>
                    <dim>24</dim>
                </port>
            </output>
        </layer>
        <layer name="bottleneck1_3_dim_inc_conv" type="Convolution" precision="FP32" id="22">
            <convolution_data stride-x="1" stride-y="1" pad-x="0" pad-y="0" kernel-x="1" kernel-y="1" output="32" group="1"/>
            <input>
                <port id="45">
                    <dim>1</dim>
                    <dim>8</dim>
                    <dim>48</dim>
                    <dim>24</dim>
                </port>
            </input>
            <output>
                <port id="46">
                    <dim>1</dim>
                    <dim>32</dim>
                    <dim>48</dim>
                    <dim>24</dim>
                </port>
            </output>
            <weights offset="10040" size="1024"/>
            <biases offset="11064" size="128"/>
        </layer>
        <layer name="bottleneck1_3_add" type="Eltwise" precision="FP32" id="23">
            <elementwise_data operation="sum"/>
            <input>
                <port id="47">
                    <dim>1</dim>
                    <dim>32</dim>
                    <dim>48</dim>
                    <dim>24</dim>
                </port>
                <port id="48">
                    <dim>1</dim>
                    <dim>32</dim>
                    <dim>48</dim>
                    <dim>24</dim>
                </port>
            </input>
            <output>
                <port id="49">
                    <dim>1</dim>
                    <dim>32</dim>
                    <dim>48</dim>
                    <dim>24</dim>
                </port>
            </output>
        </layer>
        <layer name="bottleneck1_3_fn" type="ELU" precision="FP32" id="24">
            <input>
                <port id="50">
                    <dim>1</dim>
                    <dim>32</dim>
                    <dim>48</dim>
                    <dim>24</dim>
                </port>
            </input>
            <output>
                <port id="51">
                    <dim>1</dim>
                    <dim>32</dim>
                    <dim>48</dim>
                    <dim>24</dim>
                </port>
            </output>
        </layer>
        <layer name="bottleneck2_0_skip_pooling" type="Pooling" precision="FP32" id="30">
            <pooling_data kernel-x="2" kernel-y="2" pad-x="0" pad-y="0" stride-x="2" stride-y="2" rounding-type="ceil" pool-method="max"/>
            <input>
                <port id="62">
                    <dim>1</dim>
                    <dim>32</dim>
                    <dim>48</dim>
                    <dim>24</dim>
                </port>
            </input>
            <output>
                <port id="63">
                    <dim>1</dim>
                    <dim>32</dim>
                    <dim>24</dim>
                    <dim>12</dim>
                </port>
            </output>
        </layer>
        <layer name="bottleneck2_0_skip_conv" type="Convolution" precision="FP32" id="31">
            <convolution_data stride-x="1" stride-y="1" pad-x="0" pad-y="0" kernel-x="1" kernel-y="1" output="64" group="1"/>
            <input>
                <port id="64">
                    <dim>1</dim>
                    <dim>32</dim>
                    <dim>24</dim>
                    <dim>12</dim>
                </port>
            </input>
            <output>
                <port id="65">
                    <dim>1</dim>
                    <dim>64</dim>
                    <dim>24</dim>
                    <dim>12</dim>
                </port>
            </output>
            <weights offset="11192" size="8192"/>
            <biases offset="19384" size="256"/>
        </layer>
        <layer name="bottleneck2_0_dim_red_conv" type="Convolution" precision="FP32" id="25">
            <convolution_data stride-x="1" stride-y="1" pad-x="0" pad-y="0" kernel-x="1" kernel-y="1" output="16" group="1"/>
            <input>
                <port id="52">
                    <dim>1</dim>
                    <dim>32</dim>
                    <dim>48</dim>
                    <dim>24</dim>
                </port>
            </input>
            <output>
                <port id="53">
                    <dim>1</dim>
                    <dim>16</dim>
                    <dim>48</dim>
                    <dim>24</dim>
                </port>
            </output>
            <weights offset="19640" size="2048"/>
            <biases offset="21688" size="64"/>
        </layer>
        <layer name="bottleneck2_0_dim_red_fn" type="ELU" precision="FP32" id="26">
            <input>
                <port id="54">
                    <dim>1</dim>
                    <dim>16</dim>
                    <dim>48</dim>
                    <dim>24</dim>
                </port>
            </input>
            <output>
                <port id="55">
                    <dim>1</dim>
                    <dim>16</dim>
                    <dim>48</dim>
                    <dim>24</dim>
                </port>
            </output>
        </layer>
        <layer name="bottleneck2_0_inner_dw1_conv" type="Convolution" precision="FP32" id="27">
            <convolution_data stride-x="2" stride-y="2" pad-x="1" pad-y="1" kernel-x="3" kernel-y="3" output="16" group="16"/>
            <input>
                <port id="56">
                    <dim>1</dim>
                    <dim>16</dim>
                    <dim>48</dim>
                    <dim>24</dim>
                </port>
            </input>
            <output>
                <port id="57">
                    <dim>1</dim>
                    <dim>16</dim>
                    <dim>24</dim>
                    <dim>12</dim>
                </port>
            </output>
            <weights offset="21752" size="576"/>
            <biases offset="22328" size="64"/>
        </layer>
        <layer name="bottleneck2_0_inner_dw1_fn" type="ELU" precision="FP32" id="28">
            <input>
                <port id="58">
                    <dim>1</dim>
                    <dim>16</dim>
                    <dim>24</dim>
                    <dim>12</dim>
                </port>
            </input>
            <output>
                <port id="59">
                    <dim>1</dim>
                    <dim>16</dim>
                    <dim>24</dim>
                    <dim>12</dim>
                </port>
            </output>
        </layer>
        <layer name="bottleneck2_0_dim_inc_conv" type="Convolution" precision="FP32" id="29">
            <convolution_data stride-x="1" stride-y="1" pad-x="0" pad-y="0" kernel-x="1" kernel-y="1" output="64" group="1"/>
            <input>
                <port id="60">
                    <dim>1</dim>
                    <dim>16</dim>
                    <dim>24</dim>
                    <dim>12</dim>
                </port>
            </input>
            <output>
                <port id="61">
                    <dim>1</dim>
                    <dim>64</dim>
                    <dim>24</dim>
                    <dim>12</dim>
                </port>
            </output>
            <weights offset="22392" size="4096"/>
            <biases offset="26488" size="256"/>
        </layer>
        <layer name="bottleneck2_0_add" type="Eltwise" precision="FP32" id="32">
            <elementwise_data operation="sum"/>
            <input>
                <port id="66">
                    <dim>1</dim>
                    <dim>64</dim>
                    <dim>24</dim>
                    <dim>12</dim>
                </port>
                <port id="67">
                    <dim>1</dim>
                    <dim>64</dim>
                    <dim>24</dim>
                    <dim>12</dim>
                </port>
            </input>
            <output>
                <port id="68">
                    <dim>1</dim>
                    <dim>64</dim>
                    <dim>24</dim>
                    <dim>12</dim>
                </port>
            </output>
        </layer>
        <layer name="bottleneck2_0_fn" type="ELU" precision="FP32" id="33">
            <input>
                <port id="69">
                    <dim>1</dim>
                    <dim>64</dim>
                    <dim>24</dim>
                    <dim>12</dim>
                </port>
            </input>
            <output>
                <port id="70">
                    <dim>1</dim>
                    <dim>64</dim>
                    <dim>24</dim>
                    <dim>12</dim>
                </port>
            </output>
        </layer>
        <layer name="bottleneck2_1_dim_red_conv" type="Convolution" precision="FP32" id="34">
            <convolution_data stride-x="1" stride-y="1" pad-x="0" pad-y="0" kernel-x="1" kernel-y="1" output="16" group="1"/>
            <input>
                <port id="71">
                    <dim>1</dim>
                    <dim>64</dim>
                    <dim>24</dim>
                    <dim>12</dim>
                </port>
            </input>
            <output>
                <port id="72">
                    <dim>1</dim>
                    <dim>16</dim>
                    <dim>24</dim>
                    <dim>12</dim>
                </port>
            </output>
            <weights offset="26744" size="4096"/>
            <biases offset="30840" size="64"/>
        </layer>
        <layer name="bottleneck2_1_dim_red_fn" type="ELU" precision="FP32" id="35">
            <input>
                <port id="73">
                    <dim>1</dim>
                    <dim>16</dim>
                    <dim>24</dim>
                    <dim>12</dim>
                </port>
            </input>
            <output>
                <port id="74">
                    <dim>1</dim>
                    <dim>16</dim>
                    <dim>24</dim>
                    <dim>12</dim>
                </port>
            </output>
        </layer>
        <layer name="bottleneck2_1_inner_dw1_conv" type="Convolution" precision="FP32" id="36">
            <convolution_data stride-x="1" stride-y="1" pad-x="1" pad-y="1" kernel-x="3" kernel-y="3" output="16" group="16"/>
            <input>
                <port id="75">
                    <dim>1</dim>
                    <dim>16</dim>
                    <dim>24</dim>
                    <dim>12</dim>
                </port>
            </input>
            <output>
                <port id="76">
                    <dim>1</dim>
                    <dim>16</dim>
                    <dim>24</dim>
                    <dim>12</dim>
                </port>
            </output>
            <weights offset="30904" size="576"/>
            <biases offset="31480" size="64"/>
        </layer>
        <layer name="bottleneck2_1_inner_dw1_fn" type="ELU" precision="FP32" id="37">
            <input>
                <port id="77">
                    <dim>1</dim>
                    <dim>16</dim>
                    <dim>24</dim>
                    <dim>12</dim>
                </port>
            </input>
            <output>
                <port id="78">
                    <dim>1</dim>
                    <dim>16</dim>
                    <dim>24</dim>
                    <dim>12</dim>
                </port>
            </output>
        </layer>
        <layer name="bottleneck2_1_dim_inc_conv" type="Convolution" precision="FP32" id="38">
            <convolution_data stride-x="1" stride-y="1" pad-x="0" pad-y="0" kernel-x="1" kernel-y="1" output="64" group="1"/>
            <input>
                <port id="79">
                    <dim>1</dim>
                    <dim>16</dim>
                    <dim>24</dim>
                    <dim>12</dim>
                </port>
            </input>
            <output>
                <port id="80">
                    <dim>1</dim>
                    <dim>64</dim>
                    <dim>24</dim>
                    <dim>12</dim>
                </port>
            </output>
            <weights offset="31544" size="4096"/>
            <biases offset="35640" size="256"/>
        </layer>
        <layer name="bottleneck2_1_add" type="Eltwise" precision="FP32" id="39">
            <elementwise_data operation="sum"/>
            <input>
                <port id="81">
                    <dim>1</dim>
                    <dim>64</dim>
                    <dim>24</dim>
                    <dim>12</dim>
                </port>
                <port id="82">
                    <dim>1</dim>
                    <dim>64</dim>
                    <dim>24</dim>
                    <dim>12</dim>
                </port>
            </input>
            <output>
                <port id="83">
                    <dim>1</dim>
                    <dim>64</dim>
                    <dim>24</dim>
                    <dim>12</dim>
                </port>
            </output>
        </layer>
        <layer name="bottleneck2_1_fn" type="ELU" precision="FP32" id="40">
            <input>
                <port id="84">
                    <dim>1</dim>
                    <dim>64</dim>
                    <dim>24</dim>
                    <dim>12</dim>
                </port>
            </input>
            <output>
                <port id="85">
                    <dim>1</dim>
                    <dim>64</dim>
                    <dim>24</dim>
                    <dim>12</dim>
                </port>
            </output>
        </layer>
        <layer name="bottleneck2_2_dim_red_conv" type="Convolution" precision="FP32" id="41">
            <convolution_data stride-x="1" stride-y="1" pad-x="0" pad-y="0" kernel-x="1" kernel-y="1" output="16" group="1"/>
            <input>
                <port id="86">
                    <dim>1</dim>
                    <dim>64</dim>
                    <dim>24</dim>
                    <dim>12</dim>
                </port>
            </input>
            <output>
                <port id="87">
                    <dim>1</dim>
                    <dim>16</dim>
                    <dim>24</dim>
                    <dim>12</dim>
                </port>
            </output>
            <weights offset="35896" size="4096"/>
            <biases offset="39992" size="64"/>
        </layer>
        <layer name="bottleneck2_2_dim_red_fn" type="ELU" precision="FP32" id="42">
            <input>
                <port id="88">
                    <dim>1</dim>
                    <dim>16</dim>
                    <dim>24</dim>
                    <dim>12</dim>
                </port>
            </input>
            <output>
                <port id="89">
                    <dim>1</dim>
                    <dim>16</dim>
                    <dim>24</dim>
                    <dim>12</dim>
                </port>
            </output>
        </layer>
        <layer name="bottleneck2_2_inner_dw1_conv" type="Convolution" precision="FP32" id="43">
            <convolution_data stride-x="1" stride-y="1" pad-x="1" pad-y="1" kernel-x="3" kernel-y="3" output="16" group="16"/>
            <input>
                <port id="90">
                    <dim>1</dim>
                    <dim>16</dim>
                    <dim>24</dim>
                    <dim>12</dim>
                </port>
            </input>
            <output>
                <port id="91">
                    <dim>1</dim>
                    <dim>16</dim>
                    <dim>24</dim>
                    <dim>12</dim>
                </port>
            </output>
            <weights offset="40056" size="576"/>
            <biases offset="40632" size="64"/>
        </layer>
        <layer name="bottleneck2_2_inner_dw1_fn" type="ELU" precision="FP32" id="44">
            <input>
                <port id="92">
                    <dim>1</dim>
                    <dim>16</dim>
                    <dim>24</dim>
                    <dim>12</dim>
                </port>
            </input>
            <output>
                <port id="93">
                    <dim>1</dim>
                    <dim>16</dim>
                    <dim>24</dim>
                    <dim>12</dim>
                </port>
            </output>
        </layer>
        <layer name="bottleneck2_2_dim_inc_conv" type="Convolution" precision="FP32" id="45">
            <convolution_data stride-x="1" stride-y="1" pad-x="0" pad-y="0" kernel-x="1" kernel-y="1" output="64" group="1"/>
            <input>
                <port id="94">
                    <dim>1</dim>
                    <dim>16</dim>
                    <dim>24</dim>
                    <dim>12</dim>
                </port>
            </input>
            <output>
                <port id="95">
                    <dim>1</dim>
                    <dim>64</dim>
                    <dim>24</dim>
                    <dim>12</dim>
                </port>
            </output>
            <weights offset="40696" size="4096"/>
            <biases offset="44792" size="256"/>
        </layer>
        <layer name="bottleneck2_2_add" type="Eltwise" precision="FP32" id="46">
            <elementwise_data operation="sum"/>
            <input>
                <port id="96">
                    <dim>1</dim>
                    <dim>64</dim>
                    <dim>24</dim>
                    <dim>12</dim>
                </port>
                <port id="97">
                    <dim>1</dim>
                    <dim>64</dim>
                    <dim>24</dim>
                    <dim>12</dim>
                </port>
            </input>
            <output>
                <port id="98">
                    <dim>1</dim>
                    <dim>64</dim>
                    <dim>24</dim>
                    <dim>12</dim>
                </port>
            </output>
        </layer>
        <layer name="bottleneck2_2_fn" type="ELU" precision="FP32" id="47">
            <input>
                <port id="99">
                    <dim>1</dim>
                    <dim>64</dim>
                    <dim>24</dim>
                    <dim>12</dim>
                </port>
            </input>
            <output>
                <port id="100">
                    <dim>1</dim>
                    <dim>64</dim>
                    <dim>24</dim>
                    <dim>12</dim>
                </port>
            </output>
        </layer>
        <layer name="bottleneck2_3_dim_red_conv" type="Convolution" precision="FP32" id="48">
            <convolution_data stride-x="1" stride-y="1" pad-x="0" pad-y="0" kernel-x="1" kernel-y="1" output="16" group="1"/>
            <input>
                <port id="101">
                    <dim>1</dim>
                    <dim>64</dim>
                    <dim>24</dim>
                    <dim>12</dim>
                </port>
            </input>
            <output>
                <port id="102">
                    <dim>1</dim>
                    <dim>16</dim>
                    <dim>24</dim>
                    <dim>12</dim>
                </port>
            </output>
            <weights offset="45048" size="4096"/>
            <biases offset="49144" size="64"/>
        </layer>
        <layer name="bottleneck2_3_dim_red_fn" type="ELU" precision="FP32" id="49">
            <input>
                <port id="103">
                    <dim>1</dim>
                    <dim>16</dim>
                    <dim>24</dim>
                    <dim>12</dim>
                </port>
            </input>
            <output>
                <port id="104">
                    <dim>1</dim>
                    <dim>16</dim>
                    <dim>24</dim>
                    <dim>12</dim>
                </port>
            </output>
        </layer>
        <layer name="bottleneck2_3_inner_dw1_conv" type="Convolution" precision="FP32" id="50">
            <convolution_data stride-x="1" stride-y="1" pad-x="1" pad-y="1" kernel-x="3" kernel-y="3" output="16" group="16"/>
            <input>
                <port id="105">
                    <dim>1</dim>
                    <dim>16</dim>
                    <dim>24</dim>
                    <dim>12</dim>
                </port>
            </input>
            <output>
                <port id="106">
                    <dim>1</dim>
                    <dim>16</dim>
                    <dim>24</dim>
                    <dim>12</dim>
                </port>
            </output>
            <weights offset="49208" size="576"/>
            <biases offset="49784" size="64"/>
        </layer>
        <layer name="bottleneck2_3_inner_dw1_fn" type="ELU" precision="FP32" id="51">
            <input>
                <port id="107">
                    <dim>1</dim>
                    <dim>16</dim>
                    <dim>24</dim>
                    <dim>12</dim>
                </port>
            </input>
            <output>
                <port id="108">
                    <dim>1</dim>
                    <dim>16</dim>
                    <dim>24</dim>
                    <dim>12</dim>
                </port>
            </output>
        </layer>
        <layer name="bottleneck2_3_dim_inc_conv" type="Convolution" precision="FP32" id="52">
            <convolution_data stride-x="1" stride-y="1" pad-x="0" pad-y="0" kernel-x="1" kernel-y="1" output="64" group="1"/>
            <input>
                <port id="109">
                    <dim>1</dim>
                    <dim>16</dim>
                    <dim>24</dim>
                    <dim>12</dim>
                </port>
            </input>
            <output>
                <port id="110">
                    <dim>1</dim>
                    <dim>64</dim>
                    <dim>24</dim>
                    <dim>12</dim>
                </port>
            </output>
            <weights offset="49848" size="4096"/>
            <biases offset="53944" size="256"/>
        </layer>
        <layer name="bottleneck2_3_add" type="Eltwise" precision="FP32" id="53">
            <elementwise_data operation="sum"/>
            <input>
                <port id="111">
                    <dim>1</dim>
                    <dim>64</dim>
                    <dim>24</dim>
                    <dim>12</dim>
                </port>
                <port id="112">
                    <dim>1</dim>
                    <dim>64</dim>
                    <dim>24</dim>
                    <dim>12</dim>
                </port>
            </input>
            <output>
                <port id="113">
                    <dim>1</dim>
                    <dim>64</dim>
                    <dim>24</dim>
                    <dim>12</dim>
                </port>
            </output>
        </layer>
        <layer name="bottleneck2_3_fn" type="ELU" precision="FP32" id="54">
            <input>
                <port id="114">
                    <dim>1</dim>
                    <dim>64</dim>
                    <dim>24</dim>
                    <dim>12</dim>
                </port>
            </input>
            <output>
                <port id="115">
                    <dim>1</dim>
                    <dim>64</dim>
                    <dim>24</dim>
                    <dim>12</dim>
                </port>
            </output>
        </layer>
        <layer name="bottleneck3_0_skip_pooling" type="Pooling" precision="FP32" id="60">
            <pooling_data kernel-x="2" kernel-y="2" pad-x="0" pad-y="0" stride-x="2" stride-y="2" rounding-type="ceil" pool-method="max"/>
            <input>
                <port id="126">
                    <dim>1</dim>
                    <dim>64</dim>
                    <dim>24</dim>
                    <dim>12</dim>
                </port>
            </input>
            <output>
                <port id="127">
                    <dim>1</dim>
                    <dim>64</dim>
                    <dim>12</dim>
                    <dim>6</dim>
                </port>
            </output>
        </layer>
        <layer name="bottleneck3_0_skip_conv" type="Convolution" precision="FP32" id="61">
            <convolution_data stride-x="1" stride-y="1" pad-x="0" pad-y="0" kernel-x="1" kernel-y="1" output="128" group="1"/>
            <input>
                <port id="128">
                    <dim>1</dim>
                    <dim>64</dim>
                    <dim>12</dim>
                    <dim>6</dim>
                </port>
            </input>
            <output>
                <port id="129">
                    <dim>1</dim>
                    <dim>128</dim>
                    <dim>12</dim>
                    <dim>6</dim>
                </port>
            </output>
            <weights offset="54200" size="32768"/>
            <biases offset="86968" size="512"/>
        </layer>
        <layer name="bottleneck3_0_dim_red_conv" type="Convolution" precision="FP32" id="55">
            <convolution_data stride-x="1" stride-y="1" pad-x="0" pad-y="0" kernel-x="1" kernel-y="1" output="32" group="1"/>
            <input>
                <port id="116">
                    <dim>1</dim>
                    <dim>64</dim>
                    <dim>24</dim>
                    <dim>12</dim>
                </port>
            </input>
            <output>
                <port id="117">
                    <dim>1</dim>
                    <dim>32</dim>
                    <dim>24</dim>
                    <dim>12</dim>
                </port>
            </output>
            <weights offset="87480" size="8192"/>
            <biases offset="95672" size="128"/>
        </layer>
        <layer name="bottleneck3_0_dim_red_fn" type="ELU" precision="FP32" id="56">
            <input>
                <port id="118">
                    <dim>1</dim>
                    <dim>32</dim>
                    <dim>24</dim>
                    <dim>12</dim>
                </port>
            </input>
            <output>
                <port id="119">
                    <dim>1</dim>
                    <dim>32</dim>
                    <dim>24</dim>
                    <dim>12</dim>
                </port>
            </output>
        </layer>
        <layer name="bottleneck3_0_inner_dw1_conv" type="Convolution" precision="FP32" id="57">
            <convolution_data stride-x="2" stride-y="2" pad-x="1" pad-y="1" kernel-x="3" kernel-y="3" output="32" group="32"/>
            <input>
                <port id="120">
                    <dim>1</dim>
                    <dim>32</dim>
                    <dim>24</dim>
                    <dim>12</dim>
                </port>
            </input>
            <output>
                <port id="121">
                    <dim>1</dim>
                    <dim>32</dim>
                    <dim>12</dim>
                    <dim>6</dim>
                </port>
            </output>
            <weights offset="95800" size="1152"/>
            <biases offset="96952" size="128"/>
        </layer>
        <layer name="bottleneck3_0_inner_dw1_fn" type="ELU" precision="FP32" id="58">
            <input>
                <port id="122">
                    <dim>1</dim>
                    <dim>32</dim>
                    <dim>12</dim>
                    <dim>6</dim>
                </port>
            </input>
            <output>
                <port id="123">
                    <dim>1</dim>
                    <dim>32</dim>
                    <dim>12</dim>
                    <dim>6</dim>
                </port>
            </output>
        </layer>
        <layer name="bottleneck3_0_dim_inc_conv" type="Convolution" precision="FP32" id="59">
            <convolution_data stride-x="1" stride-y="1" pad-x="0" pad-y="0" kernel-x="1" kernel-y="1" output="128" group="1"/>
            <input>
                <port id="124">
                    <dim>1</dim>
                    <dim>32</dim>
                    <dim>12</dim>
                    <dim>6</dim>
                </port>
            </input>
            <output>
                <port id="125">
                    <dim>1</dim>
                    <dim>128</dim>
                    <dim>12</dim>
                    <dim>6</dim>
                </port>
            </output>
            <weights offset="97080" size="16384"/>
            <biases offset="113464" size="512"/>
        </layer>
        <layer name="bottleneck3_0_add" type="Eltwise" precision="FP32" id="62">
            <elementwise_data operation="sum"/>
            <input>
                <port id="130">
                    <dim>1</dim>
                    <dim>128</dim>
                    <dim>12</dim>
                    <dim>6</dim>
                </port>
                <port id="131">
                    <dim>1</dim>
                    <dim>128</dim>
                    <dim>12</dim>
                    <dim>6</dim>
                </port>
            </input>
            <output>
                <port id="132">
                    <dim>1</dim>
                    <dim>128</dim>
                    <dim>12</dim>
                    <dim>6</dim>
                </port>
            </output>
        </layer>
        <layer name="bottleneck3_0_fn" type="ELU" precision="FP32" id="63">
            <input>
                <port id="133">
                    <dim>1</dim>
                    <dim>128</dim>
                    <dim>12</dim>
                    <dim>6</dim>
                </port>
            </input>
            <output>
                <port id="134">
                    <dim>1</dim>
                    <dim>128</dim>
                    <dim>12</dim>
                    <dim>6</dim>
                </port>
            </output>
        </layer>
        <layer name="bottleneck3_1_dim_red_conv" type="Convolution" precision="FP32" id="64">
            <convolution_data stride-x="1" stride-y="1" pad-x="0" pad-y="0" kernel-x="1" kernel-y="1" output="32" group="1"/>
            <input>
                <port id="135">
                    <dim>1</dim>
                    <dim>128</dim>
                    <dim>12</dim>
                    <dim>6</dim>
                </port>
            </input>
            <output>
                <port id="136">
                    <dim>1</dim>
                    <dim>32</dim>
                    <dim>12</dim>
                    <dim>6</dim>
                </port>
            </output>
            <weights offset="113976" size="16384"/>
            <biases offset="130360" size="128"/>
        </layer>
        <layer name="bottleneck3_1_dim_red_fn" type="ELU" precision="FP32" id="65">
            <input>
                <port id="137">
                    <dim>1</dim>
                    <dim>32</dim>
                    <dim>12</dim>
                    <dim>6</dim>
                </port>
            </input>
            <output>
                <port id="138">
                    <dim>1</dim>
                    <dim>32</dim>
                    <dim>12</dim>
                    <dim>6</dim>
                </port>
            </output>
        </layer>
        <layer name="bottleneck3_1_inner_dw1_conv" type="Convolution" precision="FP32" id="66">
            <convolution_data stride-x="1" stride-y="1" pad-x="1" pad-y="1" kernel-x="3" kernel-y="3" output="32" group="32"/>
            <input>
                <port id="139">
                    <dim>1</dim>
                    <dim>32</dim>
                    <dim>12</dim>
                    <dim>6</dim>
                </port>
            </input>
            <output>
                <port id="140">
                    <dim>1</dim>
                    <dim>32</dim>
                    <dim>12</dim>
                    <dim>6</dim>
                </port>
            </output>
            <weights offset="130488" size="1152"/>
            <biases offset="131640" size="128"/>
        </layer>
        <layer name="bottleneck3_1_inner_dw1_fn" type="ELU" precision="FP32" id="67">
            <input>
                <port id="141">
                    <dim>1</dim>
                    <dim>32</dim>
                    <dim>12</dim>
                    <dim>6</dim>
                </port>
            </input>
            <output>
                <port id="142">
                    <dim>1</dim>
                    <dim>32</dim>
                    <dim>12</dim>
                    <dim>6</dim>
                </port>
            </output>
        </layer>
        <layer name="bottleneck3_1_dim_inc_conv" type="Convolution" precision="FP32" id="68">
            <convolution_data stride-x="1" stride-y="1" pad-x="0" pad-y="0" kernel-x="1" kernel-y="1" output="128" group="1"/>
            <input>
                <port id="143">
                    <dim>1</dim>
                    <dim>32</dim>
                    <dim>12</dim>
                    <dim>6</dim>
                </port>
            </input>
            <output>
                <port id="144">
                    <dim>1</dim>
                    <dim>128</dim>
                    <dim>12</dim>
                    <dim>6</dim>
                </port>
            </output>
            <weights offset="131768" size="16384"/>
            <biases offset="148152" size="512"/>
        </layer>
        <layer name="bottleneck3_1_add" type="Eltwise" precision="FP32" id="69">
            <elementwise_data operation="sum"/>
            <input>
                <port id="145">
                    <dim>1</dim>
                    <dim>128</dim>
                    <dim>12</dim>
                    <dim>6</dim>
                </port>
                <port id="146">
                    <dim>1</dim>
                    <dim>128</dim>
                    <dim>12</dim>
                    <dim>6</dim>
                </port>
            </input>
            <output>
                <port id="147">
                    <dim>1</dim>
                    <dim>128</dim>
                    <dim>12</dim>
                    <dim>6</dim>
                </port>
            </output>
        </layer>
        <layer name="bottleneck3_1_fn" type="ELU" precision="FP32" id="70">
            <input>
                <port id="148">
                    <dim>1</dim>
                    <dim>128</dim>
                    <dim>12</dim>
                    <dim>6</dim>
                </port>
            </input>
            <output>
                <port id="149">
                    <dim>1</dim>
                    <dim>128</dim>
                    <dim>12</dim>
                    <dim>6</dim>
                </port>
            </output>
        </layer>
        <layer name="bottleneck3_2_dim_red_conv" type="Convolution" precision="FP32" id="71">
            <convolution_data stride-x="1" stride-y="1" pad-x="0" pad-y="0" kernel-x="1" kernel-y="1" output="32" group="1"/>
            <input>
                <port id="150">
                    <dim>1</dim>
                    <dim>128</dim>
                    <dim>12</dim>
                    <dim>6</dim>
                </port>
            </input>
            <output>
                <port id="151">
                    <dim>1</dim>
                    <dim>32</dim>
                    <dim>12</dim>
                    <dim>6</dim>
                </port>
            </output>
            <weights offset="148664" size="16384"/>
            <biases offset="165048" size="128"/>
        </layer>
        <layer name="bottleneck3_2_dim_red_fn" type="ELU" precision="FP32" id="72">
            <input>
                <port id="152">
                    <dim>1</dim>
                    <dim>32</dim>
                    <dim>12</dim>
                    <dim>6</dim>
                </port>
            </input>
            <output>
                <port id="153">
                    <dim>1</dim>
                    <dim>32</dim>
                    <dim>12</dim>
                    <dim>6</dim>
                </port>
            </output>
        </layer>
        <layer name="bottleneck3_2_inner_dw1_conv" type="Convolution" precision="FP32" id="73">
            <convolution_data stride-x="1" stride-y="1" pad-x="1" pad-y="1" kernel-x="3" kernel-y="3" output="32" group="32"/>
            <input>
                <port id="154">
                    <dim>1</dim>
                    <dim>32</dim>
                    <dim>12</dim>
                    <dim>6</dim>
                </port>
            </input>
            <output>
                <port id="155">
                    <dim>1</dim>
                    <dim>32</dim>
                    <dim>12</dim>
                    <dim>6</dim>
                </port>
            </output>
            <weights offset="165176" size="1152"/>
            <biases offset="166328" size="128"/>
        </layer>
        <layer name="bottleneck3_2_inner_dw1_fn" type="ELU" precision="FP32" id="74">
            <input>
                <port id="156">
                    <dim>1</dim>
                    <dim>32</dim>
                    <dim>12</dim>
                    <dim>6</dim>
                </port>
            </input>
            <output>
                <port id="157">
                    <dim>1</dim>
                    <dim>32</dim>
                    <dim>12</dim>
                    <dim>6</dim>
                </port>
            </output>
        </layer>
        <layer name="bottleneck3_2_dim_inc_conv" type="Convolution" precision="FP32" id="75">
            <convolution_data stride-x="1" stride-y="1" pad-x="0" pad-y="0" kernel-x="1" kernel-y="1" output="128" group="1"/>
            <input>
                <port id="158">
                    <dim>1</dim>
                    <dim>32</dim>
                    <dim>12</dim>
                    <dim>6</dim>
                </port>
            </input>
            <output>
                <port id="159">
                    <dim>1</dim>
                    <dim>128</dim>
                    <dim>12</dim>
                    <dim>6</dim>
                </port>
            </output>
            <weights offset="166456" size="16384"/>
            <biases offset="182840" size="512"/>
        </layer>
        <layer name="bottleneck3_2_add" type="Eltwise" precision="FP32" id="76">
            <elementwise_data operation="sum"/>
            <input>
                <port id="160">
                    <dim>1</dim>
                    <dim>128</dim>
                    <dim>12</dim>
                    <dim>6</dim>
                </port>
                <port id="161">
                    <dim>1</dim>
                    <dim>128</dim>
                    <dim>12</dim>
                    <dim>6</dim>
                </port>
            </input>
            <output>
                <port id="162">
                    <dim>1</dim>
                    <dim>128</dim>
                    <dim>12</dim>
                    <dim>6</dim>
                </port>
            </output>
        </layer>
        <layer name="bottleneck3_2_fn" type="ELU" precision="FP32" id="77">
            <input>
                <port id="163">
                    <dim>1</dim>
                    <dim>128</dim>
                    <dim>12</dim>
                    <dim>6</dim>
                </port>
            </input>
            <output>
                <port id="164">
                    <dim>1</dim>
                    <dim>128</dim>
                    <dim>12</dim>
                    <dim>6</dim>
                </port>
            </output>
        </layer>
        <layer name="bottleneck3_3_dim_red_conv" type="Convolution" precision="FP32" id="78">
            <convolution_data stride-x="1" stride-y="1" pad-x="0" pad-y="0" kernel-x="1" kernel-y="1" output="32" group="1"/>
            <input>
                <port id="165">
                    <dim>1</dim>
                    <dim>128</dim>
                    <dim>12</dim>
                    <dim>6</dim>
                </port>
            </input>
            <output>
                <port id="166">
                    <dim>1</dim>
                    <dim>32</dim>
                    <dim>12</dim>
                    <dim>6</dim>
                </port>
            </output>
            <weights offset="183352" size="16384"/>
            <biases offset="199736" size="128"/>
        </layer>
        <layer name="bottleneck3_3_dim_red_fn" type="ELU" precision="FP32" id="79">
            <input>
                <port id="167">
                    <dim>1</dim>
                    <dim>32</dim>
                    <dim>12</dim>
                    <dim>6</dim>
                </port>
            </input>
            <output>
                <port id="168">
                    <dim>1</dim>
                    <dim>32</dim>
                    <dim>12</dim>
                    <dim>6</dim>
                </port>
            </output>
        </layer>
        <layer name="bottleneck3_3_inner_dw1_conv" type="Convolution" precision="FP32" id="80">
            <convolution_data stride-x="1" stride-y="1" pad-x="1" pad-y="1" kernel-x="3" kernel-y="3" output="32" group="32"/>
            <input>
                <port id="169">
                    <dim>1</dim>
                    <dim>32</dim>
                    <dim>12</dim>
                    <dim>6</dim>
                </port>
            </input>
            <output>
                <port id="170">
                    <dim>1</dim>
                    <dim>32</dim>
                    <dim>12</dim>
                    <dim>6</dim>
                </port>
            </output>
            <weights offset="199864" size="1152"/>
            <biases offset="201016" size="128"/>
        </layer>
        <layer name="bottleneck3_3_inner_dw1_fn" type="ELU" precision="FP32" id="81">
            <input>
                <port id="171">
                    <dim>1</dim>
                    <dim>32</dim>
                    <dim>12</dim>
                    <dim>6</dim>
                </port>
            </input>
            <output>
                <port id="172">
                    <dim>1</dim>
                    <dim>32</dim>
                    <dim>12</dim>
                    <dim>6</dim>
                </port>
            </output>
        </layer>
        <layer name="bottleneck3_3_dim_inc_conv" type="Convolution" precision="FP32" id="82">
            <convolution_data stride-x="1" stride-y="1" pad-x="0" pad-y="0" kernel-x="1" kernel-y="1" output="128" group="1"/>
            <input>
                <port id="173">
                    <dim>1</dim>
                    <dim>32</dim>
                    <dim>12</dim>
                    <dim>6</dim>
                </port>
            </input>
            <output>
                <port id="174">
                    <dim>1</dim>
                    <dim>128</dim>
                    <dim>12</dim>
                    <dim>6</dim>
                </port>
            </output>
            <weights offset="201144" size="16384"/>
            <biases offset="217528" size="512"/>
        </layer>
        <layer name="bottleneck3_3_add" type="Eltwise" precision="FP32" id="83">
            <elementwise_data operation="sum"/>
            <input>
                <port id="175">
                    <dim>1</dim>
                    <dim>128</dim>
                    <dim>12</dim>
                    <dim>6</dim>
                </port>
                <port id="176">
                    <dim>1</dim>
                    <dim>128</dim>
                    <dim>12</dim>
                    <dim>6</dim>
                </port>
            </input>
            <output>
                <port id="177">
                    <dim>1</dim>
                    <dim>128</dim>
                    <dim>12</dim>
                    <dim>6</dim>
                </port>
            </output>
        </layer>
        <layer name="bottleneck3_3_fn" type="ELU" precision="FP32" id="84">
            <input>
                <port id="178">
                    <dim>1</dim>
                    <dim>128</dim>
                    <dim>12</dim>
                    <dim>6</dim>
                </port>
            </input>
            <output>
                <port id="179">
                    <dim>1</dim>
                    <dim>128</dim>
                    <dim>12</dim>
                    <dim>6</dim>
                </port>
            </output>
        </layer>
        <layer name="bottleneck4_0_skip_pooling" type="Pooling" precision="FP32" id="90">
            <pooling_data kernel-x="2" kernel-y="2" pad-x="0" pad-y="0" stride-x="2" stride-y="2" rounding-type="ceil" pool-method="max"/>
            <input>
                <port id="190">
                    <dim>1</dim>
                    <dim>128</dim>
                    <dim>12</dim>
                    <dim>6</dim>
                </port>
            </input>
            <output>
                <port id="191">
                    <dim>1</dim>
                    <dim>128</dim>
                    <dim>6</dim>
                    <dim>3</dim>
                </port>
            </output>
        </layer>
        <layer name="bottleneck4_0_skip_conv" type="Convolution" precision="FP32" id="91">
            <convolution_data stride-x="1" stride-y="1" pad-x="0" pad-y="0" kernel-x="1" kernel-y="1" output="256" group="1"/>
            <input>
                <port id="192">
                    <dim>1</dim>
                    <dim>128</dim>
                    <dim>6</dim>
                    <dim>3</dim>
                </port>
            </input>
            <output>
                <port id="193">
                    <dim>1</dim>
                    <dim>256</dim>
                    <dim>6</dim>
                    <dim>3</dim>
                </port>
            </output>
            <weights offset="218040" size="131072"/>
            <biases offset="349112" size="1024"/>
        </layer>
        <layer name="bottleneck4_0_dim_red_conv" type="Convolution" precision="FP32" id="85">
            <convolution_data stride-x="1" stride-y="1" pad-x="0" pad-y="0" kernel-x="1" kernel-y="1" output="64" group="1"/>
            <input>
                <port id="180">
                    <dim>1</dim>
                    <dim>128</dim>
                    <dim>12</dim>
                    <dim>6</dim>
                </port>
            </input>
            <output>
                <port id="181">
                    <dim>1</dim>
                    <dim>64</dim>
                    <dim>12</dim>
                    <dim>6</dim>
                </port>
            </output>
            <weights offset="350136" size="32768"/>
            <biases offset="382904" size="256"/>
        </layer>
        <layer name="bottleneck4_0_dim_red_fn" type="ELU" precision="FP32" id="86">
            <input>
                <port id="182">
                    <dim>1</dim>
                    <dim>64</dim>
                    <dim>12</dim>
                    <dim>6</dim>
                </port>
            </input>
            <output>
                <port id="183">
                    <dim>1</dim>
                    <dim>64</dim>
                    <dim>12</dim>
                    <dim>6</dim>
                </port>
            </output>
        </layer>
        <layer name="bottleneck4_0_inner_dw1_conv" type="Convolution" precision="FP32" id="87">
            <convolution_data stride-x="2" stride-y="2" pad-x="1" pad-y="1" kernel-x="3" kernel-y="3" output="64" group="64"/>
            <input>
                <port id="184">
                    <dim>1</dim>
                    <dim>64</dim>
                    <dim>12</dim>
                    <dim>6</dim>
                </port>
            </input>
            <output>
                <port id="185">
                    <dim>1</dim>
                    <dim>64</dim>
                    <dim>6</dim>
                    <dim>3</dim>
                </port>
            </output>
            <weights offset="383160" size="2304"/>
            <biases offset="385464" size="256"/>
        </layer>
        <layer name="bottleneck4_0_inner_dw1_fn" type="ELU" precision="FP32" id="88">
            <input>
                <port id="186">
                    <dim>1</dim>
                    <dim>64</dim>
                    <dim>6</dim>
                    <dim>3</dim>
                </port>
            </input>
            <output>
                <port id="187">
                    <dim>1</dim>
                    <dim>64</dim>
                    <dim>6</dim>
                    <dim>3</dim>
                </port>
            </output>
        </layer>
        <layer name="bottleneck4_0_dim_inc_conv" type="Convolution" precision="FP32" id="89">
            <convolution_data stride-x="1" stride-y="1" pad-x="0" pad-y="0" kernel-x="1" kernel-y="1" output="256" group="1"/>
            <input>
                <port id="188">
                    <dim>1</dim>
                    <dim>64</dim>
                    <dim>6</dim>
                    <dim>3</dim>
                </port>
            </input>
            <output>
                <port id="189">
                    <dim>1</dim>
                    <dim>256</dim>
                    <dim>6</dim>
                    <dim>3</dim>
                </port>
            </output>
            <weights offset="385720" size="65536"/>
            <biases offset="451256" size="1024"/>
        </layer>
        <layer name="bottleneck4_0_add" type="Eltwise" precision="FP32" id="92">
            <elementwise_data operation="sum"/>
            <input>
                <port id="194">
                    <dim>1</dim>
                    <dim>256</dim>
                    <dim>6</dim>
                    <dim>3</dim>
                </port>
                <port id="195">
                    <dim>1</dim>
                    <dim>256</dim>
                    <dim>6</dim>
                    <dim>3</dim>
                </port>
            </input>
            <output>
                <port id="196">
                    <dim>1</dim>
                    <dim>256</dim>
                    <dim>6</dim>
                    <dim>3</dim>
                </port>
            </output>
        </layer>
        <layer name="bottleneck4_0_fn" type="ELU" precision="FP32" id="93">
            <input>
                <port id="197">
                    <dim>1</dim>
                    <dim>256</dim>
                    <dim>6</dim>
                    <dim>3</dim>
                </port>
            </input>
            <output>
                <port id="198">
                    <dim>1</dim>
                    <dim>256</dim>
                    <dim>6</dim>
                    <dim>3</dim>
                </port>
            </output>
        </layer>
        <layer name="bottleneck4_1_dim_red_conv" type="Convolution" precision="FP32" id="94">
            <convolution_data stride-x="1" stride-y="1" pad-x="0" pad-y="0" kernel-x="1" kernel-y="1" output="64" group="1"/>
            <input>
                <port id="199">
                    <dim>1</dim>
                    <dim>256</dim>
                    <dim>6</dim>
                    <dim>3</dim>
                </port>
            </input>
            <output>
                <port id="200">
                    <dim>1</dim>
                    <dim>64</dim>
                    <dim>6</dim>
                    <dim>3</dim>
                </port>
            </output>
            <weights offset="452280" size="65536"/>
            <biases offset="517816" size="256"/>
        </layer>
        <layer name="bottleneck4_1_dim_red_fn" type="ELU" precision="FP32" id="95">
            <input>
                <port id="201">
                    <dim>1</dim>
                    <dim>64</dim>
                    <dim>6</dim>
                    <dim>3</dim>
                </port>
            </input>
            <output>
                <port id="202">
                    <dim>1</dim>
                    <dim>64</dim>
                    <dim>6</dim>
                    <dim>3</dim>
                </port>
            </output>
        </layer>
        <layer name="bottleneck4_1_inner_dw1_conv" type="Convolution" precision="FP32" id="96">
            <convolution_data stride-x="1" stride-y="1" pad-x="1" pad-y="1" kernel-x="3" kernel-y="3" output="64" group="64"/>
            <input>
                <port id="203">
                    <dim>1</dim>
                    <dim>64</dim>
                    <dim>6</dim>
                    <dim>3</dim>
                </port>
            </input>
            <output>
                <port id="204">
                    <dim>1</dim>
                    <dim>64</dim>
                    <dim>6</dim>
                    <dim>3</dim>
                </port>
            </output>
            <weights offset="518072" size="2304"/>
            <biases offset="520376" size="256"/>
        </layer>
        <layer name="bottleneck4_1_inner_dw1_fn" type="ELU" precision="FP32" id="97">
            <input>
                <port id="205">
                    <dim>1</dim>
                    <dim>64</dim>
                    <dim>6</dim>
                    <dim>3</dim>
                </port>
            </input>
            <output>
                <port id="206">
                    <dim>1</dim>
                    <dim>64</dim>
                    <dim>6</dim>
                    <dim>3</dim>
                </port>
            </output>
        </layer>
        <layer name="bottleneck4_1_dim_inc_conv" type="Convolution" precision="FP32" id="98">
            <convolution_data stride-x="1" stride-y="1" pad-x="0" pad-y="0" kernel-x="1" kernel-y="1" output="256" group="1"/>
            <input>
                <port id="207">
                    <dim>1</dim>
                    <dim>64</dim>
                    <dim>6</dim>
                    <dim>3</dim>
                </port>
            </input>
            <output>
                <port id="208">
                    <dim>1</dim>
                    <dim>256</dim>
                    <dim>6</dim>
                    <dim>3</dim>
                </port>
            </output>
            <weights offset="520632" size="65536"/>
            <biases offset="586168" size="1024"/>
        </layer>
        <layer name="bottleneck4_1_add" type="Eltwise" precision="FP32" id="99">
            <elementwise_data operation="sum"/>
            <input>
                <port id="209">
                    <dim>1</dim>
                    <dim>256</dim>
                    <dim>6</dim>
                    <dim>3</dim>
                </port>
                <port id="210">
                    <dim>1</dim>
                    <dim>256</dim>
                    <dim>6</dim>
                    <dim>3</dim>
                </port>
            </input>
            <output>
                <port id="211">
                    <dim>1</dim>
                    <dim>256</dim>
                    <dim>6</dim>
                    <dim>3</dim>
                </port>
            </output>
        </layer>
        <layer name="bottleneck4_1_fn" type="ELU" precision="FP32" id="100">
            <input>
                <port id="212">
                    <dim>1</dim>
                    <dim>256</dim>
                    <dim>6</dim>
                    <dim>3</dim>
                </port>
            </input>
            <output>
                <port id="213">
                    <dim>1</dim>
                    <dim>256</dim>
                    <dim>6</dim>
                    <dim>3</dim>
                </port>
            </output>
        </layer>
        <layer name="bottleneck4_2_dim_red_conv" type="Convolution" precision="FP32" id="101">
            <convolution_data stride-x="1" stride-y="1" pad-x="0" pad-y="0" kernel-x="1" kernel-y="1" output="64" group="1"/>
            <input>
                <port id="214">
                    <dim>1</dim>
                    <dim>256</dim>
                    <dim>6</dim>
                    <dim>3</dim>
                </port>
            </input>
            <output>
                <port id="215">
                    <dim>1</dim>
                    <dim>64</dim>
                    <dim>6</dim>
                    <dim>3</dim>
                </port>
            </output>
            <weights offset="587192" size="65536"/>
            <biases offset="652728" size="256"/>
        </layer>
        <layer name="bottleneck4_2_dim_red_fn" type="ELU" precision="FP32" id="102">
            <input>
                <port id="216">
                    <dim>1</dim>
                    <dim>64</dim>
                    <dim>6</dim>
                    <dim>3</dim>
                </port>
            </input>
            <output>
                <port id="217">
                    <dim>1</dim>
                    <dim>64</dim>
                    <dim>6</dim>
                    <dim>3</dim>
                </port>
            </output>
        </layer>
        <layer name="bottleneck4_2_inner_dw1_conv" type="Convolution" precision="FP32" id="103">
            <convolution_data stride-x="1" stride-y="1" pad-x="1" pad-y="1" kernel-x="3" kernel-y="3" output="64" group="64"/>
            <input>
                <port id="218">
                    <dim>1</dim>
                    <dim>64</dim>
                    <dim>6</dim>
                    <dim>3</dim>
                </port>
            </input>
            <output>
                <port id="219">
                    <dim>1</dim>
                    <dim>64</dim>
                    <dim>6</dim>
                    <dim>3</dim>
                </port>
            </output>
            <weights offset="652984" size="2304"/>
            <biases offset="655288" size="256"/>
        </layer>
        <layer name="bottleneck4_2_inner_dw1_fn" type="ELU" precision="FP32" id="104">
            <input>
                <port id="220">
                    <dim>1</dim>
                    <dim>64</dim>
                    <dim>6</dim>
                    <dim>3</dim>
                </port>
            </input>
            <output>
                <port id="221">
                    <dim>1</dim>
                    <dim>64</dim>
                    <dim>6</dim>
                    <dim>3</dim>
                </port>
            </output>
        </layer>
        <layer name="bottleneck4_2_dim_inc_conv" type="Convolution" precision="FP32" id="105">
            <convolution_data stride-x="1" stride-y="1" pad-x="0" pad-y="0" kernel-x="1" kernel-y="1" output="256" group="1"/>
            <input>
                <port id="222">
                    <dim>1</dim>
                    <dim>64</dim>
                    <dim>6</dim>
                    <dim>3</dim>
                </port>
            </input>
            <output>
                <port id="223">
                    <dim>1</dim>
                    <dim>256</dim>
                    <dim>6</dim>
                    <dim>3</dim>
                </port>
            </output>
            <weights offset="655544" size="65536"/>
            <biases offset="721080" size="1024"/>
        </layer>
        <layer name="bottleneck4_2_add" type="Eltwise" precision="FP32" id="106">
            <elementwise_data operation="sum"/>
            <input>
                <port id="224">
                    <dim>1</dim>
                    <dim>256</dim>
                    <dim>6</dim>
                    <dim>3</dim>
                </port>
                <port id="225">
                    <dim>1</dim>
                    <dim>256</dim>
                    <dim>6</dim>
                    <dim>3</dim>
                </port>
            </input>
            <output>
                <port id="226">
                    <dim>1</dim>
                    <dim>256</dim>
                    <dim>6</dim>
                    <dim>3</dim>
                </port>
            </output>
        </layer>
        <layer name="bottleneck4_2_fn" type="ELU" precision="FP32" id="107">
            <input>
                <port id="227">
                    <dim>1</dim>
                    <dim>256</dim>
                    <dim>6</dim>
                    <dim>3</dim>
                </port>
            </input>
            <output>
                <port id="228">
                    <dim>1</dim>
                    <dim>256</dim>
                    <dim>6</dim>
                    <dim>3</dim>
                </port>
            </output>
        </layer>
        <layer name="bottleneck4_3_dim_red_conv" type="Convolution" precision="FP32" id="108">
            <convolution_data stride-x="1" stride-y="1" pad-x="0" pad-y="0" kernel-x="1" kernel-y="1" output="64" group="1"/>
            <input>
                <port id="229">
                    <dim>1</dim>
                    <dim>256</dim>
                    <dim>6</dim>
                    <dim>3</dim>
                </port>
            </input>
            <output>
                <port id="230">
                    <dim>1</dim>
                    <dim>64</dim>
                    <dim>6</dim>
                    <dim>3</dim>
                </port>
            </output>
            <weights offset="722104" size="65536"/>
            <biases offset="787640" size="256"/>
        </layer>
        <layer name="bottleneck4_3_dim_red_fn" type="ELU" precision="FP32" id="109">
            <input>
                <port id="231">
                    <dim>1</dim>
                    <dim>64</dim>
                    <dim>6</dim>
                    <dim>3</dim>
                </port>
            </input>
            <output>
                <port id="232">
                    <dim>1</dim>
                    <dim>64</dim>
                    <dim>6</dim>
                    <dim>3</dim>
                </port>
            </output>
        </layer>
        <layer name="bottleneck4_3_inner_dw1_conv" type="Convolution" precision="FP32" id="110">
            <convolution_data stride-x="1" stride-y="1" pad-x="1" pad-y="1" kernel-x="3" kernel-y="3" output="64" group="64"/>
            <input>
                <port id="233">
                    <dim>1</dim>
                    <dim>64</dim>
                    <dim>6</dim>
                    <dim>3</dim>
                </port>
            </input>
            <output>
                <port id="234">
                    <dim>1</dim>
                    <dim>64</dim>
                    <dim>6</dim>
                    <dim>3</dim>
                </port>
            </output>
            <weights offset="787896" size="2304"/>
            <biases offset="790200" size="256"/>
        </layer>
        <layer name="bottleneck4_3_inner_dw1_fn" type="ELU" precision="FP32" id="111">
            <input>
                <port id="235">
                    <dim>1</dim>
                    <dim>64</dim>
                    <dim>6</dim>
                    <dim>3</dim>
                </port>
            </input>
            <output>
                <port id="236">
                    <dim>1</dim>
                    <dim>64</dim>
                    <dim>6</dim>
                    <dim>3</dim>
                </port>
            </output>
        </layer>
        <layer name="bottleneck4_3_dim_inc_conv" type="Convolution" precision="FP32" id="112">
            <convolution_data stride-x="1" stride-y="1" pad-x="0" pad-y="0" kernel-x="1" kernel-y="1" output="256" group="1"/>
            <input>
                <port id="237">
                    <dim>1</dim>
                    <dim>64</dim>
                    <dim>6</dim>
                    <dim>3</dim>
                </port>
            </input>
            <output>
                <port id="238">
                    <dim>1</dim>
                    <dim>256</dim>
                    <dim>6</dim>
                    <dim>3</dim>
                </port>
            </output>
            <weights offset="790456" size="65536"/>
            <biases offset="855992" size="1024"/>
        </layer>
        <layer name="bottleneck4_3_add" type="Eltwise" precision="FP32" id="113">
            <elementwise_data operation="sum"/>
            <input>
                <port id="239">
                    <dim>1</dim>
                    <dim>256</dim>
                    <dim>6</dim>
                    <dim>3</dim>
                </port>
                <port id="240">
                    <dim>1</dim>
                    <dim>256</dim>
                    <dim>6</dim>
                    <dim>3</dim>
                </port>
            </input>
            <output>
                <port id="241">
                    <dim>1</dim>
                    <dim>256</dim>
                    <dim>6</dim>
                    <dim>3</dim>
                </port>
            </output>
        </layer>
        <layer name="bottleneck4_3_fn" type="ELU" precision="FP32" id="114">
            <input>
                <port id="242">
                    <dim>1</dim>
                    <dim>256</dim>
                    <dim>6</dim>
                    <dim>3</dim>
                </port>
            </input>
            <output>
                <port id="243">
                    <dim>1</dim>
                    <dim>256</dim>
                    <dim>6</dim>
                    <dim>3</dim>
                </port>
            </output>
        </layer>
        <layer name="out_pool" type="Pooling" precision="FP32" id="115">
            <pooling_data kernel-x="3" kernel-y="6" pad-x="0" pad-y="0" stride-x="1" stride-y="1" rounding-type="ceil" pool-method="max"/>
            <input>
                <port id="244">
                    <dim>1</dim>
                    <dim>256</dim>
                    <dim>6</dim>
                    <dim>3</dim>
                </port>
            </input>
            <output>
                <port id="245">
                    <dim>1</dim>
                    <dim>256</dim>
                    <dim>1</dim>
                    <dim>1</dim>
                </port>
            </output>
        </layer>
        <layer name="ip_reid" type="FullyConnected" precision="FP32" id="116">
            <fc_data out-size="256"/>
            <input>
                <port id="246">
                    <dim>1</dim>
                    <dim>256</dim>
                    <dim>1</dim>
                    <dim>1</dim>
                </port>
            </input>
            <output>
                <port id="247">
                    <dim>1</dim>
                    <dim>256</dim>
                </port>
            </output>
            <weights offset="857016" size="262144"/>
            <biases offset="1119160" size="1024"/>
        </layer>
    </layers>
    <edges>
        <edge from-layer="0" from-port="0" to-layer="1" to-port="1"/>
        <edge from-layer="1" from-port="2" to-layer="2" to-port="3"/>
        <edge from-layer="2" from-port="4" to-layer="3" to-port="5"/>
        <edge from-layer="3" from-port="6" to-layer="4" to-port="7"/>
        <edge from-layer="4" from-port="8" to-layer="5" to-port="9"/>
        <edge from-layer="5" from-port="10" to-layer="6" to-port="11"/>
        <edge from-layer="6" from-port="12" to-layer="7" to-port="13"/>
        <edge from-layer="7" from-port="14" to-layer="8" to-port="15"/>
        <edge from-layer="3" from-port="6" to-layer="9" to-port="17"/>
        <edge from-layer="8" from-port="16" to-layer="9" to-port="18"/>
        <edge from-layer="9" from-port="19" to-layer="10" to-port="20"/>
        <edge from-layer="10" from-port="21" to-layer="11" to-port="22"/>
        <edge from-layer="11" from-port="23" to-layer="12" to-port="24"/>
        <edge from-layer="12" from-port="25" to-layer="13" to-port="26"/>
        <edge from-layer="13" from-port="27" to-layer="14" to-port="28"/>
        <edge from-layer="14" from-port="29" to-layer="15" to-port="30"/>
        <edge from-layer="10" from-port="21" to-layer="16" to-port="32"/>
        <edge from-layer="15" from-port="31" to-layer="16" to-port="33"/>
        <edge from-layer="16" from-port="34" to-layer="17" to-port="35"/>
        <edge from-layer="17" from-port="36" to-layer="18" to-port="37"/>
        <edge from-layer="18" from-port="38" to-layer="19" to-port="39"/>
        <edge from-layer="19" from-port="40" to-layer="20" to-port="41"/>
        <edge from-layer="20" from-port="42" to-layer="21" to-port="43"/>
        <edge from-layer="21" from-port="44" to-layer="22" to-port="45"/>
        <edge from-layer="17" from-port="36" to-layer="23" to-port="47"/>
        <edge from-layer="22" from-port="46" to-layer="23" to-port="48"/>
        <edge from-layer="23" from-port="49" to-layer="24" to-port="50"/>
        <edge from-layer="24" from-port="51" to-layer="25" to-port="52"/>
        <edge from-layer="25" from-port="53" to-layer="26" to-port="54"/>
        <edge from-layer="26" from-port="55" to-layer="27" to-port="56"/>
        <edge from-layer="27" from-port="57" to-layer="28" to-port="58"/>
        <edge from-layer="28" from-port="59" to-layer="29" to-port="60"/>
        <edge from-layer="24" from-port="51" to-layer="30" to-port="62"/>
        <edge from-layer="30" from-port="63" to-layer="31" to-port="64"/>
        <edge from-layer="31" from-port="65" to-layer="32" to-port="66"/>
        <edge from-layer="29" from-port="61" to-layer="32" to-port="67"/>
        <edge from-layer="32" from-port="68" to-layer="33" to-port="69"/>
        <edge from-layer="33" from-port="70" to-layer="34" to-port="71"/>
        <edge from-layer="34" from-port="72" to-layer="35" to-port="73"/>
        <edge from-layer="35" from-port="74" to-layer="36" to-port="75"/>
        <edge from-layer="36" from-port="76" to-layer="37" to-port="77"/>
        <edge from-layer="37" from-port="78" to-layer="38" to-port="79"/>
        <edge from-layer="33" from-port="70" to-layer="39" to-port="81"/>
        <edge from-layer="38" from-port="80" to-layer="39" to-port="82"/>
        <edge from-layer="39" from-port="83" to-layer="40" to-port="84"/>
        <edge from-layer="40" from-port="85" to-layer="41" to-port="86"/>
        <edge from-layer="41" from-port="87" to-layer="42" to-port="88"/>
        <edge from-layer="42" from-port="89" to-layer="43" to-port="90"/>
        <edge from-layer="43" from-port="91" to-layer="44" to-port="92"/>
        <edge from-layer="44" from-port="93" to-layer="45" to-port="94"/>
        <edge from-layer="40" from-port="85" to-layer="46" to-port="96"/>
        <edge from-layer="45" from-port="95" to-layer="46" to-port="97"/>
        <edge from-layer="46" from-port="98" to-layer="47" to-port="99"/>
        <edge from-layer="47" from-port="100" to-layer="48" to-port="101"/>
        <edge from-layer="48" from-port="102" to-layer="49" to-port="103"/>
        <edge from-layer="49" from-port="104" to-layer="50" to-port="105"/>
        <edge from-layer="50" from-port="106" to-layer="51" to-port="107"/>
        <edge from-layer="51" from-port="108" to-layer="52" to-port="109"/>
        <edge from-layer="47" from-port="100" to-layer="53" to-port="111"/>
        <edge from-layer="52" from-port="110" to-layer="53" to-port="112"/>
        <edge from-layer="53" from-port="113" to-layer="54" to-port="114"/>
        <edge from-layer="54" from-port="115" to-layer="55" to-port="116"/>
        <edge from-layer="55" from-port="117" to-layer="56" to-port="118"/>
        <edge from-layer="56" from-port="119" to-layer="57" to-port="120"/>
        <edge from-layer="57" from-port="121" to-layer="58" to-port="122"/>
        <edge from-layer="58" from-port="123" to-layer="59" to-port="124"/>
        <edge from-layer="54" from-port="115" to-layer="60" to-port="126"/>
        <edge from-layer="60" from-port="127" to-layer="61" to-port="128"/>
        <edge from-layer="61" from-port="129" to-layer="62" to-port="130"/>
        <edge from-layer="59" from-port="125" to-layer="62" to-port="131"/>
        <edge from-layer="62" from-port="132" to-layer="63" to-port="133"/>
        <edge from-layer="63" from-port="134" to-layer="64" to-port="135"/>
        <edge from-layer="64" from-port="136" to-layer="65" to-port="137"/>
        <edge from-layer="65" from-port="138" to-layer="66" to-port="139"/>
        <edge from-layer="66" from-port="140" to-layer="67" to-port="141"/>
        <edge from-layer="67" from-port="142" to-layer="68" to-port="143"/>
        <edge from-layer="63" from-port="134" to-layer="69" to-port="145"/>
        <edge from-layer="68" from-port="144" to-layer="69" to-port="146"/>
        <edge from-layer="69" from-port="147" to-layer="70" to-port="148"/>
        <edge from-layer="70" from-port="149" to-layer="71" to-port="150"/>
        <edge from-layer="71" from-port="151" to-layer="72" to-port="152"/>
        <edge from-layer="72" from-port="153" to-layer="73" to-port="154"/>
        <edge from-layer="73" from-port="155" to-layer="74" to-port="156"/>
        <edge from-layer="74" from-port="157" to-layer="75" to-port="158"/>
        <edge from-layer="70" from-port="149" to-layer="76" to-port="160"/>
        <edge from-layer="75" from-port="159" to-layer="76" to-port="161"/>
        <edge from-layer="76" from-port="162" to-layer="77" to-port="163"/>
        <edge from-layer="77" from-port="164" to-layer="78" to-port="165"/>
        <edge from-layer="78" from-port="166" to-layer="79" to-port="167"/>
        <edge from-layer="79" from-port="168" to-layer="80" to-port="169"/>
        <edge from-layer="80" from-port="170" to-layer="81" to-port="171"/>
        <edge from-layer="81" from-port="172" to-layer="82" to-port="173"/>
        <edge from-layer="77" from-port="164" to-layer="83" to-port="175"/>
        <edge from-layer="82" from-port="174" to-layer="83" to-port="176"/>
        <edge from-layer="83" from-port="177" to-layer="84" to-port="178"/>
        <edge from-layer="84" from-port="179" to-layer="85" to-port="180"/>
        <edge from-layer="85" from-port="181" to-layer="86" to-port="182"/>
        <edge from-layer="86" from-port="183" to-layer="87" to-port="184"/>
        <edge from-layer="87" from-port="185" to-layer="88" to-port="186"/>
        <edge from-layer="88" from-port="187" to-layer="89" to-port="188"/>
        <edge from-layer="84" from-port="179" to-layer="90" to-port="190"/>
        <edge from-layer="90" from-port="191" to-layer="91" to-port="192"/>
        <edge from-layer="91" from-port="193" to-layer="92" to-port="194"/>
        <edge from-layer="89" from-port="189" to-layer="92" to-port="195"/>
        <edge from-layer="92" from-port="196" to-layer="93" to-port="197"/>
        <edge from-layer="93" from-port="198" to-layer="94" to-port="199"/>
        <edge from-layer="94" from-port="200" to-layer="95" to-port="201"/>
        <edge from-layer="95" from-port="202" to-layer="96" to-port="203"/>
        <edge from-layer="96" from-port="204" to-layer="97" to-port="205"/>
        <edge from-layer="97" from-port="206" to-layer="98" to-port="207"/>
        <edge from-layer="93" from-port="198" to-layer="99" to-port="209"/>
        <edge from-layer="98" from-port="208" to-layer="99" to-port="210"/>
        <edge from-layer="99" from-port="211" to-layer="100" to-port="212"/>
        <edge from-layer="100" from-port="213" to-layer="101" to-port="214"/>
        <edge from-layer="101" from-port="215" to-layer="102" to-port="216"/>
        <edge from-layer="102" from-port="217" to-layer="103" to-port="218"/>
        <edge from-layer="103" from-port="219" to-layer="104" to-port="220"/>
        <edge from-layer="104" from-port="221" to-layer="105" to-port="222"/>
        <edge from-layer="100" from-port="213" to-layer="106" to-port="224"/>
        <edge from-layer="105" from-port="223" to-layer="106" to-port="225"/>
        <edge from-layer="106" from-port="226" to-layer="107" to-port="227"/>
        <edge from-layer="107" from-port="228" to-layer="108" to-port="229"/>
        <edge from-layer="108" from-port="230" to-layer="109" to-port="231"/>
        <edge from-layer="109" from-port="232" to-layer="110" to-port="233"/>
        <edge from-layer="110" from-port="234" to-layer="111" to-port="235"/>
        <edge from-layer="111" from-port="236" to-layer="112" to-port="237"/>
        <edge from-layer="107" from-port="228" to-layer="113" to-port="239"/>
        <edge from-layer="112" from-port="238" to-layer="113" to-port="240"/>
        <edge from-layer="113" from-port="241" to-layer="114" to-port="242"/>
        <edge from-layer="114" from-port="243" to-layer="115" to-port="244"/>
        <edge from-layer="115" from-port="245" to-layer="116" to-port="246"/>
    </edges>
</net>
