<?xml version="1.0" ?>
<net batch="1" name="text-detection-0001" version="4">
	<layers>
		<layer id="0" name="Placeholder" precision="FP16" type="Input">
			<output>
				<port id="0">
					<dim>1</dim>
					<dim>3</dim>
					<dim>768</dim>
					<dim>1280</dim>
				</port>
			</output>
		</layer>
		<layer id="1" name="Add_" precision="FP16" type="ScaleShift">
			<input>
				<port id="0">
					<dim>1</dim>
					<dim>3</dim>
					<dim>768</dim>
					<dim>1280</dim>
				</port>
			</input>
			<output>
				<port id="3">
					<dim>1</dim>
					<dim>3</dim>
					<dim>768</dim>
					<dim>1280</dim>
				</port>
			</output>
			<blobs>
				<weights offset="0" size="6"/>
				<biases offset="6" size="6"/>
			</blobs>
		</layer>
		<layer id="2" name="conv1/Conv/Conv2D" precision="FP16" type="Convolution">
			<data auto_pad="same_upper" dilations="1,1" group="1" kernel="3,3" output="32" pads_begin="0,0" pads_end="1,1" strides="2,2"/>
			<input>
				<port id="0">
					<dim>1</dim>
					<dim>3</dim>
					<dim>768</dim>
					<dim>1280</dim>
				</port>
			</input>
			<output>
				<port id="3">
					<dim>1</dim>
					<dim>32</dim>
					<dim>384</dim>
					<dim>640</dim>
				</port>
			</output>
			<blobs>
				<weights offset="12" size="1728"/>
				<biases offset="1740" size="64"/>
			</blobs>
		</layer>
		<layer id="3" name="conv1/Relu6" precision="FP16" type="Clamp">
			<data max="6" min="0"/>
			<input>
				<port id="0">
					<dim>1</dim>
					<dim>32</dim>
					<dim>384</dim>
					<dim>640</dim>
				</port>
			</input>
			<output>
				<port id="1">
					<dim>1</dim>
					<dim>32</dim>
					<dim>384</dim>
					<dim>640</dim>
				</port>
			</output>
		</layer>
		<layer id="4" name="conv2_1/Conv/Conv2D" precision="FP16" type="Convolution">
			<data auto_pad="same_upper" dilations="1,1" group="1" kernel="1,1" output="32" pads_begin="0,0" pads_end="0,0" strides="1,1"/>
			<input>
				<port id="0">
					<dim>1</dim>
					<dim>32</dim>
					<dim>384</dim>
					<dim>640</dim>
				</port>
			</input>
			<output>
				<port id="3">
					<dim>1</dim>
					<dim>32</dim>
					<dim>384</dim>
					<dim>640</dim>
				</port>
			</output>
			<blobs>
				<weights offset="1804" size="2048"/>
				<biases offset="3852" size="64"/>
			</blobs>
		</layer>
		<layer id="5" name="conv2_1/Relu6" precision="FP16" type="Clamp">
			<data max="6" min="0"/>
			<input>
				<port id="0">
					<dim>1</dim>
					<dim>32</dim>
					<dim>384</dim>
					<dim>640</dim>
				</port>
			</input>
			<output>
				<port id="1">
					<dim>1</dim>
					<dim>32</dim>
					<dim>384</dim>
					<dim>640</dim>
				</port>
			</output>
		</layer>
		<layer id="6" name="conv2_1/SeparableConv2d/separable_conv2d/depthwise" precision="FP16" type="Convolution">
			<data auto_pad="same_upper" dilations="1,1" group="32" kernel="3,3" output="32" pads_begin="1,1" pads_end="1,1" strides="1,1"/>
			<input>
				<port id="0">
					<dim>1</dim>
					<dim>32</dim>
					<dim>384</dim>
					<dim>640</dim>
				</port>
			</input>
			<output>
				<port id="2">
					<dim>1</dim>
					<dim>32</dim>
					<dim>384</dim>
					<dim>640</dim>
				</port>
			</output>
			<blobs>
				<weights offset="3916" size="576"/>
			</blobs>
		</layer>
		<layer id="7" name="conv2_1/SeparableConv2d/separable_conv2d" precision="FP16" type="Convolution">
			<data auto_pad="valid" dilations="1,1" group="1" kernel="1,1" output="32" pads_begin="0,0" pads_end="0,0" strides="1,1"/>
			<input>
				<port id="0">
					<dim>1</dim>
					<dim>32</dim>
					<dim>384</dim>
					<dim>640</dim>
				</port>
			</input>
			<output>
				<port id="3">
					<dim>1</dim>
					<dim>32</dim>
					<dim>384</dim>
					<dim>640</dim>
				</port>
			</output>
			<blobs>
				<weights offset="4492" size="2048"/>
				<biases offset="6540" size="64"/>
			</blobs>
		</layer>
		<layer id="8" name="conv2_1/Relu6_1" precision="FP16" type="Clamp">
			<data max="6" min="0"/>
			<input>
				<port id="0">
					<dim>1</dim>
					<dim>32</dim>
					<dim>384</dim>
					<dim>640</dim>
				</port>
			</input>
			<output>
				<port id="1">
					<dim>1</dim>
					<dim>32</dim>
					<dim>384</dim>
					<dim>640</dim>
				</port>
			</output>
		</layer>
		<layer id="9" name="conv2_1/Conv_1/Conv2D" precision="FP16" type="Convolution">
			<data auto_pad="same_upper" dilations="1,1" group="1" kernel="1,1" output="16" pads_begin="0,0" pads_end="0,0" strides="1,1"/>
			<input>
				<port id="0">
					<dim>1</dim>
					<dim>32</dim>
					<dim>384</dim>
					<dim>640</dim>
				</port>
			</input>
			<output>
				<port id="3">
					<dim>1</dim>
					<dim>16</dim>
					<dim>384</dim>
					<dim>640</dim>
				</port>
			</output>
			<blobs>
				<weights offset="6604" size="1024"/>
				<biases offset="7628" size="32"/>
			</blobs>
		</layer>
		<layer id="10" name="conv2_2/Conv/Conv2D" precision="FP16" type="Convolution">
			<data auto_pad="same_upper" dilations="1,1" group="1" kernel="1,1" output="96" pads_begin="0,0" pads_end="0,0" strides="1,1"/>
			<input>
				<port id="0">
					<dim>1</dim>
					<dim>16</dim>
					<dim>384</dim>
					<dim>640</dim>
				</port>
			</input>
			<output>
				<port id="3">
					<dim>1</dim>
					<dim>96</dim>
					<dim>384</dim>
					<dim>640</dim>
				</port>
			</output>
			<blobs>
				<weights offset="7660" size="3072"/>
				<biases offset="10732" size="192"/>
			</blobs>
		</layer>
		<layer id="11" name="conv2_2/Relu6" precision="FP16" type="Clamp">
			<data max="6" min="0"/>
			<input>
				<port id="0">
					<dim>1</dim>
					<dim>96</dim>
					<dim>384</dim>
					<dim>640</dim>
				</port>
			</input>
			<output>
				<port id="1">
					<dim>1</dim>
					<dim>96</dim>
					<dim>384</dim>
					<dim>640</dim>
				</port>
			</output>
		</layer>
		<layer id="12" name="conv2_2/SeparableConv2d/separable_conv2d/depthwise" precision="FP16" type="Convolution">
			<data auto_pad="same_upper" dilations="1,1" group="96" kernel="3,3" output="96" pads_begin="0,0" pads_end="1,1" strides="2,2"/>
			<input>
				<port id="0">
					<dim>1</dim>
					<dim>96</dim>
					<dim>384</dim>
					<dim>640</dim>
				</port>
			</input>
			<output>
				<port id="2">
					<dim>1</dim>
					<dim>96</dim>
					<dim>192</dim>
					<dim>320</dim>
				</port>
			</output>
			<blobs>
				<weights offset="10924" size="1728"/>
			</blobs>
		</layer>
		<layer id="13" name="conv2_2/SeparableConv2d/separable_conv2d" precision="FP16" type="Convolution">
			<data auto_pad="valid" dilations="1,1" group="1" kernel="1,1" output="96" pads_begin="0,0" pads_end="0,0" strides="1,1"/>
			<input>
				<port id="0">
					<dim>1</dim>
					<dim>96</dim>
					<dim>192</dim>
					<dim>320</dim>
				</port>
			</input>
			<output>
				<port id="3">
					<dim>1</dim>
					<dim>96</dim>
					<dim>192</dim>
					<dim>320</dim>
				</port>
			</output>
			<blobs>
				<weights offset="12652" size="18432"/>
				<biases offset="31084" size="192"/>
			</blobs>
		</layer>
		<layer id="14" name="conv2_2/Relu6_1" precision="FP16" type="Clamp">
			<data max="6" min="0"/>
			<input>
				<port id="0">
					<dim>1</dim>
					<dim>96</dim>
					<dim>192</dim>
					<dim>320</dim>
				</port>
			</input>
			<output>
				<port id="1">
					<dim>1</dim>
					<dim>96</dim>
					<dim>192</dim>
					<dim>320</dim>
				</port>
			</output>
		</layer>
		<layer id="15" name="conv2_2/Conv_1/Conv2D" precision="FP16" type="Convolution">
			<data auto_pad="same_upper" dilations="1,1" group="1" kernel="1,1" output="24" pads_begin="0,0" pads_end="0,0" strides="1,1"/>
			<input>
				<port id="0">
					<dim>1</dim>
					<dim>96</dim>
					<dim>192</dim>
					<dim>320</dim>
				</port>
			</input>
			<output>
				<port id="3">
					<dim>1</dim>
					<dim>24</dim>
					<dim>192</dim>
					<dim>320</dim>
				</port>
			</output>
			<blobs>
				<weights offset="31276" size="4608"/>
				<biases offset="35884" size="48"/>
			</blobs>
		</layer>
		<layer id="16" name="conv3_1/Conv/Conv2D" precision="FP16" type="Convolution">
			<data auto_pad="same_upper" dilations="1,1" group="1" kernel="1,1" output="144" pads_begin="0,0" pads_end="0,0" strides="1,1"/>
			<input>
				<port id="0">
					<dim>1</dim>
					<dim>24</dim>
					<dim>192</dim>
					<dim>320</dim>
				</port>
			</input>
			<output>
				<port id="3">
					<dim>1</dim>
					<dim>144</dim>
					<dim>192</dim>
					<dim>320</dim>
				</port>
			</output>
			<blobs>
				<weights offset="35932" size="6912"/>
				<biases offset="42844" size="288"/>
			</blobs>
		</layer>
		<layer id="17" name="conv3_1/Relu6" precision="FP16" type="Clamp">
			<data max="6" min="0"/>
			<input>
				<port id="0">
					<dim>1</dim>
					<dim>144</dim>
					<dim>192</dim>
					<dim>320</dim>
				</port>
			</input>
			<output>
				<port id="1">
					<dim>1</dim>
					<dim>144</dim>
					<dim>192</dim>
					<dim>320</dim>
				</port>
			</output>
		</layer>
		<layer id="18" name="conv3_1/SeparableConv2d/separable_conv2d/depthwise" precision="FP16" type="Convolution">
			<data auto_pad="same_upper" dilations="1,1" group="144" kernel="3,3" output="144" pads_begin="1,1" pads_end="1,1" strides="1,1"/>
			<input>
				<port id="0">
					<dim>1</dim>
					<dim>144</dim>
					<dim>192</dim>
					<dim>320</dim>
				</port>
			</input>
			<output>
				<port id="2">
					<dim>1</dim>
					<dim>144</dim>
					<dim>192</dim>
					<dim>320</dim>
				</port>
			</output>
			<blobs>
				<weights offset="43132" size="2592"/>
			</blobs>
		</layer>
		<layer id="19" name="conv3_1/SeparableConv2d/separable_conv2d" precision="FP16" type="Convolution">
			<data auto_pad="valid" dilations="1,1" group="1" kernel="1,1" output="144" pads_begin="0,0" pads_end="0,0" strides="1,1"/>
			<input>
				<port id="0">
					<dim>1</dim>
					<dim>144</dim>
					<dim>192</dim>
					<dim>320</dim>
				</port>
			</input>
			<output>
				<port id="3">
					<dim>1</dim>
					<dim>144</dim>
					<dim>192</dim>
					<dim>320</dim>
				</port>
			</output>
			<blobs>
				<weights offset="45724" size="41472"/>
				<biases offset="87196" size="288"/>
			</blobs>
		</layer>
		<layer id="20" name="conv3_1/Relu6_1" precision="FP16" type="Clamp">
			<data max="6" min="0"/>
			<input>
				<port id="0">
					<dim>1</dim>
					<dim>144</dim>
					<dim>192</dim>
					<dim>320</dim>
				</port>
			</input>
			<output>
				<port id="1">
					<dim>1</dim>
					<dim>144</dim>
					<dim>192</dim>
					<dim>320</dim>
				</port>
			</output>
		</layer>
		<layer id="21" name="conv3_1/Conv_1/Conv2D" precision="FP16" type="Convolution">
			<data auto_pad="same_upper" dilations="1,1" group="1" kernel="1,1" output="24" pads_begin="0,0" pads_end="0,0" strides="1,1"/>
			<input>
				<port id="0">
					<dim>1</dim>
					<dim>144</dim>
					<dim>192</dim>
					<dim>320</dim>
				</port>
			</input>
			<output>
				<port id="3">
					<dim>1</dim>
					<dim>24</dim>
					<dim>192</dim>
					<dim>320</dim>
				</port>
			</output>
			<blobs>
				<weights offset="87484" size="6912"/>
				<biases offset="94396" size="48"/>
			</blobs>
		</layer>
		<layer id="22" name="conv3_1/Add" precision="FP16" type="Eltwise">
			<data operation="sum"/>
			<input>
				<port id="0">
					<dim>1</dim>
					<dim>24</dim>
					<dim>192</dim>
					<dim>320</dim>
				</port>
				<port id="1">
					<dim>1</dim>
					<dim>24</dim>
					<dim>192</dim>
					<dim>320</dim>
				</port>
			</input>
			<output>
				<port id="2">
					<dim>1</dim>
					<dim>24</dim>
					<dim>192</dim>
					<dim>320</dim>
				</port>
			</output>
		</layer>
		<layer id="23" name="pixel_cls/score_from_conv3_3/Conv2D" precision="FP16" type="Convolution">
			<data auto_pad="same_upper" dilations="1,1" group="1" kernel="1,1" output="2" pads_begin="0,0" pads_end="0,0" strides="1,1"/>
			<input>
				<port id="0">
					<dim>1</dim>
					<dim>24</dim>
					<dim>192</dim>
					<dim>320</dim>
				</port>
			</input>
			<output>
				<port id="3">
					<dim>1</dim>
					<dim>2</dim>
					<dim>192</dim>
					<dim>320</dim>
				</port>
			</output>
			<blobs>
				<weights offset="94444" size="96"/>
				<biases offset="94540" size="4"/>
			</blobs>
		</layer>
		<layer id="24" name="conv3_2/Conv/Conv2D" precision="FP16" type="Convolution">
			<data auto_pad="same_upper" dilations="1,1" group="1" kernel="1,1" output="144" pads_begin="0,0" pads_end="0,0" strides="1,1"/>
			<input>
				<port id="0">
					<dim>1</dim>
					<dim>24</dim>
					<dim>192</dim>
					<dim>320</dim>
				</port>
			</input>
			<output>
				<port id="3">
					<dim>1</dim>
					<dim>144</dim>
					<dim>192</dim>
					<dim>320</dim>
				</port>
			</output>
			<blobs>
				<weights offset="94544" size="6912"/>
				<biases offset="101456" size="288"/>
			</blobs>
		</layer>
		<layer id="25" name="conv3_2/Relu6" precision="FP16" type="Clamp">
			<data max="6" min="0"/>
			<input>
				<port id="0">
					<dim>1</dim>
					<dim>144</dim>
					<dim>192</dim>
					<dim>320</dim>
				</port>
			</input>
			<output>
				<port id="1">
					<dim>1</dim>
					<dim>144</dim>
					<dim>192</dim>
					<dim>320</dim>
				</port>
			</output>
		</layer>
		<layer id="26" name="conv3_2/SeparableConv2d/separable_conv2d/depthwise" precision="FP16" type="Convolution">
			<data auto_pad="same_upper" dilations="1,1" group="144" kernel="3,3" output="144" pads_begin="0,0" pads_end="1,1" strides="2,2"/>
			<input>
				<port id="0">
					<dim>1</dim>
					<dim>144</dim>
					<dim>192</dim>
					<dim>320</dim>
				</port>
			</input>
			<output>
				<port id="2">
					<dim>1</dim>
					<dim>144</dim>
					<dim>96</dim>
					<dim>160</dim>
				</port>
			</output>
			<blobs>
				<weights offset="101744" size="2592"/>
			</blobs>
		</layer>
		<layer id="27" name="conv3_2/SeparableConv2d/separable_conv2d" precision="FP16" type="Convolution">
			<data auto_pad="valid" dilations="1,1" group="1" kernel="1,1" output="144" pads_begin="0,0" pads_end="0,0" strides="1,1"/>
			<input>
				<port id="0">
					<dim>1</dim>
					<dim>144</dim>
					<dim>96</dim>
					<dim>160</dim>
				</port>
			</input>
			<output>
				<port id="3">
					<dim>1</dim>
					<dim>144</dim>
					<dim>96</dim>
					<dim>160</dim>
				</port>
			</output>
			<blobs>
				<weights offset="104336" size="41472"/>
				<biases offset="145808" size="288"/>
			</blobs>
		</layer>
		<layer id="28" name="conv3_2/Relu6_1" precision="FP16" type="Clamp">
			<data max="6" min="0"/>
			<input>
				<port id="0">
					<dim>1</dim>
					<dim>144</dim>
					<dim>96</dim>
					<dim>160</dim>
				</port>
			</input>
			<output>
				<port id="1">
					<dim>1</dim>
					<dim>144</dim>
					<dim>96</dim>
					<dim>160</dim>
				</port>
			</output>
		</layer>
		<layer id="29" name="conv3_2/Conv_1/Conv2D" precision="FP16" type="Convolution">
			<data auto_pad="same_upper" dilations="1,1" group="1" kernel="1,1" output="32" pads_begin="0,0" pads_end="0,0" strides="1,1"/>
			<input>
				<port id="0">
					<dim>1</dim>
					<dim>144</dim>
					<dim>96</dim>
					<dim>160</dim>
				</port>
			</input>
			<output>
				<port id="3">
					<dim>1</dim>
					<dim>32</dim>
					<dim>96</dim>
					<dim>160</dim>
				</port>
			</output>
			<blobs>
				<weights offset="146096" size="9216"/>
				<biases offset="155312" size="64"/>
			</blobs>
		</layer>
		<layer id="30" name="conv4_1/Conv/Conv2D" precision="FP16" type="Convolution">
			<data auto_pad="same_upper" dilations="1,1" group="1" kernel="1,1" output="192" pads_begin="0,0" pads_end="0,0" strides="1,1"/>
			<input>
				<port id="0">
					<dim>1</dim>
					<dim>32</dim>
					<dim>96</dim>
					<dim>160</dim>
				</port>
			</input>
			<output>
				<port id="3">
					<dim>1</dim>
					<dim>192</dim>
					<dim>96</dim>
					<dim>160</dim>
				</port>
			</output>
			<blobs>
				<weights offset="155376" size="12288"/>
				<biases offset="167664" size="384"/>
			</blobs>
		</layer>
		<layer id="31" name="conv4_1/Relu6" precision="FP16" type="Clamp">
			<data max="6" min="0"/>
			<input>
				<port id="0">
					<dim>1</dim>
					<dim>192</dim>
					<dim>96</dim>
					<dim>160</dim>
				</port>
			</input>
			<output>
				<port id="1">
					<dim>1</dim>
					<dim>192</dim>
					<dim>96</dim>
					<dim>160</dim>
				</port>
			</output>
		</layer>
		<layer id="32" name="conv4_1/SeparableConv2d/separable_conv2d/depthwise" precision="FP16" type="Convolution">
			<data auto_pad="same_upper" dilations="1,1" group="192" kernel="3,3" output="192" pads_begin="1,1" pads_end="1,1" strides="1,1"/>
			<input>
				<port id="0">
					<dim>1</dim>
					<dim>192</dim>
					<dim>96</dim>
					<dim>160</dim>
				</port>
			</input>
			<output>
				<port id="2">
					<dim>1</dim>
					<dim>192</dim>
					<dim>96</dim>
					<dim>160</dim>
				</port>
			</output>
			<blobs>
				<weights offset="168048" size="3456"/>
			</blobs>
		</layer>
		<layer id="33" name="conv4_1/SeparableConv2d/separable_conv2d" precision="FP16" type="Convolution">
			<data auto_pad="valid" dilations="1,1" group="1" kernel="1,1" output="192" pads_begin="0,0" pads_end="0,0" strides="1,1"/>
			<input>
				<port id="0">
					<dim>1</dim>
					<dim>192</dim>
					<dim>96</dim>
					<dim>160</dim>
				</port>
			</input>
			<output>
				<port id="3">
					<dim>1</dim>
					<dim>192</dim>
					<dim>96</dim>
					<dim>160</dim>
				</port>
			</output>
			<blobs>
				<weights offset="171504" size="73728"/>
				<biases offset="245232" size="384"/>
			</blobs>
		</layer>
		<layer id="34" name="conv4_1/Relu6_1" precision="FP16" type="Clamp">
			<data max="6" min="0"/>
			<input>
				<port id="0">
					<dim>1</dim>
					<dim>192</dim>
					<dim>96</dim>
					<dim>160</dim>
				</port>
			</input>
			<output>
				<port id="1">
					<dim>1</dim>
					<dim>192</dim>
					<dim>96</dim>
					<dim>160</dim>
				</port>
			</output>
		</layer>
		<layer id="35" name="conv4_1/Conv_1/Conv2D" precision="FP16" type="Convolution">
			<data auto_pad="same_upper" dilations="1,1" group="1" kernel="1,1" output="32" pads_begin="0,0" pads_end="0,0" strides="1,1"/>
			<input>
				<port id="0">
					<dim>1</dim>
					<dim>192</dim>
					<dim>96</dim>
					<dim>160</dim>
				</port>
			</input>
			<output>
				<port id="3">
					<dim>1</dim>
					<dim>32</dim>
					<dim>96</dim>
					<dim>160</dim>
				</port>
			</output>
			<blobs>
				<weights offset="245616" size="12288"/>
				<biases offset="257904" size="64"/>
			</blobs>
		</layer>
		<layer id="36" name="conv4_1/Add" precision="FP16" type="Eltwise">
			<data operation="sum"/>
			<input>
				<port id="0">
					<dim>1</dim>
					<dim>32</dim>
					<dim>96</dim>
					<dim>160</dim>
				</port>
				<port id="1">
					<dim>1</dim>
					<dim>32</dim>
					<dim>96</dim>
					<dim>160</dim>
				</port>
			</input>
			<output>
				<port id="2">
					<dim>1</dim>
					<dim>32</dim>
					<dim>96</dim>
					<dim>160</dim>
				</port>
			</output>
		</layer>
		<layer id="37" name="conv4_2/Conv/Conv2D" precision="FP16" type="Convolution">
			<data auto_pad="same_upper" dilations="1,1" group="1" kernel="1,1" output="192" pads_begin="0,0" pads_end="0,0" strides="1,1"/>
			<input>
				<port id="0">
					<dim>1</dim>
					<dim>32</dim>
					<dim>96</dim>
					<dim>160</dim>
				</port>
			</input>
			<output>
				<port id="3">
					<dim>1</dim>
					<dim>192</dim>
					<dim>96</dim>
					<dim>160</dim>
				</port>
			</output>
			<blobs>
				<weights offset="257968" size="12288"/>
				<biases offset="270256" size="384"/>
			</blobs>
		</layer>
		<layer id="38" name="conv4_2/Relu6" precision="FP16" type="Clamp">
			<data max="6" min="0"/>
			<input>
				<port id="0">
					<dim>1</dim>
					<dim>192</dim>
					<dim>96</dim>
					<dim>160</dim>
				</port>
			</input>
			<output>
				<port id="1">
					<dim>1</dim>
					<dim>192</dim>
					<dim>96</dim>
					<dim>160</dim>
				</port>
			</output>
		</layer>
		<layer id="39" name="conv4_2/SeparableConv2d/separable_conv2d/depthwise" precision="FP16" type="Convolution">
			<data auto_pad="same_upper" dilations="1,1" group="192" kernel="3,3" output="192" pads_begin="1,1" pads_end="1,1" strides="1,1"/>
			<input>
				<port id="0">
					<dim>1</dim>
					<dim>192</dim>
					<dim>96</dim>
					<dim>160</dim>
				</port>
			</input>
			<output>
				<port id="2">
					<dim>1</dim>
					<dim>192</dim>
					<dim>96</dim>
					<dim>160</dim>
				</port>
			</output>
			<blobs>
				<weights offset="270640" size="3456"/>
			</blobs>
		</layer>
		<layer id="40" name="conv4_2/SeparableConv2d/separable_conv2d" precision="FP16" type="Convolution">
			<data auto_pad="valid" dilations="1,1" group="1" kernel="1,1" output="192" pads_begin="0,0" pads_end="0,0" strides="1,1"/>
			<input>
				<port id="0">
					<dim>1</dim>
					<dim>192</dim>
					<dim>96</dim>
					<dim>160</dim>
				</port>
			</input>
			<output>
				<port id="3">
					<dim>1</dim>
					<dim>192</dim>
					<dim>96</dim>
					<dim>160</dim>
				</port>
			</output>
			<blobs>
				<weights offset="274096" size="73728"/>
				<biases offset="347824" size="384"/>
			</blobs>
		</layer>
		<layer id="41" name="conv4_2/Relu6_1" precision="FP16" type="Clamp">
			<data max="6" min="0"/>
			<input>
				<port id="0">
					<dim>1</dim>
					<dim>192</dim>
					<dim>96</dim>
					<dim>160</dim>
				</port>
			</input>
			<output>
				<port id="1">
					<dim>1</dim>
					<dim>192</dim>
					<dim>96</dim>
					<dim>160</dim>
				</port>
			</output>
		</layer>
		<layer id="42" name="conv4_2/Conv_1/Conv2D" precision="FP16" type="Convolution">
			<data auto_pad="same_upper" dilations="1,1" group="1" kernel="1,1" output="32" pads_begin="0,0" pads_end="0,0" strides="1,1"/>
			<input>
				<port id="0">
					<dim>1</dim>
					<dim>192</dim>
					<dim>96</dim>
					<dim>160</dim>
				</port>
			</input>
			<output>
				<port id="3">
					<dim>1</dim>
					<dim>32</dim>
					<dim>96</dim>
					<dim>160</dim>
				</port>
			</output>
			<blobs>
				<weights offset="348208" size="12288"/>
				<biases offset="360496" size="64"/>
			</blobs>
		</layer>
		<layer id="43" name="conv4_2/Add" precision="FP16" type="Eltwise">
			<data operation="sum"/>
			<input>
				<port id="0">
					<dim>1</dim>
					<dim>32</dim>
					<dim>96</dim>
					<dim>160</dim>
				</port>
				<port id="1">
					<dim>1</dim>
					<dim>32</dim>
					<dim>96</dim>
					<dim>160</dim>
				</port>
			</input>
			<output>
				<port id="2">
					<dim>1</dim>
					<dim>32</dim>
					<dim>96</dim>
					<dim>160</dim>
				</port>
			</output>
		</layer>
		<layer id="44" name="conv4_3/Conv/Conv2D" precision="FP16" type="Convolution">
			<data auto_pad="same_upper" dilations="1,1" group="1" kernel="1,1" output="192" pads_begin="0,0" pads_end="0,0" strides="1,1"/>
			<input>
				<port id="0">
					<dim>1</dim>
					<dim>32</dim>
					<dim>96</dim>
					<dim>160</dim>
				</port>
			</input>
			<output>
				<port id="3">
					<dim>1</dim>
					<dim>192</dim>
					<dim>96</dim>
					<dim>160</dim>
				</port>
			</output>
			<blobs>
				<weights offset="360560" size="12288"/>
				<biases offset="372848" size="384"/>
			</blobs>
		</layer>
		<layer id="45" name="conv4_3/Relu6" precision="FP16" type="Clamp">
			<data max="6" min="0"/>
			<input>
				<port id="0">
					<dim>1</dim>
					<dim>192</dim>
					<dim>96</dim>
					<dim>160</dim>
				</port>
			</input>
			<output>
				<port id="1">
					<dim>1</dim>
					<dim>192</dim>
					<dim>96</dim>
					<dim>160</dim>
				</port>
			</output>
		</layer>
		<layer id="46" name="conv4_3/SeparableConv2d/separable_conv2d/depthwise" precision="FP16" type="Convolution">
			<data auto_pad="same_upper" dilations="1,1" group="192" kernel="3,3" output="192" pads_begin="1,1" pads_end="1,1" strides="1,1"/>
			<input>
				<port id="0">
					<dim>1</dim>
					<dim>192</dim>
					<dim>96</dim>
					<dim>160</dim>
				</port>
			</input>
			<output>
				<port id="2">
					<dim>1</dim>
					<dim>192</dim>
					<dim>96</dim>
					<dim>160</dim>
				</port>
			</output>
			<blobs>
				<weights offset="373232" size="3456"/>
			</blobs>
		</layer>
		<layer id="47" name="conv4_3/SeparableConv2d/separable_conv2d" precision="FP16" type="Convolution">
			<data auto_pad="valid" dilations="1,1" group="1" kernel="1,1" output="192" pads_begin="0,0" pads_end="0,0" strides="1,1"/>
			<input>
				<port id="0">
					<dim>1</dim>
					<dim>192</dim>
					<dim>96</dim>
					<dim>160</dim>
				</port>
			</input>
			<output>
				<port id="3">
					<dim>1</dim>
					<dim>192</dim>
					<dim>96</dim>
					<dim>160</dim>
				</port>
			</output>
			<blobs>
				<weights offset="376688" size="73728"/>
				<biases offset="450416" size="384"/>
			</blobs>
		</layer>
		<layer id="48" name="conv4_3/Relu6_1" precision="FP16" type="Clamp">
			<data max="6" min="0"/>
			<input>
				<port id="0">
					<dim>1</dim>
					<dim>192</dim>
					<dim>96</dim>
					<dim>160</dim>
				</port>
			</input>
			<output>
				<port id="1">
					<dim>1</dim>
					<dim>192</dim>
					<dim>96</dim>
					<dim>160</dim>
				</port>
			</output>
		</layer>
		<layer id="49" name="conv4_3/Conv_1/Conv2D" precision="FP16" type="Convolution">
			<data auto_pad="same_upper" dilations="1,1" group="1" kernel="1,1" output="64" pads_begin="0,0" pads_end="0,0" strides="1,1"/>
			<input>
				<port id="0">
					<dim>1</dim>
					<dim>192</dim>
					<dim>96</dim>
					<dim>160</dim>
				</port>
			</input>
			<output>
				<port id="3">
					<dim>1</dim>
					<dim>64</dim>
					<dim>96</dim>
					<dim>160</dim>
				</port>
			</output>
			<blobs>
				<weights offset="450800" size="24576"/>
				<biases offset="475376" size="128"/>
			</blobs>
		</layer>
		<layer id="50" name="conv4_4/Conv/Conv2D" precision="FP16" type="Convolution">
			<data auto_pad="same_upper" dilations="1,1" group="1" kernel="1,1" output="384" pads_begin="0,0" pads_end="0,0" strides="1,1"/>
			<input>
				<port id="0">
					<dim>1</dim>
					<dim>64</dim>
					<dim>96</dim>
					<dim>160</dim>
				</port>
			</input>
			<output>
				<port id="3">
					<dim>1</dim>
					<dim>384</dim>
					<dim>96</dim>
					<dim>160</dim>
				</port>
			</output>
			<blobs>
				<weights offset="475504" size="49152"/>
				<biases offset="524656" size="768"/>
			</blobs>
		</layer>
		<layer id="51" name="conv4_4/Relu6" precision="FP16" type="Clamp">
			<data max="6" min="0"/>
			<input>
				<port id="0">
					<dim>1</dim>
					<dim>384</dim>
					<dim>96</dim>
					<dim>160</dim>
				</port>
			</input>
			<output>
				<port id="1">
					<dim>1</dim>
					<dim>384</dim>
					<dim>96</dim>
					<dim>160</dim>
				</port>
			</output>
		</layer>
		<layer id="52" name="conv4_4/SeparableConv2d/separable_conv2d/depthwise" precision="FP16" type="Convolution">
			<data auto_pad="same_upper" dilations="1,1" group="384" kernel="3,3" output="384" pads_begin="1,1" pads_end="1,1" strides="1,1"/>
			<input>
				<port id="0">
					<dim>1</dim>
					<dim>384</dim>
					<dim>96</dim>
					<dim>160</dim>
				</port>
			</input>
			<output>
				<port id="2">
					<dim>1</dim>
					<dim>384</dim>
					<dim>96</dim>
					<dim>160</dim>
				</port>
			</output>
			<blobs>
				<weights offset="525424" size="6912"/>
			</blobs>
		</layer>
		<layer id="53" name="conv4_4/SeparableConv2d/separable_conv2d" precision="FP16" type="Convolution">
			<data auto_pad="valid" dilations="1,1" group="1" kernel="1,1" output="384" pads_begin="0,0" pads_end="0,0" strides="1,1"/>
			<input>
				<port id="0">
					<dim>1</dim>
					<dim>384</dim>
					<dim>96</dim>
					<dim>160</dim>
				</port>
			</input>
			<output>
				<port id="3">
					<dim>1</dim>
					<dim>384</dim>
					<dim>96</dim>
					<dim>160</dim>
				</port>
			</output>
			<blobs>
				<weights offset="532336" size="294912"/>
				<biases offset="827248" size="768"/>
			</blobs>
		</layer>
		<layer id="54" name="conv4_4/Relu6_1" precision="FP16" type="Clamp">
			<data max="6" min="0"/>
			<input>
				<port id="0">
					<dim>1</dim>
					<dim>384</dim>
					<dim>96</dim>
					<dim>160</dim>
				</port>
			</input>
			<output>
				<port id="1">
					<dim>1</dim>
					<dim>384</dim>
					<dim>96</dim>
					<dim>160</dim>
				</port>
			</output>
		</layer>
		<layer id="55" name="conv4_4/Conv_1/Conv2D" precision="FP16" type="Convolution">
			<data auto_pad="same_upper" dilations="1,1" group="1" kernel="1,1" output="64" pads_begin="0,0" pads_end="0,0" strides="1,1"/>
			<input>
				<port id="0">
					<dim>1</dim>
					<dim>384</dim>
					<dim>96</dim>
					<dim>160</dim>
				</port>
			</input>
			<output>
				<port id="3">
					<dim>1</dim>
					<dim>64</dim>
					<dim>96</dim>
					<dim>160</dim>
				</port>
			</output>
			<blobs>
				<weights offset="828016" size="49152"/>
				<biases offset="877168" size="128"/>
			</blobs>
		</layer>
		<layer id="56" name="conv4_4/Add" precision="FP16" type="Eltwise">
			<data operation="sum"/>
			<input>
				<port id="0">
					<dim>1</dim>
					<dim>64</dim>
					<dim>96</dim>
					<dim>160</dim>
				</port>
				<port id="1">
					<dim>1</dim>
					<dim>64</dim>
					<dim>96</dim>
					<dim>160</dim>
				</port>
			</input>
			<output>
				<port id="2">
					<dim>1</dim>
					<dim>64</dim>
					<dim>96</dim>
					<dim>160</dim>
				</port>
			</output>
		</layer>
		<layer id="57" name="conv4_5/Conv/Conv2D" precision="FP16" type="Convolution">
			<data auto_pad="same_upper" dilations="1,1" group="1" kernel="1,1" output="384" pads_begin="0,0" pads_end="0,0" strides="1,1"/>
			<input>
				<port id="0">
					<dim>1</dim>
					<dim>64</dim>
					<dim>96</dim>
					<dim>160</dim>
				</port>
			</input>
			<output>
				<port id="3">
					<dim>1</dim>
					<dim>384</dim>
					<dim>96</dim>
					<dim>160</dim>
				</port>
			</output>
			<blobs>
				<weights offset="877296" size="49152"/>
				<biases offset="926448" size="768"/>
			</blobs>
		</layer>
		<layer id="58" name="conv4_5/Relu6" precision="FP16" type="Clamp">
			<data max="6" min="0"/>
			<input>
				<port id="0">
					<dim>1</dim>
					<dim>384</dim>
					<dim>96</dim>
					<dim>160</dim>
				</port>
			</input>
			<output>
				<port id="1">
					<dim>1</dim>
					<dim>384</dim>
					<dim>96</dim>
					<dim>160</dim>
				</port>
			</output>
		</layer>
		<layer id="59" name="conv4_5/SeparableConv2d/separable_conv2d/depthwise" precision="FP16" type="Convolution">
			<data auto_pad="same_upper" dilations="1,1" group="384" kernel="3,3" output="384" pads_begin="1,1" pads_end="1,1" strides="1,1"/>
			<input>
				<port id="0">
					<dim>1</dim>
					<dim>384</dim>
					<dim>96</dim>
					<dim>160</dim>
				</port>
			</input>
			<output>
				<port id="2">
					<dim>1</dim>
					<dim>384</dim>
					<dim>96</dim>
					<dim>160</dim>
				</port>
			</output>
			<blobs>
				<weights offset="927216" size="6912"/>
			</blobs>
		</layer>
		<layer id="60" name="conv4_5/SeparableConv2d/separable_conv2d" precision="FP16" type="Convolution">
			<data auto_pad="valid" dilations="1,1" group="1" kernel="1,1" output="384" pads_begin="0,0" pads_end="0,0" strides="1,1"/>
			<input>
				<port id="0">
					<dim>1</dim>
					<dim>384</dim>
					<dim>96</dim>
					<dim>160</dim>
				</port>
			</input>
			<output>
				<port id="3">
					<dim>1</dim>
					<dim>384</dim>
					<dim>96</dim>
					<dim>160</dim>
				</port>
			</output>
			<blobs>
				<weights offset="934128" size="294912"/>
				<biases offset="1229040" size="768"/>
			</blobs>
		</layer>
		<layer id="61" name="conv4_5/Relu6_1" precision="FP16" type="Clamp">
			<data max="6" min="0"/>
			<input>
				<port id="0">
					<dim>1</dim>
					<dim>384</dim>
					<dim>96</dim>
					<dim>160</dim>
				</port>
			</input>
			<output>
				<port id="1">
					<dim>1</dim>
					<dim>384</dim>
					<dim>96</dim>
					<dim>160</dim>
				</port>
			</output>
		</layer>
		<layer id="62" name="conv4_5/Conv_1/Conv2D" precision="FP16" type="Convolution">
			<data auto_pad="same_upper" dilations="1,1" group="1" kernel="1,1" output="64" pads_begin="0,0" pads_end="0,0" strides="1,1"/>
			<input>
				<port id="0">
					<dim>1</dim>
					<dim>384</dim>
					<dim>96</dim>
					<dim>160</dim>
				</port>
			</input>
			<output>
				<port id="3">
					<dim>1</dim>
					<dim>64</dim>
					<dim>96</dim>
					<dim>160</dim>
				</port>
			</output>
			<blobs>
				<weights offset="1229808" size="49152"/>
				<biases offset="1278960" size="128"/>
			</blobs>
		</layer>
		<layer id="63" name="conv4_5/Add" precision="FP16" type="Eltwise">
			<data operation="sum"/>
			<input>
				<port id="0">
					<dim>1</dim>
					<dim>64</dim>
					<dim>96</dim>
					<dim>160</dim>
				</port>
				<port id="1">
					<dim>1</dim>
					<dim>64</dim>
					<dim>96</dim>
					<dim>160</dim>
				</port>
			</input>
			<output>
				<port id="2">
					<dim>1</dim>
					<dim>64</dim>
					<dim>96</dim>
					<dim>160</dim>
				</port>
			</output>
		</layer>
		<layer id="64" name="conv4_6/Conv/Conv2D" precision="FP16" type="Convolution">
			<data auto_pad="same_upper" dilations="1,1" group="1" kernel="1,1" output="384" pads_begin="0,0" pads_end="0,0" strides="1,1"/>
			<input>
				<port id="0">
					<dim>1</dim>
					<dim>64</dim>
					<dim>96</dim>
					<dim>160</dim>
				</port>
			</input>
			<output>
				<port id="3">
					<dim>1</dim>
					<dim>384</dim>
					<dim>96</dim>
					<dim>160</dim>
				</port>
			</output>
			<blobs>
				<weights offset="1279088" size="49152"/>
				<biases offset="1328240" size="768"/>
			</blobs>
		</layer>
		<layer id="65" name="conv4_6/Relu6" precision="FP16" type="Clamp">
			<data max="6" min="0"/>
			<input>
				<port id="0">
					<dim>1</dim>
					<dim>384</dim>
					<dim>96</dim>
					<dim>160</dim>
				</port>
			</input>
			<output>
				<port id="1">
					<dim>1</dim>
					<dim>384</dim>
					<dim>96</dim>
					<dim>160</dim>
				</port>
			</output>
		</layer>
		<layer id="66" name="conv4_6/SeparableConv2d/separable_conv2d/depthwise" precision="FP16" type="Convolution">
			<data auto_pad="same_upper" dilations="1,1" group="384" kernel="3,3" output="384" pads_begin="1,1" pads_end="1,1" strides="1,1"/>
			<input>
				<port id="0">
					<dim>1</dim>
					<dim>384</dim>
					<dim>96</dim>
					<dim>160</dim>
				</port>
			</input>
			<output>
				<port id="2">
					<dim>1</dim>
					<dim>384</dim>
					<dim>96</dim>
					<dim>160</dim>
				</port>
			</output>
			<blobs>
				<weights offset="1329008" size="6912"/>
			</blobs>
		</layer>
		<layer id="67" name="conv4_6/SeparableConv2d/separable_conv2d" precision="FP16" type="Convolution">
			<data auto_pad="valid" dilations="1,1" group="1" kernel="1,1" output="384" pads_begin="0,0" pads_end="0,0" strides="1,1"/>
			<input>
				<port id="0">
					<dim>1</dim>
					<dim>384</dim>
					<dim>96</dim>
					<dim>160</dim>
				</port>
			</input>
			<output>
				<port id="3">
					<dim>1</dim>
					<dim>384</dim>
					<dim>96</dim>
					<dim>160</dim>
				</port>
			</output>
			<blobs>
				<weights offset="1335920" size="294912"/>
				<biases offset="1630832" size="768"/>
			</blobs>
		</layer>
		<layer id="68" name="conv4_6/Relu6_1" precision="FP16" type="Clamp">
			<data max="6" min="0"/>
			<input>
				<port id="0">
					<dim>1</dim>
					<dim>384</dim>
					<dim>96</dim>
					<dim>160</dim>
				</port>
			</input>
			<output>
				<port id="1">
					<dim>1</dim>
					<dim>384</dim>
					<dim>96</dim>
					<dim>160</dim>
				</port>
			</output>
		</layer>
		<layer id="69" name="conv4_6/Conv_1/Conv2D" precision="FP16" type="Convolution">
			<data auto_pad="same_upper" dilations="1,1" group="1" kernel="1,1" output="64" pads_begin="0,0" pads_end="0,0" strides="1,1"/>
			<input>
				<port id="0">
					<dim>1</dim>
					<dim>384</dim>
					<dim>96</dim>
					<dim>160</dim>
				</port>
			</input>
			<output>
				<port id="3">
					<dim>1</dim>
					<dim>64</dim>
					<dim>96</dim>
					<dim>160</dim>
				</port>
			</output>
			<blobs>
				<weights offset="1631600" size="49152"/>
				<biases offset="1680752" size="128"/>
			</blobs>
		</layer>
		<layer id="70" name="conv4_6/Add" precision="FP16" type="Eltwise">
			<data operation="sum"/>
			<input>
				<port id="0">
					<dim>1</dim>
					<dim>64</dim>
					<dim>96</dim>
					<dim>160</dim>
				</port>
				<port id="1">
					<dim>1</dim>
					<dim>64</dim>
					<dim>96</dim>
					<dim>160</dim>
				</port>
			</input>
			<output>
				<port id="2">
					<dim>1</dim>
					<dim>64</dim>
					<dim>96</dim>
					<dim>160</dim>
				</port>
			</output>
		</layer>
		<layer id="71" name="pixel_cls/score_from_conv4_3/Conv2D" precision="FP16" type="Convolution">
			<data auto_pad="same_upper" dilations="1,1" group="1" kernel="1,1" output="2" pads_begin="0,0" pads_end="0,0" strides="1,1"/>
			<input>
				<port id="0">
					<dim>1</dim>
					<dim>64</dim>
					<dim>96</dim>
					<dim>160</dim>
				</port>
			</input>
			<output>
				<port id="3">
					<dim>1</dim>
					<dim>2</dim>
					<dim>96</dim>
					<dim>160</dim>
				</port>
			</output>
			<blobs>
				<weights offset="1680880" size="256"/>
				<biases offset="94540" size="4"/>
			</blobs>
		</layer>
		<layer id="72" name="conv4_7/Conv/Conv2D" precision="FP16" type="Convolution">
			<data auto_pad="same_upper" dilations="1,1" group="1" kernel="1,1" output="384" pads_begin="0,0" pads_end="0,0" strides="1,1"/>
			<input>
				<port id="0">
					<dim>1</dim>
					<dim>64</dim>
					<dim>96</dim>
					<dim>160</dim>
				</port>
			</input>
			<output>
				<port id="3">
					<dim>1</dim>
					<dim>384</dim>
					<dim>96</dim>
					<dim>160</dim>
				</port>
			</output>
			<blobs>
				<weights offset="1681136" size="49152"/>
				<biases offset="1730288" size="768"/>
			</blobs>
		</layer>
		<layer id="73" name="conv4_7/Relu6" precision="FP16" type="Clamp">
			<data max="6" min="0"/>
			<input>
				<port id="0">
					<dim>1</dim>
					<dim>384</dim>
					<dim>96</dim>
					<dim>160</dim>
				</port>
			</input>
			<output>
				<port id="1">
					<dim>1</dim>
					<dim>384</dim>
					<dim>96</dim>
					<dim>160</dim>
				</port>
			</output>
		</layer>
		<layer id="74" name="conv4_7/SeparableConv2d/separable_conv2d/depthwise" precision="FP16" type="Convolution">
			<data auto_pad="same_upper" dilations="1,1" group="384" kernel="3,3" output="384" pads_begin="0,0" pads_end="1,1" strides="2,2"/>
			<input>
				<port id="0">
					<dim>1</dim>
					<dim>384</dim>
					<dim>96</dim>
					<dim>160</dim>
				</port>
			</input>
			<output>
				<port id="2">
					<dim>1</dim>
					<dim>384</dim>
					<dim>48</dim>
					<dim>80</dim>
				</port>
			</output>
			<blobs>
				<weights offset="1731056" size="6912"/>
			</blobs>
		</layer>
		<layer id="75" name="conv4_7/SeparableConv2d/separable_conv2d" precision="FP16" type="Convolution">
			<data auto_pad="valid" dilations="1,1" group="1" kernel="1,1" output="384" pads_begin="0,0" pads_end="0,0" strides="1,1"/>
			<input>
				<port id="0">
					<dim>1</dim>
					<dim>384</dim>
					<dim>48</dim>
					<dim>80</dim>
				</port>
			</input>
			<output>
				<port id="3">
					<dim>1</dim>
					<dim>384</dim>
					<dim>48</dim>
					<dim>80</dim>
				</port>
			</output>
			<blobs>
				<weights offset="1737968" size="294912"/>
				<biases offset="2032880" size="768"/>
			</blobs>
		</layer>
		<layer id="76" name="conv4_7/Relu6_1" precision="FP16" type="Clamp">
			<data max="6" min="0"/>
			<input>
				<port id="0">
					<dim>1</dim>
					<dim>384</dim>
					<dim>48</dim>
					<dim>80</dim>
				</port>
			</input>
			<output>
				<port id="1">
					<dim>1</dim>
					<dim>384</dim>
					<dim>48</dim>
					<dim>80</dim>
				</port>
			</output>
		</layer>
		<layer id="77" name="conv4_7/Conv_1/Conv2D" precision="FP16" type="Convolution">
			<data auto_pad="same_upper" dilations="1,1" group="1" kernel="1,1" output="96" pads_begin="0,0" pads_end="0,0" strides="1,1"/>
			<input>
				<port id="0">
					<dim>1</dim>
					<dim>384</dim>
					<dim>48</dim>
					<dim>80</dim>
				</port>
			</input>
			<output>
				<port id="3">
					<dim>1</dim>
					<dim>96</dim>
					<dim>48</dim>
					<dim>80</dim>
				</port>
			</output>
			<blobs>
				<weights offset="2033648" size="73728"/>
				<biases offset="2107376" size="192"/>
			</blobs>
		</layer>
		<layer id="78" name="conv5_1/Conv/Conv2D" precision="FP16" type="Convolution">
			<data auto_pad="same_upper" dilations="1,1" group="1" kernel="1,1" output="576" pads_begin="0,0" pads_end="0,0" strides="1,1"/>
			<input>
				<port id="0">
					<dim>1</dim>
					<dim>96</dim>
					<dim>48</dim>
					<dim>80</dim>
				</port>
			</input>
			<output>
				<port id="3">
					<dim>1</dim>
					<dim>576</dim>
					<dim>48</dim>
					<dim>80</dim>
				</port>
			</output>
			<blobs>
				<weights offset="2107568" size="110592"/>
				<biases offset="2218160" size="1152"/>
			</blobs>
		</layer>
		<layer id="79" name="conv5_1/Relu6" precision="FP16" type="Clamp">
			<data max="6" min="0"/>
			<input>
				<port id="0">
					<dim>1</dim>
					<dim>576</dim>
					<dim>48</dim>
					<dim>80</dim>
				</port>
			</input>
			<output>
				<port id="1">
					<dim>1</dim>
					<dim>576</dim>
					<dim>48</dim>
					<dim>80</dim>
				</port>
			</output>
		</layer>
		<layer id="80" name="conv5_1/SeparableConv2d/separable_conv2d/depthwise" precision="FP16" type="Convolution">
			<data auto_pad="same_upper" dilations="1,1" group="576" kernel="3,3" output="576" pads_begin="1,1" pads_end="1,1" strides="1,1"/>
			<input>
				<port id="0">
					<dim>1</dim>
					<dim>576</dim>
					<dim>48</dim>
					<dim>80</dim>
				</port>
			</input>
			<output>
				<port id="2">
					<dim>1</dim>
					<dim>576</dim>
					<dim>48</dim>
					<dim>80</dim>
				</port>
			</output>
			<blobs>
				<weights offset="2219312" size="10368"/>
			</blobs>
		</layer>
		<layer id="81" name="conv5_1/SeparableConv2d/separable_conv2d" precision="FP16" type="Convolution">
			<data auto_pad="valid" dilations="1,1" group="1" kernel="1,1" output="576" pads_begin="0,0" pads_end="0,0" strides="1,1"/>
			<input>
				<port id="0">
					<dim>1</dim>
					<dim>576</dim>
					<dim>48</dim>
					<dim>80</dim>
				</port>
			</input>
			<output>
				<port id="3">
					<dim>1</dim>
					<dim>576</dim>
					<dim>48</dim>
					<dim>80</dim>
				</port>
			</output>
			<blobs>
				<weights offset="2229680" size="663552"/>
				<biases offset="2893232" size="1152"/>
			</blobs>
		</layer>
		<layer id="82" name="conv5_1/Relu6_1" precision="FP16" type="Clamp">
			<data max="6" min="0"/>
			<input>
				<port id="0">
					<dim>1</dim>
					<dim>576</dim>
					<dim>48</dim>
					<dim>80</dim>
				</port>
			</input>
			<output>
				<port id="1">
					<dim>1</dim>
					<dim>576</dim>
					<dim>48</dim>
					<dim>80</dim>
				</port>
			</output>
		</layer>
		<layer id="83" name="conv5_1/Conv_1/Conv2D" precision="FP16" type="Convolution">
			<data auto_pad="same_upper" dilations="1,1" group="1" kernel="1,1" output="96" pads_begin="0,0" pads_end="0,0" strides="1,1"/>
			<input>
				<port id="0">
					<dim>1</dim>
					<dim>576</dim>
					<dim>48</dim>
					<dim>80</dim>
				</port>
			</input>
			<output>
				<port id="3">
					<dim>1</dim>
					<dim>96</dim>
					<dim>48</dim>
					<dim>80</dim>
				</port>
			</output>
			<blobs>
				<weights offset="2894384" size="110592"/>
				<biases offset="3004976" size="192"/>
			</blobs>
		</layer>
		<layer id="84" name="conv5_1/Add" precision="FP16" type="Eltwise">
			<data operation="sum"/>
			<input>
				<port id="0">
					<dim>1</dim>
					<dim>96</dim>
					<dim>48</dim>
					<dim>80</dim>
				</port>
				<port id="1">
					<dim>1</dim>
					<dim>96</dim>
					<dim>48</dim>
					<dim>80</dim>
				</port>
			</input>
			<output>
				<port id="2">
					<dim>1</dim>
					<dim>96</dim>
					<dim>48</dim>
					<dim>80</dim>
				</port>
			</output>
		</layer>
		<layer id="85" name="conv5_2/Conv/Conv2D" precision="FP16" type="Convolution">
			<data auto_pad="same_upper" dilations="1,1" group="1" kernel="1,1" output="576" pads_begin="0,0" pads_end="0,0" strides="1,1"/>
			<input>
				<port id="0">
					<dim>1</dim>
					<dim>96</dim>
					<dim>48</dim>
					<dim>80</dim>
				</port>
			</input>
			<output>
				<port id="3">
					<dim>1</dim>
					<dim>576</dim>
					<dim>48</dim>
					<dim>80</dim>
				</port>
			</output>
			<blobs>
				<weights offset="3005168" size="110592"/>
				<biases offset="3115760" size="1152"/>
			</blobs>
		</layer>
		<layer id="86" name="conv5_2/Relu6" precision="FP16" type="Clamp">
			<data max="6" min="0"/>
			<input>
				<port id="0">
					<dim>1</dim>
					<dim>576</dim>
					<dim>48</dim>
					<dim>80</dim>
				</port>
			</input>
			<output>
				<port id="1">
					<dim>1</dim>
					<dim>576</dim>
					<dim>48</dim>
					<dim>80</dim>
				</port>
			</output>
		</layer>
		<layer id="87" name="conv5_2/SeparableConv2d/separable_conv2d/depthwise" precision="FP16" type="Convolution">
			<data auto_pad="same_upper" dilations="1,1" group="576" kernel="3,3" output="576" pads_begin="1,1" pads_end="1,1" strides="1,1"/>
			<input>
				<port id="0">
					<dim>1</dim>
					<dim>576</dim>
					<dim>48</dim>
					<dim>80</dim>
				</port>
			</input>
			<output>
				<port id="2">
					<dim>1</dim>
					<dim>576</dim>
					<dim>48</dim>
					<dim>80</dim>
				</port>
			</output>
			<blobs>
				<weights offset="3116912" size="10368"/>
			</blobs>
		</layer>
		<layer id="88" name="conv5_2/SeparableConv2d/separable_conv2d" precision="FP16" type="Convolution">
			<data auto_pad="valid" dilations="1,1" group="1" kernel="1,1" output="576" pads_begin="0,0" pads_end="0,0" strides="1,1"/>
			<input>
				<port id="0">
					<dim>1</dim>
					<dim>576</dim>
					<dim>48</dim>
					<dim>80</dim>
				</port>
			</input>
			<output>
				<port id="3">
					<dim>1</dim>
					<dim>576</dim>
					<dim>48</dim>
					<dim>80</dim>
				</port>
			</output>
			<blobs>
				<weights offset="3127280" size="663552"/>
				<biases offset="3790832" size="1152"/>
			</blobs>
		</layer>
		<layer id="89" name="conv5_2/Relu6_1" precision="FP16" type="Clamp">
			<data max="6" min="0"/>
			<input>
				<port id="0">
					<dim>1</dim>
					<dim>576</dim>
					<dim>48</dim>
					<dim>80</dim>
				</port>
			</input>
			<output>
				<port id="1">
					<dim>1</dim>
					<dim>576</dim>
					<dim>48</dim>
					<dim>80</dim>
				</port>
			</output>
		</layer>
		<layer id="90" name="conv5_2/Conv_1/Conv2D" precision="FP16" type="Convolution">
			<data auto_pad="same_upper" dilations="1,1" group="1" kernel="1,1" output="96" pads_begin="0,0" pads_end="0,0" strides="1,1"/>
			<input>
				<port id="0">
					<dim>1</dim>
					<dim>576</dim>
					<dim>48</dim>
					<dim>80</dim>
				</port>
			</input>
			<output>
				<port id="3">
					<dim>1</dim>
					<dim>96</dim>
					<dim>48</dim>
					<dim>80</dim>
				</port>
			</output>
			<blobs>
				<weights offset="3791984" size="110592"/>
				<biases offset="3902576" size="192"/>
			</blobs>
		</layer>
		<layer id="91" name="conv5_2/Add" precision="FP16" type="Eltwise">
			<data operation="sum"/>
			<input>
				<port id="0">
					<dim>1</dim>
					<dim>96</dim>
					<dim>48</dim>
					<dim>80</dim>
				</port>
				<port id="1">
					<dim>1</dim>
					<dim>96</dim>
					<dim>48</dim>
					<dim>80</dim>
				</port>
			</input>
			<output>
				<port id="2">
					<dim>1</dim>
					<dim>96</dim>
					<dim>48</dim>
					<dim>80</dim>
				</port>
			</output>
		</layer>
		<layer id="92" name="pixel_cls/score_from_conv5_3/Conv2D" precision="FP16" type="Convolution">
			<data auto_pad="same_upper" dilations="1,1" group="1" kernel="1,1" output="2" pads_begin="0,0" pads_end="0,0" strides="1,1"/>
			<input>
				<port id="0">
					<dim>1</dim>
					<dim>96</dim>
					<dim>48</dim>
					<dim>80</dim>
				</port>
			</input>
			<output>
				<port id="3">
					<dim>1</dim>
					<dim>2</dim>
					<dim>48</dim>
					<dim>80</dim>
				</port>
			</output>
			<blobs>
				<weights offset="3902768" size="384"/>
				<biases offset="94540" size="4"/>
			</blobs>
		</layer>
		<layer id="93" name="conv5_3/Conv/Conv2D" precision="FP16" type="Convolution">
			<data auto_pad="same_upper" dilations="1,1" group="1" kernel="1,1" output="576" pads_begin="0,0" pads_end="0,0" strides="1,1"/>
			<input>
				<port id="0">
					<dim>1</dim>
					<dim>96</dim>
					<dim>48</dim>
					<dim>80</dim>
				</port>
			</input>
			<output>
				<port id="3">
					<dim>1</dim>
					<dim>576</dim>
					<dim>48</dim>
					<dim>80</dim>
				</port>
			</output>
			<blobs>
				<weights offset="3903152" size="110592"/>
				<biases offset="4013744" size="1152"/>
			</blobs>
		</layer>
		<layer id="94" name="conv5_3/Relu6" precision="FP16" type="Clamp">
			<data max="6" min="0"/>
			<input>
				<port id="0">
					<dim>1</dim>
					<dim>576</dim>
					<dim>48</dim>
					<dim>80</dim>
				</port>
			</input>
			<output>
				<port id="1">
					<dim>1</dim>
					<dim>576</dim>
					<dim>48</dim>
					<dim>80</dim>
				</port>
			</output>
		</layer>
		<layer id="95" name="conv5_3/SeparableConv2d/separable_conv2d/depthwise" precision="FP16" type="Convolution">
			<data auto_pad="same_upper" dilations="1,1" group="576" kernel="3,3" output="576" pads_begin="0,0" pads_end="1,1" strides="2,2"/>
			<input>
				<port id="0">
					<dim>1</dim>
					<dim>576</dim>
					<dim>48</dim>
					<dim>80</dim>
				</port>
			</input>
			<output>
				<port id="2">
					<dim>1</dim>
					<dim>576</dim>
					<dim>24</dim>
					<dim>40</dim>
				</port>
			</output>
			<blobs>
				<weights offset="4014896" size="10368"/>
			</blobs>
		</layer>
		<layer id="96" name="conv5_3/SeparableConv2d/separable_conv2d" precision="FP16" type="Convolution">
			<data auto_pad="valid" dilations="1,1" group="1" kernel="1,1" output="576" pads_begin="0,0" pads_end="0,0" strides="1,1"/>
			<input>
				<port id="0">
					<dim>1</dim>
					<dim>576</dim>
					<dim>24</dim>
					<dim>40</dim>
				</port>
			</input>
			<output>
				<port id="3">
					<dim>1</dim>
					<dim>576</dim>
					<dim>24</dim>
					<dim>40</dim>
				</port>
			</output>
			<blobs>
				<weights offset="4025264" size="663552"/>
				<biases offset="4688816" size="1152"/>
			</blobs>
		</layer>
		<layer id="97" name="conv5_3/Relu6_1" precision="FP16" type="Clamp">
			<data max="6" min="0"/>
			<input>
				<port id="0">
					<dim>1</dim>
					<dim>576</dim>
					<dim>24</dim>
					<dim>40</dim>
				</port>
			</input>
			<output>
				<port id="1">
					<dim>1</dim>
					<dim>576</dim>
					<dim>24</dim>
					<dim>40</dim>
				</port>
			</output>
		</layer>
		<layer id="98" name="conv5_3/Conv_1/Conv2D" precision="FP16" type="Convolution">
			<data auto_pad="same_upper" dilations="1,1" group="1" kernel="1,1" output="160" pads_begin="0,0" pads_end="0,0" strides="1,1"/>
			<input>
				<port id="0">
					<dim>1</dim>
					<dim>576</dim>
					<dim>24</dim>
					<dim>40</dim>
				</port>
			</input>
			<output>
				<port id="3">
					<dim>1</dim>
					<dim>160</dim>
					<dim>24</dim>
					<dim>40</dim>
				</port>
			</output>
			<blobs>
				<weights offset="4689968" size="184320"/>
				<biases offset="4874288" size="320"/>
			</blobs>
		</layer>
		<layer id="99" name="conv6_1/Conv/Conv2D" precision="FP16" type="Convolution">
			<data auto_pad="same_upper" dilations="1,1" group="1" kernel="1,1" output="960" pads_begin="0,0" pads_end="0,0" strides="1,1"/>
			<input>
				<port id="0">
					<dim>1</dim>
					<dim>160</dim>
					<dim>24</dim>
					<dim>40</dim>
				</port>
			</input>
			<output>
				<port id="3">
					<dim>1</dim>
					<dim>960</dim>
					<dim>24</dim>
					<dim>40</dim>
				</port>
			</output>
			<blobs>
				<weights offset="4874608" size="307200"/>
				<biases offset="5181808" size="1920"/>
			</blobs>
		</layer>
		<layer id="100" name="conv6_1/Relu6" precision="FP16" type="Clamp">
			<data max="6" min="0"/>
			<input>
				<port id="0">
					<dim>1</dim>
					<dim>960</dim>
					<dim>24</dim>
					<dim>40</dim>
				</port>
			</input>
			<output>
				<port id="1">
					<dim>1</dim>
					<dim>960</dim>
					<dim>24</dim>
					<dim>40</dim>
				</port>
			</output>
		</layer>
		<layer id="101" name="conv6_1/SeparableConv2d/separable_conv2d/depthwise" precision="FP16" type="Convolution">
			<data auto_pad="same_upper" dilations="1,1" group="960" kernel="3,3" output="960" pads_begin="1,1" pads_end="1,1" strides="1,1"/>
			<input>
				<port id="0">
					<dim>1</dim>
					<dim>960</dim>
					<dim>24</dim>
					<dim>40</dim>
				</port>
			</input>
			<output>
				<port id="2">
					<dim>1</dim>
					<dim>960</dim>
					<dim>24</dim>
					<dim>40</dim>
				</port>
			</output>
			<blobs>
				<weights offset="5183728" size="17280"/>
			</blobs>
		</layer>
		<layer id="102" name="conv6_1/SeparableConv2d/separable_conv2d" precision="FP16" type="Convolution">
			<data auto_pad="valid" dilations="1,1" group="1" kernel="1,1" output="960" pads_begin="0,0" pads_end="0,0" strides="1,1"/>
			<input>
				<port id="0">
					<dim>1</dim>
					<dim>960</dim>
					<dim>24</dim>
					<dim>40</dim>
				</port>
			</input>
			<output>
				<port id="3">
					<dim>1</dim>
					<dim>960</dim>
					<dim>24</dim>
					<dim>40</dim>
				</port>
			</output>
			<blobs>
				<weights offset="5201008" size="1843200"/>
				<biases offset="7044208" size="1920"/>
			</blobs>
		</layer>
		<layer id="103" name="conv6_1/Relu6_1" precision="FP16" type="Clamp">
			<data max="6" min="0"/>
			<input>
				<port id="0">
					<dim>1</dim>
					<dim>960</dim>
					<dim>24</dim>
					<dim>40</dim>
				</port>
			</input>
			<output>
				<port id="1">
					<dim>1</dim>
					<dim>960</dim>
					<dim>24</dim>
					<dim>40</dim>
				</port>
			</output>
		</layer>
		<layer id="104" name="conv6_1/Conv_1/Conv2D" precision="FP16" type="Convolution">
			<data auto_pad="same_upper" dilations="1,1" group="1" kernel="1,1" output="160" pads_begin="0,0" pads_end="0,0" strides="1,1"/>
			<input>
				<port id="0">
					<dim>1</dim>
					<dim>960</dim>
					<dim>24</dim>
					<dim>40</dim>
				</port>
			</input>
			<output>
				<port id="3">
					<dim>1</dim>
					<dim>160</dim>
					<dim>24</dim>
					<dim>40</dim>
				</port>
			</output>
			<blobs>
				<weights offset="7046128" size="307200"/>
				<biases offset="7353328" size="320"/>
			</blobs>
		</layer>
		<layer id="105" name="conv6_1/Add" precision="FP16" type="Eltwise">
			<data operation="sum"/>
			<input>
				<port id="0">
					<dim>1</dim>
					<dim>160</dim>
					<dim>24</dim>
					<dim>40</dim>
				</port>
				<port id="1">
					<dim>1</dim>
					<dim>160</dim>
					<dim>24</dim>
					<dim>40</dim>
				</port>
			</input>
			<output>
				<port id="2">
					<dim>1</dim>
					<dim>160</dim>
					<dim>24</dim>
					<dim>40</dim>
				</port>
			</output>
		</layer>
		<layer id="106" name="conv6_2/Conv/Conv2D" precision="FP16" type="Convolution">
			<data auto_pad="same_upper" dilations="1,1" group="1" kernel="1,1" output="960" pads_begin="0,0" pads_end="0,0" strides="1,1"/>
			<input>
				<port id="0">
					<dim>1</dim>
					<dim>160</dim>
					<dim>24</dim>
					<dim>40</dim>
				</port>
			</input>
			<output>
				<port id="3">
					<dim>1</dim>
					<dim>960</dim>
					<dim>24</dim>
					<dim>40</dim>
				</port>
			</output>
			<blobs>
				<weights offset="7353648" size="307200"/>
				<biases offset="7660848" size="1920"/>
			</blobs>
		</layer>
		<layer id="107" name="conv6_2/Relu6" precision="FP16" type="Clamp">
			<data max="6" min="0"/>
			<input>
				<port id="0">
					<dim>1</dim>
					<dim>960</dim>
					<dim>24</dim>
					<dim>40</dim>
				</port>
			</input>
			<output>
				<port id="1">
					<dim>1</dim>
					<dim>960</dim>
					<dim>24</dim>
					<dim>40</dim>
				</port>
			</output>
		</layer>
		<layer id="108" name="conv6_2/SeparableConv2d/separable_conv2d/depthwise" precision="FP16" type="Convolution">
			<data auto_pad="same_upper" dilations="1,1" group="960" kernel="3,3" output="960" pads_begin="1,1" pads_end="1,1" strides="1,1"/>
			<input>
				<port id="0">
					<dim>1</dim>
					<dim>960</dim>
					<dim>24</dim>
					<dim>40</dim>
				</port>
			</input>
			<output>
				<port id="2">
					<dim>1</dim>
					<dim>960</dim>
					<dim>24</dim>
					<dim>40</dim>
				</port>
			</output>
			<blobs>
				<weights offset="7662768" size="17280"/>
			</blobs>
		</layer>
		<layer id="109" name="conv6_2/SeparableConv2d/separable_conv2d" precision="FP16" type="Convolution">
			<data auto_pad="valid" dilations="1,1" group="1" kernel="1,1" output="960" pads_begin="0,0" pads_end="0,0" strides="1,1"/>
			<input>
				<port id="0">
					<dim>1</dim>
					<dim>960</dim>
					<dim>24</dim>
					<dim>40</dim>
				</port>
			</input>
			<output>
				<port id="3">
					<dim>1</dim>
					<dim>960</dim>
					<dim>24</dim>
					<dim>40</dim>
				</port>
			</output>
			<blobs>
				<weights offset="7680048" size="1843200"/>
				<biases offset="9523248" size="1920"/>
			</blobs>
		</layer>
		<layer id="110" name="conv6_2/Relu6_1" precision="FP16" type="Clamp">
			<data max="6" min="0"/>
			<input>
				<port id="0">
					<dim>1</dim>
					<dim>960</dim>
					<dim>24</dim>
					<dim>40</dim>
				</port>
			</input>
			<output>
				<port id="1">
					<dim>1</dim>
					<dim>960</dim>
					<dim>24</dim>
					<dim>40</dim>
				</port>
			</output>
		</layer>
		<layer id="111" name="conv6_2/Conv_1/Conv2D" precision="FP16" type="Convolution">
			<data auto_pad="same_upper" dilations="1,1" group="1" kernel="1,1" output="160" pads_begin="0,0" pads_end="0,0" strides="1,1"/>
			<input>
				<port id="0">
					<dim>1</dim>
					<dim>960</dim>
					<dim>24</dim>
					<dim>40</dim>
				</port>
			</input>
			<output>
				<port id="3">
					<dim>1</dim>
					<dim>160</dim>
					<dim>24</dim>
					<dim>40</dim>
				</port>
			</output>
			<blobs>
				<weights offset="9525168" size="307200"/>
				<biases offset="9832368" size="320"/>
			</blobs>
		</layer>
		<layer id="112" name="conv6_2/Add" precision="FP16" type="Eltwise">
			<data operation="sum"/>
			<input>
				<port id="0">
					<dim>1</dim>
					<dim>160</dim>
					<dim>24</dim>
					<dim>40</dim>
				</port>
				<port id="1">
					<dim>1</dim>
					<dim>160</dim>
					<dim>24</dim>
					<dim>40</dim>
				</port>
			</input>
			<output>
				<port id="2">
					<dim>1</dim>
					<dim>160</dim>
					<dim>24</dim>
					<dim>40</dim>
				</port>
			</output>
		</layer>
		<layer id="113" name="conv6_3/Conv/Conv2D" precision="FP16" type="Convolution">
			<data auto_pad="same_upper" dilations="1,1" group="1" kernel="1,1" output="960" pads_begin="0,0" pads_end="0,0" strides="1,1"/>
			<input>
				<port id="0">
					<dim>1</dim>
					<dim>160</dim>
					<dim>24</dim>
					<dim>40</dim>
				</port>
			</input>
			<output>
				<port id="3">
					<dim>1</dim>
					<dim>960</dim>
					<dim>24</dim>
					<dim>40</dim>
				</port>
			</output>
			<blobs>
				<weights offset="9832688" size="307200"/>
				<biases offset="10139888" size="1920"/>
			</blobs>
		</layer>
		<layer id="114" name="conv6_3/Relu6" precision="FP16" type="Clamp">
			<data max="6" min="0"/>
			<input>
				<port id="0">
					<dim>1</dim>
					<dim>960</dim>
					<dim>24</dim>
					<dim>40</dim>
				</port>
			</input>
			<output>
				<port id="1">
					<dim>1</dim>
					<dim>960</dim>
					<dim>24</dim>
					<dim>40</dim>
				</port>
			</output>
		</layer>
		<layer id="115" name="conv6_3/SeparableConv2d/separable_conv2d/depthwise" precision="FP16" type="Convolution">
			<data auto_pad="same_upper" dilations="1,1" group="960" kernel="3,3" output="960" pads_begin="1,1" pads_end="1,1" strides="1,1"/>
			<input>
				<port id="0">
					<dim>1</dim>
					<dim>960</dim>
					<dim>24</dim>
					<dim>40</dim>
				</port>
			</input>
			<output>
				<port id="2">
					<dim>1</dim>
					<dim>960</dim>
					<dim>24</dim>
					<dim>40</dim>
				</port>
			</output>
			<blobs>
				<weights offset="10141808" size="17280"/>
			</blobs>
		</layer>
		<layer id="116" name="conv6_3/SeparableConv2d/separable_conv2d" precision="FP16" type="Convolution">
			<data auto_pad="valid" dilations="1,1" group="1" kernel="1,1" output="960" pads_begin="0,0" pads_end="0,0" strides="1,1"/>
			<input>
				<port id="0">
					<dim>1</dim>
					<dim>960</dim>
					<dim>24</dim>
					<dim>40</dim>
				</port>
			</input>
			<output>
				<port id="3">
					<dim>1</dim>
					<dim>960</dim>
					<dim>24</dim>
					<dim>40</dim>
				</port>
			</output>
			<blobs>
				<weights offset="10159088" size="1843200"/>
				<biases offset="12002288" size="1920"/>
			</blobs>
		</layer>
		<layer id="117" name="conv6_3/Relu6_1" precision="FP16" type="Clamp">
			<data max="6" min="0"/>
			<input>
				<port id="0">
					<dim>1</dim>
					<dim>960</dim>
					<dim>24</dim>
					<dim>40</dim>
				</port>
			</input>
			<output>
				<port id="1">
					<dim>1</dim>
					<dim>960</dim>
					<dim>24</dim>
					<dim>40</dim>
				</port>
			</output>
		</layer>
		<layer id="118" name="conv6_3/Conv_1/Conv2D" precision="FP16" type="Convolution">
			<data auto_pad="same_upper" dilations="1,1" group="1" kernel="1,1" output="320" pads_begin="0,0" pads_end="0,0" strides="1,1"/>
			<input>
				<port id="0">
					<dim>1</dim>
					<dim>960</dim>
					<dim>24</dim>
					<dim>40</dim>
				</port>
			</input>
			<output>
				<port id="3">
					<dim>1</dim>
					<dim>320</dim>
					<dim>24</dim>
					<dim>40</dim>
				</port>
			</output>
			<blobs>
				<weights offset="12004208" size="614400"/>
				<biases offset="12618608" size="640"/>
			</blobs>
		</layer>
		<layer id="119" name="conv6_4/Conv/Conv2D" precision="FP16" type="Convolution">
			<data auto_pad="same_upper" dilations="1,1" group="1" kernel="1,1" output="1280" pads_begin="0,0" pads_end="0,0" strides="1,1"/>
			<input>
				<port id="0">
					<dim>1</dim>
					<dim>320</dim>
					<dim>24</dim>
					<dim>40</dim>
				</port>
			</input>
			<output>
				<port id="3">
					<dim>1</dim>
					<dim>1280</dim>
					<dim>24</dim>
					<dim>40</dim>
				</port>
			</output>
			<blobs>
				<weights offset="12619248" size="819200"/>
				<biases offset="13438448" size="2560"/>
			</blobs>
		</layer>
		<layer id="120" name="conv6_4/Relu6" precision="FP16" type="Clamp">
			<data max="6" min="0"/>
			<input>
				<port id="0">
					<dim>1</dim>
					<dim>1280</dim>
					<dim>24</dim>
					<dim>40</dim>
				</port>
			</input>
			<output>
				<port id="1">
					<dim>1</dim>
					<dim>1280</dim>
					<dim>24</dim>
					<dim>40</dim>
				</port>
			</output>
		</layer>
		<layer id="121" name="pixel_cls/score_from_fc7/Conv2D" precision="FP16" type="Convolution">
			<data auto_pad="same_upper" dilations="1,1" group="1" kernel="1,1" output="2" pads_begin="0,0" pads_end="0,0" strides="1,1"/>
			<input>
				<port id="0">
					<dim>1</dim>
					<dim>1280</dim>
					<dim>24</dim>
					<dim>40</dim>
				</port>
			</input>
			<output>
				<port id="3">
					<dim>1</dim>
					<dim>2</dim>
					<dim>24</dim>
					<dim>40</dim>
				</port>
			</output>
			<blobs>
				<weights offset="13441008" size="5120"/>
				<biases offset="94540" size="4"/>
			</blobs>
		</layer>
		<layer id="122" name="pixel_cls/resize_images/ResizeBilinear" precision="FP16" type="Interp">
			<data align_corners="0" factor="2.0" pad_beg="0" pad_end="0"/>
			<input>
				<port id="0">
					<dim>1</dim>
					<dim>2</dim>
					<dim>24</dim>
					<dim>40</dim>
				</port>
			</input>
			<output>
				<port id="1">
					<dim>1</dim>
					<dim>2</dim>
					<dim>48</dim>
					<dim>80</dim>
				</port>
			</output>
		</layer>
		<layer id="123" name="pixel_cls/add" precision="FP16" type="Eltwise">
			<data operation="sum"/>
			<input>
				<port id="0">
					<dim>1</dim>
					<dim>2</dim>
					<dim>48</dim>
					<dim>80</dim>
				</port>
				<port id="1">
					<dim>1</dim>
					<dim>2</dim>
					<dim>48</dim>
					<dim>80</dim>
				</port>
			</input>
			<output>
				<port id="2">
					<dim>1</dim>
					<dim>2</dim>
					<dim>48</dim>
					<dim>80</dim>
				</port>
			</output>
		</layer>
		<layer id="124" name="pixel_cls/resize_images_1/ResizeBilinear" precision="FP16" type="Interp">
			<data align_corners="0" factor="2.0" pad_beg="0" pad_end="0"/>
			<input>
				<port id="0">
					<dim>1</dim>
					<dim>2</dim>
					<dim>48</dim>
					<dim>80</dim>
				</port>
			</input>
			<output>
				<port id="1">
					<dim>1</dim>
					<dim>2</dim>
					<dim>96</dim>
					<dim>160</dim>
				</port>
			</output>
		</layer>
		<layer id="125" name="pixel_cls/add_1" precision="FP16" type="Eltwise">
			<data operation="sum"/>
			<input>
				<port id="0">
					<dim>1</dim>
					<dim>2</dim>
					<dim>96</dim>
					<dim>160</dim>
				</port>
				<port id="1">
					<dim>1</dim>
					<dim>2</dim>
					<dim>96</dim>
					<dim>160</dim>
				</port>
			</input>
			<output>
				<port id="2">
					<dim>1</dim>
					<dim>2</dim>
					<dim>96</dim>
					<dim>160</dim>
				</port>
			</output>
		</layer>
		<layer id="126" name="pixel_cls/resize_images_2/ResizeBilinear" precision="FP16" type="Interp">
			<data align_corners="0" factor="2.0" pad_beg="0" pad_end="0"/>
			<input>
				<port id="0">
					<dim>1</dim>
					<dim>2</dim>
					<dim>96</dim>
					<dim>160</dim>
				</port>
			</input>
			<output>
				<port id="1">
					<dim>1</dim>
					<dim>2</dim>
					<dim>192</dim>
					<dim>320</dim>
				</port>
			</output>
		</layer>
		<layer id="127" name="pixel_cls/add_2" precision="FP16" type="Eltwise">
			<data operation="sum"/>
			<input>
				<port id="0">
					<dim>1</dim>
					<dim>2</dim>
					<dim>192</dim>
					<dim>320</dim>
				</port>
				<port id="1">
					<dim>1</dim>
					<dim>2</dim>
					<dim>192</dim>
					<dim>320</dim>
				</port>
			</input>
			<output>
				<port id="2">
					<dim>1</dim>
					<dim>2</dim>
					<dim>192</dim>
					<dim>320</dim>
				</port>
			</output>
		</layer>
		<layer id="128" name="pixel_link/score_from_conv3_3/Conv2D" precision="FP16" type="Convolution">
			<data auto_pad="same_upper" dilations="1,1" group="1" kernel="1,1" output="16" pads_begin="0,0" pads_end="0,0" strides="1,1"/>
			<input>
				<port id="0">
					<dim>1</dim>
					<dim>24</dim>
					<dim>192</dim>
					<dim>320</dim>
				</port>
			</input>
			<output>
				<port id="3">
					<dim>1</dim>
					<dim>16</dim>
					<dim>192</dim>
					<dim>320</dim>
				</port>
			</output>
			<blobs>
				<weights offset="13446128" size="768"/>
				<biases offset="13446896" size="32"/>
			</blobs>
		</layer>
		<layer id="129" name="pixel_link/score_from_conv4_3/Conv2D" precision="FP16" type="Convolution">
			<data auto_pad="same_upper" dilations="1,1" group="1" kernel="1,1" output="16" pads_begin="0,0" pads_end="0,0" strides="1,1"/>
			<input>
				<port id="0">
					<dim>1</dim>
					<dim>64</dim>
					<dim>96</dim>
					<dim>160</dim>
				</port>
			</input>
			<output>
				<port id="3">
					<dim>1</dim>
					<dim>16</dim>
					<dim>96</dim>
					<dim>160</dim>
				</port>
			</output>
			<blobs>
				<weights offset="13446928" size="2048"/>
				<biases offset="13446896" size="32"/>
			</blobs>
		</layer>
		<layer id="130" name="pixel_link/score_from_conv5_3/Conv2D" precision="FP16" type="Convolution">
			<data auto_pad="same_upper" dilations="1,1" group="1" kernel="1,1" output="16" pads_begin="0,0" pads_end="0,0" strides="1,1"/>
			<input>
				<port id="0">
					<dim>1</dim>
					<dim>96</dim>
					<dim>48</dim>
					<dim>80</dim>
				</port>
			</input>
			<output>
				<port id="3">
					<dim>1</dim>
					<dim>16</dim>
					<dim>48</dim>
					<dim>80</dim>
				</port>
			</output>
			<blobs>
				<weights offset="13448976" size="3072"/>
				<biases offset="13446896" size="32"/>
			</blobs>
		</layer>
		<layer id="131" name="pixel_link/score_from_fc7/Conv2D" precision="FP16" type="Convolution">
			<data auto_pad="same_upper" dilations="1,1" group="1" kernel="1,1" output="16" pads_begin="0,0" pads_end="0,0" strides="1,1"/>
			<input>
				<port id="0">
					<dim>1</dim>
					<dim>1280</dim>
					<dim>24</dim>
					<dim>40</dim>
				</port>
			</input>
			<output>
				<port id="3">
					<dim>1</dim>
					<dim>16</dim>
					<dim>24</dim>
					<dim>40</dim>
				</port>
			</output>
			<blobs>
				<weights offset="13452048" size="40960"/>
				<biases offset="13446896" size="32"/>
			</blobs>
		</layer>
		<layer id="132" name="pixel_link/resize_images/ResizeBilinear" precision="FP16" type="Interp">
			<data align_corners="0" factor="2.0" pad_beg="0" pad_end="0"/>
			<input>
				<port id="0">
					<dim>1</dim>
					<dim>16</dim>
					<dim>24</dim>
					<dim>40</dim>
				</port>
			</input>
			<output>
				<port id="1">
					<dim>1</dim>
					<dim>16</dim>
					<dim>48</dim>
					<dim>80</dim>
				</port>
			</output>
		</layer>
		<layer id="133" name="pixel_link/add" precision="FP16" type="Eltwise">
			<data operation="sum"/>
			<input>
				<port id="0">
					<dim>1</dim>
					<dim>16</dim>
					<dim>48</dim>
					<dim>80</dim>
				</port>
				<port id="1">
					<dim>1</dim>
					<dim>16</dim>
					<dim>48</dim>
					<dim>80</dim>
				</port>
			</input>
			<output>
				<port id="2">
					<dim>1</dim>
					<dim>16</dim>
					<dim>48</dim>
					<dim>80</dim>
				</port>
			</output>
		</layer>
		<layer id="134" name="pixel_link/resize_images_1/ResizeBilinear" precision="FP16" type="Interp">
			<data align_corners="0" factor="2.0" pad_beg="0" pad_end="0"/>
			<input>
				<port id="0">
					<dim>1</dim>
					<dim>16</dim>
					<dim>48</dim>
					<dim>80</dim>
				</port>
			</input>
			<output>
				<port id="1">
					<dim>1</dim>
					<dim>16</dim>
					<dim>96</dim>
					<dim>160</dim>
				</port>
			</output>
		</layer>
		<layer id="135" name="pixel_link/add_1" precision="FP16" type="Eltwise">
			<data operation="sum"/>
			<input>
				<port id="0">
					<dim>1</dim>
					<dim>16</dim>
					<dim>96</dim>
					<dim>160</dim>
				</port>
				<port id="1">
					<dim>1</dim>
					<dim>16</dim>
					<dim>96</dim>
					<dim>160</dim>
				</port>
			</input>
			<output>
				<port id="2">
					<dim>1</dim>
					<dim>16</dim>
					<dim>96</dim>
					<dim>160</dim>
				</port>
			</output>
		</layer>
		<layer id="136" name="pixel_link/resize_images_2/ResizeBilinear" precision="FP16" type="Interp">
			<data align_corners="0" factor="2.0" pad_beg="0" pad_end="0"/>
			<input>
				<port id="0">
					<dim>1</dim>
					<dim>16</dim>
					<dim>96</dim>
					<dim>160</dim>
				</port>
			</input>
			<output>
				<port id="1">
					<dim>1</dim>
					<dim>16</dim>
					<dim>192</dim>
					<dim>320</dim>
				</port>
			</output>
		</layer>
		<layer id="137" name="pixel_link/add_2" precision="FP16" type="Eltwise">
			<data operation="sum"/>
			<input>
				<port id="0">
					<dim>1</dim>
					<dim>16</dim>
					<dim>192</dim>
					<dim>320</dim>
				</port>
				<port id="1">
					<dim>1</dim>
					<dim>16</dim>
					<dim>192</dim>
					<dim>320</dim>
				</port>
			</input>
			<output>
				<port id="2">
					<dim>1</dim>
					<dim>16</dim>
					<dim>192</dim>
					<dim>320</dim>
				</port>
			</output>
		</layer>
	</layers>
	<edges>
		<edge from-layer="0" from-port="0" to-layer="1" to-port="0"/>
		<edge from-layer="1" from-port="3" to-layer="2" to-port="0"/>
		<edge from-layer="2" from-port="3" to-layer="3" to-port="0"/>
		<edge from-layer="3" from-port="1" to-layer="4" to-port="0"/>
		<edge from-layer="4" from-port="3" to-layer="5" to-port="0"/>
		<edge from-layer="5" from-port="1" to-layer="6" to-port="0"/>
		<edge from-layer="6" from-port="2" to-layer="7" to-port="0"/>
		<edge from-layer="7" from-port="3" to-layer="8" to-port="0"/>
		<edge from-layer="8" from-port="1" to-layer="9" to-port="0"/>
		<edge from-layer="9" from-port="3" to-layer="10" to-port="0"/>
		<edge from-layer="10" from-port="3" to-layer="11" to-port="0"/>
		<edge from-layer="11" from-port="1" to-layer="12" to-port="0"/>
		<edge from-layer="12" from-port="2" to-layer="13" to-port="0"/>
		<edge from-layer="13" from-port="3" to-layer="14" to-port="0"/>
		<edge from-layer="14" from-port="1" to-layer="15" to-port="0"/>
		<edge from-layer="15" from-port="3" to-layer="16" to-port="0"/>
		<edge from-layer="16" from-port="3" to-layer="17" to-port="0"/>
		<edge from-layer="17" from-port="1" to-layer="18" to-port="0"/>
		<edge from-layer="18" from-port="2" to-layer="19" to-port="0"/>
		<edge from-layer="19" from-port="3" to-layer="20" to-port="0"/>
		<edge from-layer="20" from-port="1" to-layer="21" to-port="0"/>
		<edge from-layer="15" from-port="3" to-layer="22" to-port="0"/>
		<edge from-layer="21" from-port="3" to-layer="22" to-port="1"/>
		<edge from-layer="22" from-port="2" to-layer="23" to-port="0"/>
		<edge from-layer="22" from-port="2" to-layer="24" to-port="0"/>
		<edge from-layer="24" from-port="3" to-layer="25" to-port="0"/>
		<edge from-layer="25" from-port="1" to-layer="26" to-port="0"/>
		<edge from-layer="26" from-port="2" to-layer="27" to-port="0"/>
		<edge from-layer="27" from-port="3" to-layer="28" to-port="0"/>
		<edge from-layer="28" from-port="1" to-layer="29" to-port="0"/>
		<edge from-layer="29" from-port="3" to-layer="30" to-port="0"/>
		<edge from-layer="30" from-port="3" to-layer="31" to-port="0"/>
		<edge from-layer="31" from-port="1" to-layer="32" to-port="0"/>
		<edge from-layer="32" from-port="2" to-layer="33" to-port="0"/>
		<edge from-layer="33" from-port="3" to-layer="34" to-port="0"/>
		<edge from-layer="34" from-port="1" to-layer="35" to-port="0"/>
		<edge from-layer="29" from-port="3" to-layer="36" to-port="0"/>
		<edge from-layer="35" from-port="3" to-layer="36" to-port="1"/>
		<edge from-layer="36" from-port="2" to-layer="37" to-port="0"/>
		<edge from-layer="37" from-port="3" to-layer="38" to-port="0"/>
		<edge from-layer="38" from-port="1" to-layer="39" to-port="0"/>
		<edge from-layer="39" from-port="2" to-layer="40" to-port="0"/>
		<edge from-layer="40" from-port="3" to-layer="41" to-port="0"/>
		<edge from-layer="41" from-port="1" to-layer="42" to-port="0"/>
		<edge from-layer="36" from-port="2" to-layer="43" to-port="0"/>
		<edge from-layer="42" from-port="3" to-layer="43" to-port="1"/>
		<edge from-layer="43" from-port="2" to-layer="44" to-port="0"/>
		<edge from-layer="44" from-port="3" to-layer="45" to-port="0"/>
		<edge from-layer="45" from-port="1" to-layer="46" to-port="0"/>
		<edge from-layer="46" from-port="2" to-layer="47" to-port="0"/>
		<edge from-layer="47" from-port="3" to-layer="48" to-port="0"/>
		<edge from-layer="48" from-port="1" to-layer="49" to-port="0"/>
		<edge from-layer="49" from-port="3" to-layer="50" to-port="0"/>
		<edge from-layer="50" from-port="3" to-layer="51" to-port="0"/>
		<edge from-layer="51" from-port="1" to-layer="52" to-port="0"/>
		<edge from-layer="52" from-port="2" to-layer="53" to-port="0"/>
		<edge from-layer="53" from-port="3" to-layer="54" to-port="0"/>
		<edge from-layer="54" from-port="1" to-layer="55" to-port="0"/>
		<edge from-layer="49" from-port="3" to-layer="56" to-port="0"/>
		<edge from-layer="55" from-port="3" to-layer="56" to-port="1"/>
		<edge from-layer="56" from-port="2" to-layer="57" to-port="0"/>
		<edge from-layer="57" from-port="3" to-layer="58" to-port="0"/>
		<edge from-layer="58" from-port="1" to-layer="59" to-port="0"/>
		<edge from-layer="59" from-port="2" to-layer="60" to-port="0"/>
		<edge from-layer="60" from-port="3" to-layer="61" to-port="0"/>
		<edge from-layer="61" from-port="1" to-layer="62" to-port="0"/>
		<edge from-layer="56" from-port="2" to-layer="63" to-port="0"/>
		<edge from-layer="62" from-port="3" to-layer="63" to-port="1"/>
		<edge from-layer="63" from-port="2" to-layer="64" to-port="0"/>
		<edge from-layer="64" from-port="3" to-layer="65" to-port="0"/>
		<edge from-layer="65" from-port="1" to-layer="66" to-port="0"/>
		<edge from-layer="66" from-port="2" to-layer="67" to-port="0"/>
		<edge from-layer="67" from-port="3" to-layer="68" to-port="0"/>
		<edge from-layer="68" from-port="1" to-layer="69" to-port="0"/>
		<edge from-layer="63" from-port="2" to-layer="70" to-port="0"/>
		<edge from-layer="69" from-port="3" to-layer="70" to-port="1"/>
		<edge from-layer="70" from-port="2" to-layer="71" to-port="0"/>
		<edge from-layer="70" from-port="2" to-layer="72" to-port="0"/>
		<edge from-layer="72" from-port="3" to-layer="73" to-port="0"/>
		<edge from-layer="73" from-port="1" to-layer="74" to-port="0"/>
		<edge from-layer="74" from-port="2" to-layer="75" to-port="0"/>
		<edge from-layer="75" from-port="3" to-layer="76" to-port="0"/>
		<edge from-layer="76" from-port="1" to-layer="77" to-port="0"/>
		<edge from-layer="77" from-port="3" to-layer="78" to-port="0"/>
		<edge from-layer="78" from-port="3" to-layer="79" to-port="0"/>
		<edge from-layer="79" from-port="1" to-layer="80" to-port="0"/>
		<edge from-layer="80" from-port="2" to-layer="81" to-port="0"/>
		<edge from-layer="81" from-port="3" to-layer="82" to-port="0"/>
		<edge from-layer="82" from-port="1" to-layer="83" to-port="0"/>
		<edge from-layer="77" from-port="3" to-layer="84" to-port="0"/>
		<edge from-layer="83" from-port="3" to-layer="84" to-port="1"/>
		<edge from-layer="84" from-port="2" to-layer="85" to-port="0"/>
		<edge from-layer="85" from-port="3" to-layer="86" to-port="0"/>
		<edge from-layer="86" from-port="1" to-layer="87" to-port="0"/>
		<edge from-layer="87" from-port="2" to-layer="88" to-port="0"/>
		<edge from-layer="88" from-port="3" to-layer="89" to-port="0"/>
		<edge from-layer="89" from-port="1" to-layer="90" to-port="0"/>
		<edge from-layer="84" from-port="2" to-layer="91" to-port="0"/>
		<edge from-layer="90" from-port="3" to-layer="91" to-port="1"/>
		<edge from-layer="91" from-port="2" to-layer="92" to-port="0"/>
		<edge from-layer="91" from-port="2" to-layer="93" to-port="0"/>
		<edge from-layer="93" from-port="3" to-layer="94" to-port="0"/>
		<edge from-layer="94" from-port="1" to-layer="95" to-port="0"/>
		<edge from-layer="95" from-port="2" to-layer="96" to-port="0"/>
		<edge from-layer="96" from-port="3" to-layer="97" to-port="0"/>
		<edge from-layer="97" from-port="1" to-layer="98" to-port="0"/>
		<edge from-layer="98" from-port="3" to-layer="99" to-port="0"/>
		<edge from-layer="99" from-port="3" to-layer="100" to-port="0"/>
		<edge from-layer="100" from-port="1" to-layer="101" to-port="0"/>
		<edge from-layer="101" from-port="2" to-layer="102" to-port="0"/>
		<edge from-layer="102" from-port="3" to-layer="103" to-port="0"/>
		<edge from-layer="103" from-port="1" to-layer="104" to-port="0"/>
		<edge from-layer="98" from-port="3" to-layer="105" to-port="0"/>
		<edge from-layer="104" from-port="3" to-layer="105" to-port="1"/>
		<edge from-layer="105" from-port="2" to-layer="106" to-port="0"/>
		<edge from-layer="106" from-port="3" to-layer="107" to-port="0"/>
		<edge from-layer="107" from-port="1" to-layer="108" to-port="0"/>
		<edge from-layer="108" from-port="2" to-layer="109" to-port="0"/>
		<edge from-layer="109" from-port="3" to-layer="110" to-port="0"/>
		<edge from-layer="110" from-port="1" to-layer="111" to-port="0"/>
		<edge from-layer="105" from-port="2" to-layer="112" to-port="0"/>
		<edge from-layer="111" from-port="3" to-layer="112" to-port="1"/>
		<edge from-layer="112" from-port="2" to-layer="113" to-port="0"/>
		<edge from-layer="113" from-port="3" to-layer="114" to-port="0"/>
		<edge from-layer="114" from-port="1" to-layer="115" to-port="0"/>
		<edge from-layer="115" from-port="2" to-layer="116" to-port="0"/>
		<edge from-layer="116" from-port="3" to-layer="117" to-port="0"/>
		<edge from-layer="117" from-port="1" to-layer="118" to-port="0"/>
		<edge from-layer="118" from-port="3" to-layer="119" to-port="0"/>
		<edge from-layer="119" from-port="3" to-layer="120" to-port="0"/>
		<edge from-layer="120" from-port="1" to-layer="121" to-port="0"/>
		<edge from-layer="121" from-port="3" to-layer="122" to-port="0"/>
		<edge from-layer="92" from-port="3" to-layer="123" to-port="0"/>
		<edge from-layer="122" from-port="1" to-layer="123" to-port="1"/>
		<edge from-layer="123" from-port="2" to-layer="124" to-port="0"/>
		<edge from-layer="71" from-port="3" to-layer="125" to-port="0"/>
		<edge from-layer="124" from-port="1" to-layer="125" to-port="1"/>
		<edge from-layer="125" from-port="2" to-layer="126" to-port="0"/>
		<edge from-layer="23" from-port="3" to-layer="127" to-port="0"/>
		<edge from-layer="126" from-port="1" to-layer="127" to-port="1"/>
		<edge from-layer="22" from-port="2" to-layer="128" to-port="0"/>
		<edge from-layer="70" from-port="2" to-layer="129" to-port="0"/>
		<edge from-layer="91" from-port="2" to-layer="130" to-port="0"/>
		<edge from-layer="120" from-port="1" to-layer="131" to-port="0"/>
		<edge from-layer="131" from-port="3" to-layer="132" to-port="0"/>
		<edge from-layer="130" from-port="3" to-layer="133" to-port="0"/>
		<edge from-layer="132" from-port="1" to-layer="133" to-port="1"/>
		<edge from-layer="133" from-port="2" to-layer="134" to-port="0"/>
		<edge from-layer="129" from-port="3" to-layer="135" to-port="0"/>
		<edge from-layer="134" from-port="1" to-layer="135" to-port="1"/>
		<edge from-layer="135" from-port="2" to-layer="136" to-port="0"/>
		<edge from-layer="128" from-port="3" to-layer="137" to-port="0"/>
		<edge from-layer="136" from-port="1" to-layer="137" to-port="1"/>
	</edges>
	<meta_data>
		<MO_version value="1.5.4.dacdc0a0"/>
		<cli_parameters>
			<data_type value="FP16"/>
			<disable_fusing value="False"/>
			<disable_gfusing value="False"/>
			<disable_nhwc_to_nchw value="False"/>
			<disable_omitting_optional value="False"/>
			<disable_resnet_optimization value="False"/>
			<enable_flattening_nested_params value="False"/>
			<extensions value="DIR"/>
			<framework value="tf"/>
			<generate_deprecated_IR_V2 value="False"/>
			<input value="Placeholder"/>
			<input_model value="DIR/pixel_link_mobilenet_v2.pb"/>
			<input_model_is_text value="False"/>
			<input_shape value="[1,768,1280,3]"/>
			<k value="DIR/CustomLayersMapping.xml"/>
			<legacy_mxnet_model value="False"/>
			<log_level value="ERROR"/>
			<mean_values value="Placeholder[123.0,117.0,104.0]"/>
			<model_name value="text-detection-0001"/>
			<move_to_preprocess value="False"/>
			<offload_unsupported_operations_to_tf value="False"/>
			<output value="pixel_cls/add_2,pixel_link/add_2"/>
			<output_dir value="DIR"/>
			<remove_output_softmax value="False"/>
			<reverse_input_channels value="True"/>
			<save_params_from_nd value="False"/>
			<scale_values value="Placeholder[1.0]"/>
			<silent value="False"/>
			<version value="False"/>
			<unset unset_cli_parameters="batch, counts, finegrain_fusing, freeze_placeholder_with_value, input_checkpoint, input_meta_graph, input_proto, input_symbol, mean_file, mean_file_offsets, nd_prefix_name, pretrained_model_name, saved_model_dir, saved_model_tags, scale, tensorboard_logdir, tensorflow_custom_layer_libraries, tensorflow_custom_operations_config_update, tensorflow_object_detection_api_pipeline_config, tensorflow_operation_patterns, tensorflow_subgraph_patterns, tensorflow_use_custom_operations_config"/>
		</cli_parameters>
	</meta_data>
</net>
