<?xml version="1.0" ?>
<net batch="1" name="RMNet_LReLU with SSD head for Action Detection and Action Recognition" version="4">
	<layers>
		<layer id="0" name="data" precision="FP16" type="Input">
			<output>
				<port id="0">
					<dim>1</dim>
					<dim>3</dim>
					<dim>400</dim>
					<dim>680</dim>
				</port>
			</output>
		</layer>
		<layer id="1" name="Mul_4055/Fused_Mul_/FusedScaleShift_" precision="FP16" type="ScaleShift">
			<input>
				<port id="0">
					<dim>1</dim>
					<dim>3</dim>
					<dim>400</dim>
					<dim>680</dim>
				</port>
			</input>
			<output>
				<port id="3">
					<dim>1</dim>
					<dim>3</dim>
					<dim>400</dim>
					<dim>680</dim>
				</port>
			</output>
			<blobs>
				<weights offset="0" size="6"/>
				<biases offset="6" size="6"/>
			</blobs>
		</layer>
		<layer id="2" name="init_block1/dim_inc/conv" precision="FP16" type="Convolution">
			<data dilations="1,1" group="1" kernel="3,3" output="32" pads_begin="1,1" pads_end="1,1" strides="2,2"/>
			<input>
				<port id="0">
					<dim>1</dim>
					<dim>3</dim>
					<dim>400</dim>
					<dim>680</dim>
				</port>
			</input>
			<output>
				<port id="3">
					<dim>1</dim>
					<dim>32</dim>
					<dim>200</dim>
					<dim>340</dim>
				</port>
			</output>
			<blobs>
				<weights offset="12" size="1728"/>
				<biases offset="1740" size="64"/>
			</blobs>
		</layer>
		<layer id="3" name="init_block1/dim_inc/fn" precision="FP16" type="ReLU">
			<data negative_slope="0.0"/>
			<input>
				<port id="0">
					<dim>1</dim>
					<dim>32</dim>
					<dim>200</dim>
					<dim>340</dim>
				</port>
			</input>
			<output>
				<port id="1">
					<dim>1</dim>
					<dim>32</dim>
					<dim>200</dim>
					<dim>340</dim>
				</port>
			</output>
		</layer>
		<layer id="4" name="bottleneck1_1/dim_red/conv" precision="FP16" type="Convolution">
			<data dilations="1,1" group="1" kernel="1,1" output="8" pads_begin="0,0" pads_end="0,0" strides="1,1"/>
			<input>
				<port id="0">
					<dim>1</dim>
					<dim>32</dim>
					<dim>200</dim>
					<dim>340</dim>
				</port>
			</input>
			<output>
				<port id="3">
					<dim>1</dim>
					<dim>8</dim>
					<dim>200</dim>
					<dim>340</dim>
				</port>
			</output>
			<blobs>
				<weights offset="1804" size="512"/>
				<biases offset="2316" size="16"/>
			</blobs>
		</layer>
		<layer id="5" name="bottleneck1_1/dim_red/fn" precision="FP16" type="ReLU">
			<data negative_slope="0.10000000149011612"/>
			<input>
				<port id="0">
					<dim>1</dim>
					<dim>8</dim>
					<dim>200</dim>
					<dim>340</dim>
				</port>
			</input>
			<output>
				<port id="1">
					<dim>1</dim>
					<dim>8</dim>
					<dim>200</dim>
					<dim>340</dim>
				</port>
			</output>
		</layer>
		<layer id="6" name="bottleneck1_1/inner/dw1/conv" precision="FP16" type="Convolution">
			<data dilations="1,1" group="8" kernel="3,3" output="8" pads_begin="1,1" pads_end="1,1" strides="1,1"/>
			<input>
				<port id="0">
					<dim>1</dim>
					<dim>8</dim>
					<dim>200</dim>
					<dim>340</dim>
				</port>
			</input>
			<output>
				<port id="3">
					<dim>1</dim>
					<dim>8</dim>
					<dim>200</dim>
					<dim>340</dim>
				</port>
			</output>
			<blobs>
				<weights offset="2332" size="144"/>
				<biases offset="2476" size="16"/>
			</blobs>
		</layer>
		<layer id="7" name="bottleneck1_1/inner/dw1/fn" precision="FP16" type="ReLU">
			<data negative_slope="0.10000000149011612"/>
			<input>
				<port id="0">
					<dim>1</dim>
					<dim>8</dim>
					<dim>200</dim>
					<dim>340</dim>
				</port>
			</input>
			<output>
				<port id="1">
					<dim>1</dim>
					<dim>8</dim>
					<dim>200</dim>
					<dim>340</dim>
				</port>
			</output>
		</layer>
		<layer id="8" name="bottleneck1_1/dim_inc/conv" precision="FP16" type="Convolution">
			<data dilations="1,1" group="1" kernel="1,1" output="32" pads_begin="0,0" pads_end="0,0" strides="1,1"/>
			<input>
				<port id="0">
					<dim>1</dim>
					<dim>8</dim>
					<dim>200</dim>
					<dim>340</dim>
				</port>
			</input>
			<output>
				<port id="3">
					<dim>1</dim>
					<dim>32</dim>
					<dim>200</dim>
					<dim>340</dim>
				</port>
			</output>
			<blobs>
				<weights offset="2492" size="512"/>
				<biases offset="3004" size="64"/>
			</blobs>
		</layer>
		<layer id="9" name="bottleneck1_1/add" precision="FP16" type="Eltwise">
			<data coeff="" operation="sum"/>
			<input>
				<port id="0">
					<dim>1</dim>
					<dim>32</dim>
					<dim>200</dim>
					<dim>340</dim>
				</port>
				<port id="1">
					<dim>1</dim>
					<dim>32</dim>
					<dim>200</dim>
					<dim>340</dim>
				</port>
			</input>
			<output>
				<port id="2">
					<dim>1</dim>
					<dim>32</dim>
					<dim>200</dim>
					<dim>340</dim>
				</port>
			</output>
		</layer>
		<layer id="10" name="bottleneck1_1/fn" precision="FP16" type="ReLU">
			<data negative_slope="0.10000000149011612"/>
			<input>
				<port id="0">
					<dim>1</dim>
					<dim>32</dim>
					<dim>200</dim>
					<dim>340</dim>
				</port>
			</input>
			<output>
				<port id="1">
					<dim>1</dim>
					<dim>32</dim>
					<dim>200</dim>
					<dim>340</dim>
				</port>
			</output>
		</layer>
		<layer id="11" name="bottleneck1_2/dim_red/conv" precision="FP16" type="Convolution">
			<data dilations="1,1" group="1" kernel="1,1" output="8" pads_begin="0,0" pads_end="0,0" strides="1,1"/>
			<input>
				<port id="0">
					<dim>1</dim>
					<dim>32</dim>
					<dim>200</dim>
					<dim>340</dim>
				</port>
			</input>
			<output>
				<port id="3">
					<dim>1</dim>
					<dim>8</dim>
					<dim>200</dim>
					<dim>340</dim>
				</port>
			</output>
			<blobs>
				<weights offset="3068" size="512"/>
				<biases offset="3580" size="16"/>
			</blobs>
		</layer>
		<layer id="12" name="bottleneck1_2/dim_red/fn" precision="FP16" type="ReLU">
			<data negative_slope="0.10000000149011612"/>
			<input>
				<port id="0">
					<dim>1</dim>
					<dim>8</dim>
					<dim>200</dim>
					<dim>340</dim>
				</port>
			</input>
			<output>
				<port id="1">
					<dim>1</dim>
					<dim>8</dim>
					<dim>200</dim>
					<dim>340</dim>
				</port>
			</output>
		</layer>
		<layer id="13" name="bottleneck1_2/inner/dw1/conv" precision="FP16" type="Convolution">
			<data dilations="1,1" group="8" kernel="3,3" output="8" pads_begin="1,1" pads_end="1,1" strides="1,1"/>
			<input>
				<port id="0">
					<dim>1</dim>
					<dim>8</dim>
					<dim>200</dim>
					<dim>340</dim>
				</port>
			</input>
			<output>
				<port id="3">
					<dim>1</dim>
					<dim>8</dim>
					<dim>200</dim>
					<dim>340</dim>
				</port>
			</output>
			<blobs>
				<weights offset="3596" size="144"/>
				<biases offset="3740" size="16"/>
			</blobs>
		</layer>
		<layer id="14" name="bottleneck1_2/inner/dw1/fn" precision="FP16" type="ReLU">
			<data negative_slope="0.10000000149011612"/>
			<input>
				<port id="0">
					<dim>1</dim>
					<dim>8</dim>
					<dim>200</dim>
					<dim>340</dim>
				</port>
			</input>
			<output>
				<port id="1">
					<dim>1</dim>
					<dim>8</dim>
					<dim>200</dim>
					<dim>340</dim>
				</port>
			</output>
		</layer>
		<layer id="15" name="bottleneck1_2/dim_inc/conv" precision="FP16" type="Convolution">
			<data dilations="1,1" group="1" kernel="1,1" output="32" pads_begin="0,0" pads_end="0,0" strides="1,1"/>
			<input>
				<port id="0">
					<dim>1</dim>
					<dim>8</dim>
					<dim>200</dim>
					<dim>340</dim>
				</port>
			</input>
			<output>
				<port id="3">
					<dim>1</dim>
					<dim>32</dim>
					<dim>200</dim>
					<dim>340</dim>
				</port>
			</output>
			<blobs>
				<weights offset="3756" size="512"/>
				<biases offset="4268" size="64"/>
			</blobs>
		</layer>
		<layer id="16" name="bottleneck1_2/add" precision="FP16" type="Eltwise">
			<data coeff="" operation="sum"/>
			<input>
				<port id="0">
					<dim>1</dim>
					<dim>32</dim>
					<dim>200</dim>
					<dim>340</dim>
				</port>
				<port id="1">
					<dim>1</dim>
					<dim>32</dim>
					<dim>200</dim>
					<dim>340</dim>
				</port>
			</input>
			<output>
				<port id="2">
					<dim>1</dim>
					<dim>32</dim>
					<dim>200</dim>
					<dim>340</dim>
				</port>
			</output>
		</layer>
		<layer id="17" name="bottleneck1_2/fn" precision="FP16" type="ReLU">
			<data negative_slope="0.10000000149011612"/>
			<input>
				<port id="0">
					<dim>1</dim>
					<dim>32</dim>
					<dim>200</dim>
					<dim>340</dim>
				</port>
			</input>
			<output>
				<port id="1">
					<dim>1</dim>
					<dim>32</dim>
					<dim>200</dim>
					<dim>340</dim>
				</port>
			</output>
		</layer>
		<layer id="18" name="bottleneck1_3/dim_red/conv" precision="FP16" type="Convolution">
			<data dilations="1,1" group="1" kernel="1,1" output="8" pads_begin="0,0" pads_end="0,0" strides="1,1"/>
			<input>
				<port id="0">
					<dim>1</dim>
					<dim>32</dim>
					<dim>200</dim>
					<dim>340</dim>
				</port>
			</input>
			<output>
				<port id="3">
					<dim>1</dim>
					<dim>8</dim>
					<dim>200</dim>
					<dim>340</dim>
				</port>
			</output>
			<blobs>
				<weights offset="4332" size="512"/>
				<biases offset="4844" size="16"/>
			</blobs>
		</layer>
		<layer id="19" name="bottleneck1_3/dim_red/fn" precision="FP16" type="ReLU">
			<data negative_slope="0.10000000149011612"/>
			<input>
				<port id="0">
					<dim>1</dim>
					<dim>8</dim>
					<dim>200</dim>
					<dim>340</dim>
				</port>
			</input>
			<output>
				<port id="1">
					<dim>1</dim>
					<dim>8</dim>
					<dim>200</dim>
					<dim>340</dim>
				</port>
			</output>
		</layer>
		<layer id="20" name="bottleneck1_3/inner/dw1/conv" precision="FP16" type="Convolution">
			<data dilations="1,1" group="8" kernel="3,3" output="8" pads_begin="1,1" pads_end="1,1" strides="1,1"/>
			<input>
				<port id="0">
					<dim>1</dim>
					<dim>8</dim>
					<dim>200</dim>
					<dim>340</dim>
				</port>
			</input>
			<output>
				<port id="3">
					<dim>1</dim>
					<dim>8</dim>
					<dim>200</dim>
					<dim>340</dim>
				</port>
			</output>
			<blobs>
				<weights offset="4860" size="144"/>
				<biases offset="5004" size="16"/>
			</blobs>
		</layer>
		<layer id="21" name="bottleneck1_3/inner/dw1/fn" precision="FP16" type="ReLU">
			<data negative_slope="0.10000000149011612"/>
			<input>
				<port id="0">
					<dim>1</dim>
					<dim>8</dim>
					<dim>200</dim>
					<dim>340</dim>
				</port>
			</input>
			<output>
				<port id="1">
					<dim>1</dim>
					<dim>8</dim>
					<dim>200</dim>
					<dim>340</dim>
				</port>
			</output>
		</layer>
		<layer id="22" name="bottleneck1_3/dim_inc/conv" precision="FP16" type="Convolution">
			<data dilations="1,1" group="1" kernel="1,1" output="32" pads_begin="0,0" pads_end="0,0" strides="1,1"/>
			<input>
				<port id="0">
					<dim>1</dim>
					<dim>8</dim>
					<dim>200</dim>
					<dim>340</dim>
				</port>
			</input>
			<output>
				<port id="3">
					<dim>1</dim>
					<dim>32</dim>
					<dim>200</dim>
					<dim>340</dim>
				</port>
			</output>
			<blobs>
				<weights offset="5020" size="512"/>
				<biases offset="5532" size="64"/>
			</blobs>
		</layer>
		<layer id="23" name="bottleneck1_3/add" precision="FP16" type="Eltwise">
			<data coeff="" operation="sum"/>
			<input>
				<port id="0">
					<dim>1</dim>
					<dim>32</dim>
					<dim>200</dim>
					<dim>340</dim>
				</port>
				<port id="1">
					<dim>1</dim>
					<dim>32</dim>
					<dim>200</dim>
					<dim>340</dim>
				</port>
			</input>
			<output>
				<port id="2">
					<dim>1</dim>
					<dim>32</dim>
					<dim>200</dim>
					<dim>340</dim>
				</port>
			</output>
		</layer>
		<layer id="24" name="bottleneck1_3/fn" precision="FP16" type="ReLU">
			<data negative_slope="0.10000000149011612"/>
			<input>
				<port id="0">
					<dim>1</dim>
					<dim>32</dim>
					<dim>200</dim>
					<dim>340</dim>
				</port>
			</input>
			<output>
				<port id="1">
					<dim>1</dim>
					<dim>32</dim>
					<dim>200</dim>
					<dim>340</dim>
				</port>
			</output>
		</layer>
		<layer id="25" name="bottleneck1_4/dim_red/conv" precision="FP16" type="Convolution">
			<data dilations="1,1" group="1" kernel="1,1" output="8" pads_begin="0,0" pads_end="0,0" strides="1,1"/>
			<input>
				<port id="0">
					<dim>1</dim>
					<dim>32</dim>
					<dim>200</dim>
					<dim>340</dim>
				</port>
			</input>
			<output>
				<port id="3">
					<dim>1</dim>
					<dim>8</dim>
					<dim>200</dim>
					<dim>340</dim>
				</port>
			</output>
			<blobs>
				<weights offset="5596" size="512"/>
				<biases offset="6108" size="16"/>
			</blobs>
		</layer>
		<layer id="26" name="bottleneck1_4/dim_red/fn" precision="FP16" type="ReLU">
			<data negative_slope="0.10000000149011612"/>
			<input>
				<port id="0">
					<dim>1</dim>
					<dim>8</dim>
					<dim>200</dim>
					<dim>340</dim>
				</port>
			</input>
			<output>
				<port id="1">
					<dim>1</dim>
					<dim>8</dim>
					<dim>200</dim>
					<dim>340</dim>
				</port>
			</output>
		</layer>
		<layer id="27" name="bottleneck1_4/inner/dw1/conv" precision="FP16" type="Convolution">
			<data dilations="1,1" group="8" kernel="3,3" output="8" pads_begin="1,1" pads_end="1,1" strides="1,1"/>
			<input>
				<port id="0">
					<dim>1</dim>
					<dim>8</dim>
					<dim>200</dim>
					<dim>340</dim>
				</port>
			</input>
			<output>
				<port id="3">
					<dim>1</dim>
					<dim>8</dim>
					<dim>200</dim>
					<dim>340</dim>
				</port>
			</output>
			<blobs>
				<weights offset="6124" size="144"/>
				<biases offset="6268" size="16"/>
			</blobs>
		</layer>
		<layer id="28" name="bottleneck1_4/inner/dw1/fn" precision="FP16" type="ReLU">
			<data negative_slope="0.10000000149011612"/>
			<input>
				<port id="0">
					<dim>1</dim>
					<dim>8</dim>
					<dim>200</dim>
					<dim>340</dim>
				</port>
			</input>
			<output>
				<port id="1">
					<dim>1</dim>
					<dim>8</dim>
					<dim>200</dim>
					<dim>340</dim>
				</port>
			</output>
		</layer>
		<layer id="29" name="bottleneck1_4/dim_inc/conv" precision="FP16" type="Convolution">
			<data dilations="1,1" group="1" kernel="1,1" output="32" pads_begin="0,0" pads_end="0,0" strides="1,1"/>
			<input>
				<port id="0">
					<dim>1</dim>
					<dim>8</dim>
					<dim>200</dim>
					<dim>340</dim>
				</port>
			</input>
			<output>
				<port id="3">
					<dim>1</dim>
					<dim>32</dim>
					<dim>200</dim>
					<dim>340</dim>
				</port>
			</output>
			<blobs>
				<weights offset="6284" size="512"/>
				<biases offset="6796" size="64"/>
			</blobs>
		</layer>
		<layer id="30" name="bottleneck1_4/add" precision="FP16" type="Eltwise">
			<data coeff="" operation="sum"/>
			<input>
				<port id="0">
					<dim>1</dim>
					<dim>32</dim>
					<dim>200</dim>
					<dim>340</dim>
				</port>
				<port id="1">
					<dim>1</dim>
					<dim>32</dim>
					<dim>200</dim>
					<dim>340</dim>
				</port>
			</input>
			<output>
				<port id="2">
					<dim>1</dim>
					<dim>32</dim>
					<dim>200</dim>
					<dim>340</dim>
				</port>
			</output>
		</layer>
		<layer id="31" name="bottleneck1_4/fn" precision="FP16" type="ReLU">
			<data negative_slope="0.10000000149011612"/>
			<input>
				<port id="0">
					<dim>1</dim>
					<dim>32</dim>
					<dim>200</dim>
					<dim>340</dim>
				</port>
			</input>
			<output>
				<port id="1">
					<dim>1</dim>
					<dim>32</dim>
					<dim>200</dim>
					<dim>340</dim>
				</port>
			</output>
		</layer>
		<layer id="32" name="bottleneck2_0/skip/pooling" precision="FP16" type="Pooling">
			<data exclude-pad="true" kernel="2,2" pads_begin="0,0" pads_end="0,0" pool-method="max" rounding_type="ceil" strides="2,2"/>
			<input>
				<port id="0">
					<dim>1</dim>
					<dim>32</dim>
					<dim>200</dim>
					<dim>340</dim>
				</port>
			</input>
			<output>
				<port id="1">
					<dim>1</dim>
					<dim>32</dim>
					<dim>100</dim>
					<dim>170</dim>
				</port>
			</output>
		</layer>
		<layer id="33" name="bottleneck2_0/skip/conv" precision="FP16" type="Convolution">
			<data dilations="1,1" group="1" kernel="1,1" output="64" pads_begin="0,0" pads_end="0,0" strides="1,1"/>
			<input>
				<port id="0">
					<dim>1</dim>
					<dim>32</dim>
					<dim>100</dim>
					<dim>170</dim>
				</port>
			</input>
			<output>
				<port id="3">
					<dim>1</dim>
					<dim>64</dim>
					<dim>100</dim>
					<dim>170</dim>
				</port>
			</output>
			<blobs>
				<weights offset="6860" size="4096"/>
				<biases offset="10956" size="128"/>
			</blobs>
		</layer>
		<layer id="34" name="bottleneck2_0/dim_red/conv" precision="FP16" type="Convolution">
			<data dilations="1,1" group="1" kernel="1,1" output="16" pads_begin="0,0" pads_end="0,0" strides="1,1"/>
			<input>
				<port id="0">
					<dim>1</dim>
					<dim>32</dim>
					<dim>200</dim>
					<dim>340</dim>
				</port>
			</input>
			<output>
				<port id="3">
					<dim>1</dim>
					<dim>16</dim>
					<dim>200</dim>
					<dim>340</dim>
				</port>
			</output>
			<blobs>
				<weights offset="11084" size="1024"/>
				<biases offset="12108" size="32"/>
			</blobs>
		</layer>
		<layer id="35" name="bottleneck2_0/dim_red/fn" precision="FP16" type="ReLU">
			<data negative_slope="0.10000000149011612"/>
			<input>
				<port id="0">
					<dim>1</dim>
					<dim>16</dim>
					<dim>200</dim>
					<dim>340</dim>
				</port>
			</input>
			<output>
				<port id="1">
					<dim>1</dim>
					<dim>16</dim>
					<dim>200</dim>
					<dim>340</dim>
				</port>
			</output>
		</layer>
		<layer id="36" name="bottleneck2_0/inner/dw1/conv" precision="FP16" type="Convolution">
			<data dilations="1,1" group="16" kernel="3,3" output="16" pads_begin="1,1" pads_end="1,1" strides="2,2"/>
			<input>
				<port id="0">
					<dim>1</dim>
					<dim>16</dim>
					<dim>200</dim>
					<dim>340</dim>
				</port>
			</input>
			<output>
				<port id="3">
					<dim>1</dim>
					<dim>16</dim>
					<dim>100</dim>
					<dim>170</dim>
				</port>
			</output>
			<blobs>
				<weights offset="12140" size="288"/>
				<biases offset="12428" size="32"/>
			</blobs>
		</layer>
		<layer id="37" name="bottleneck2_0/inner/dw1/fn" precision="FP16" type="ReLU">
			<data negative_slope="0.10000000149011612"/>
			<input>
				<port id="0">
					<dim>1</dim>
					<dim>16</dim>
					<dim>100</dim>
					<dim>170</dim>
				</port>
			</input>
			<output>
				<port id="1">
					<dim>1</dim>
					<dim>16</dim>
					<dim>100</dim>
					<dim>170</dim>
				</port>
			</output>
		</layer>
		<layer id="38" name="bottleneck2_0/dim_inc/conv" precision="FP16" type="Convolution">
			<data dilations="1,1" group="1" kernel="1,1" output="64" pads_begin="0,0" pads_end="0,0" strides="1,1"/>
			<input>
				<port id="0">
					<dim>1</dim>
					<dim>16</dim>
					<dim>100</dim>
					<dim>170</dim>
				</port>
			</input>
			<output>
				<port id="3">
					<dim>1</dim>
					<dim>64</dim>
					<dim>100</dim>
					<dim>170</dim>
				</port>
			</output>
			<blobs>
				<weights offset="12460" size="2048"/>
				<biases offset="14508" size="128"/>
			</blobs>
		</layer>
		<layer id="39" name="bottleneck2_0/add" precision="FP16" type="Eltwise">
			<data coeff="" operation="sum"/>
			<input>
				<port id="0">
					<dim>1</dim>
					<dim>64</dim>
					<dim>100</dim>
					<dim>170</dim>
				</port>
				<port id="1">
					<dim>1</dim>
					<dim>64</dim>
					<dim>100</dim>
					<dim>170</dim>
				</port>
			</input>
			<output>
				<port id="2">
					<dim>1</dim>
					<dim>64</dim>
					<dim>100</dim>
					<dim>170</dim>
				</port>
			</output>
		</layer>
		<layer id="40" name="bottleneck2_0/fn" precision="FP16" type="ReLU">
			<data negative_slope="0.10000000149011612"/>
			<input>
				<port id="0">
					<dim>1</dim>
					<dim>64</dim>
					<dim>100</dim>
					<dim>170</dim>
				</port>
			</input>
			<output>
				<port id="1">
					<dim>1</dim>
					<dim>64</dim>
					<dim>100</dim>
					<dim>170</dim>
				</port>
			</output>
		</layer>
		<layer id="41" name="bottleneck2_1/dim_red/conv" precision="FP16" type="Convolution">
			<data dilations="1,1" group="1" kernel="1,1" output="16" pads_begin="0,0" pads_end="0,0" strides="1,1"/>
			<input>
				<port id="0">
					<dim>1</dim>
					<dim>64</dim>
					<dim>100</dim>
					<dim>170</dim>
				</port>
			</input>
			<output>
				<port id="3">
					<dim>1</dim>
					<dim>16</dim>
					<dim>100</dim>
					<dim>170</dim>
				</port>
			</output>
			<blobs>
				<weights offset="14636" size="2048"/>
				<biases offset="16684" size="32"/>
			</blobs>
		</layer>
		<layer id="42" name="bottleneck2_1/dim_red/fn" precision="FP16" type="ReLU">
			<data negative_slope="0.10000000149011612"/>
			<input>
				<port id="0">
					<dim>1</dim>
					<dim>16</dim>
					<dim>100</dim>
					<dim>170</dim>
				</port>
			</input>
			<output>
				<port id="1">
					<dim>1</dim>
					<dim>16</dim>
					<dim>100</dim>
					<dim>170</dim>
				</port>
			</output>
		</layer>
		<layer id="43" name="bottleneck2_1/inner/dw1/conv" precision="FP16" type="Convolution">
			<data dilations="1,1" group="16" kernel="3,3" output="16" pads_begin="1,1" pads_end="1,1" strides="1,1"/>
			<input>
				<port id="0">
					<dim>1</dim>
					<dim>16</dim>
					<dim>100</dim>
					<dim>170</dim>
				</port>
			</input>
			<output>
				<port id="3">
					<dim>1</dim>
					<dim>16</dim>
					<dim>100</dim>
					<dim>170</dim>
				</port>
			</output>
			<blobs>
				<weights offset="16716" size="288"/>
				<biases offset="17004" size="32"/>
			</blobs>
		</layer>
		<layer id="44" name="bottleneck2_1/inner/dw1/fn" precision="FP16" type="ReLU">
			<data negative_slope="0.10000000149011612"/>
			<input>
				<port id="0">
					<dim>1</dim>
					<dim>16</dim>
					<dim>100</dim>
					<dim>170</dim>
				</port>
			</input>
			<output>
				<port id="1">
					<dim>1</dim>
					<dim>16</dim>
					<dim>100</dim>
					<dim>170</dim>
				</port>
			</output>
		</layer>
		<layer id="45" name="bottleneck2_1/dim_inc/conv" precision="FP16" type="Convolution">
			<data dilations="1,1" group="1" kernel="1,1" output="64" pads_begin="0,0" pads_end="0,0" strides="1,1"/>
			<input>
				<port id="0">
					<dim>1</dim>
					<dim>16</dim>
					<dim>100</dim>
					<dim>170</dim>
				</port>
			</input>
			<output>
				<port id="3">
					<dim>1</dim>
					<dim>64</dim>
					<dim>100</dim>
					<dim>170</dim>
				</port>
			</output>
			<blobs>
				<weights offset="17036" size="2048"/>
				<biases offset="19084" size="128"/>
			</blobs>
		</layer>
		<layer id="46" name="bottleneck2_1/add" precision="FP16" type="Eltwise">
			<data coeff="" operation="sum"/>
			<input>
				<port id="0">
					<dim>1</dim>
					<dim>64</dim>
					<dim>100</dim>
					<dim>170</dim>
				</port>
				<port id="1">
					<dim>1</dim>
					<dim>64</dim>
					<dim>100</dim>
					<dim>170</dim>
				</port>
			</input>
			<output>
				<port id="2">
					<dim>1</dim>
					<dim>64</dim>
					<dim>100</dim>
					<dim>170</dim>
				</port>
			</output>
		</layer>
		<layer id="47" name="bottleneck2_1/fn" precision="FP16" type="ReLU">
			<data negative_slope="0.10000000149011612"/>
			<input>
				<port id="0">
					<dim>1</dim>
					<dim>64</dim>
					<dim>100</dim>
					<dim>170</dim>
				</port>
			</input>
			<output>
				<port id="1">
					<dim>1</dim>
					<dim>64</dim>
					<dim>100</dim>
					<dim>170</dim>
				</port>
			</output>
		</layer>
		<layer id="48" name="bottleneck2_2/dim_red/conv" precision="FP16" type="Convolution">
			<data dilations="1,1" group="1" kernel="1,1" output="16" pads_begin="0,0" pads_end="0,0" strides="1,1"/>
			<input>
				<port id="0">
					<dim>1</dim>
					<dim>64</dim>
					<dim>100</dim>
					<dim>170</dim>
				</port>
			</input>
			<output>
				<port id="3">
					<dim>1</dim>
					<dim>16</dim>
					<dim>100</dim>
					<dim>170</dim>
				</port>
			</output>
			<blobs>
				<weights offset="19212" size="2048"/>
				<biases offset="21260" size="32"/>
			</blobs>
		</layer>
		<layer id="49" name="bottleneck2_2/dim_red/fn" precision="FP16" type="ReLU">
			<data negative_slope="0.10000000149011612"/>
			<input>
				<port id="0">
					<dim>1</dim>
					<dim>16</dim>
					<dim>100</dim>
					<dim>170</dim>
				</port>
			</input>
			<output>
				<port id="1">
					<dim>1</dim>
					<dim>16</dim>
					<dim>100</dim>
					<dim>170</dim>
				</port>
			</output>
		</layer>
		<layer id="50" name="bottleneck2_2/inner/dw1/conv" precision="FP16" type="Convolution">
			<data dilations="1,1" group="16" kernel="3,3" output="16" pads_begin="1,1" pads_end="1,1" strides="1,1"/>
			<input>
				<port id="0">
					<dim>1</dim>
					<dim>16</dim>
					<dim>100</dim>
					<dim>170</dim>
				</port>
			</input>
			<output>
				<port id="3">
					<dim>1</dim>
					<dim>16</dim>
					<dim>100</dim>
					<dim>170</dim>
				</port>
			</output>
			<blobs>
				<weights offset="21292" size="288"/>
				<biases offset="21580" size="32"/>
			</blobs>
		</layer>
		<layer id="51" name="bottleneck2_2/inner/dw1/fn" precision="FP16" type="ReLU">
			<data negative_slope="0.10000000149011612"/>
			<input>
				<port id="0">
					<dim>1</dim>
					<dim>16</dim>
					<dim>100</dim>
					<dim>170</dim>
				</port>
			</input>
			<output>
				<port id="1">
					<dim>1</dim>
					<dim>16</dim>
					<dim>100</dim>
					<dim>170</dim>
				</port>
			</output>
		</layer>
		<layer id="52" name="bottleneck2_2/dim_inc/conv" precision="FP16" type="Convolution">
			<data dilations="1,1" group="1" kernel="1,1" output="64" pads_begin="0,0" pads_end="0,0" strides="1,1"/>
			<input>
				<port id="0">
					<dim>1</dim>
					<dim>16</dim>
					<dim>100</dim>
					<dim>170</dim>
				</port>
			</input>
			<output>
				<port id="3">
					<dim>1</dim>
					<dim>64</dim>
					<dim>100</dim>
					<dim>170</dim>
				</port>
			</output>
			<blobs>
				<weights offset="21612" size="2048"/>
				<biases offset="23660" size="128"/>
			</blobs>
		</layer>
		<layer id="53" name="bottleneck2_2/add" precision="FP16" type="Eltwise">
			<data coeff="" operation="sum"/>
			<input>
				<port id="0">
					<dim>1</dim>
					<dim>64</dim>
					<dim>100</dim>
					<dim>170</dim>
				</port>
				<port id="1">
					<dim>1</dim>
					<dim>64</dim>
					<dim>100</dim>
					<dim>170</dim>
				</port>
			</input>
			<output>
				<port id="2">
					<dim>1</dim>
					<dim>64</dim>
					<dim>100</dim>
					<dim>170</dim>
				</port>
			</output>
		</layer>
		<layer id="54" name="bottleneck2_2/fn" precision="FP16" type="ReLU">
			<data negative_slope="0.10000000149011612"/>
			<input>
				<port id="0">
					<dim>1</dim>
					<dim>64</dim>
					<dim>100</dim>
					<dim>170</dim>
				</port>
			</input>
			<output>
				<port id="1">
					<dim>1</dim>
					<dim>64</dim>
					<dim>100</dim>
					<dim>170</dim>
				</port>
			</output>
		</layer>
		<layer id="55" name="bottleneck2_3/dim_red/conv" precision="FP16" type="Convolution">
			<data dilations="1,1" group="1" kernel="1,1" output="16" pads_begin="0,0" pads_end="0,0" strides="1,1"/>
			<input>
				<port id="0">
					<dim>1</dim>
					<dim>64</dim>
					<dim>100</dim>
					<dim>170</dim>
				</port>
			</input>
			<output>
				<port id="3">
					<dim>1</dim>
					<dim>16</dim>
					<dim>100</dim>
					<dim>170</dim>
				</port>
			</output>
			<blobs>
				<weights offset="23788" size="2048"/>
				<biases offset="25836" size="32"/>
			</blobs>
		</layer>
		<layer id="56" name="bottleneck2_3/dim_red/fn" precision="FP16" type="ReLU">
			<data negative_slope="0.10000000149011612"/>
			<input>
				<port id="0">
					<dim>1</dim>
					<dim>16</dim>
					<dim>100</dim>
					<dim>170</dim>
				</port>
			</input>
			<output>
				<port id="1">
					<dim>1</dim>
					<dim>16</dim>
					<dim>100</dim>
					<dim>170</dim>
				</port>
			</output>
		</layer>
		<layer id="57" name="bottleneck2_3/inner/dw1/conv" precision="FP16" type="Convolution">
			<data dilations="1,1" group="16" kernel="3,3" output="16" pads_begin="1,1" pads_end="1,1" strides="1,1"/>
			<input>
				<port id="0">
					<dim>1</dim>
					<dim>16</dim>
					<dim>100</dim>
					<dim>170</dim>
				</port>
			</input>
			<output>
				<port id="3">
					<dim>1</dim>
					<dim>16</dim>
					<dim>100</dim>
					<dim>170</dim>
				</port>
			</output>
			<blobs>
				<weights offset="25868" size="288"/>
				<biases offset="26156" size="32"/>
			</blobs>
		</layer>
		<layer id="58" name="bottleneck2_3/inner/dw1/fn" precision="FP16" type="ReLU">
			<data negative_slope="0.10000000149011612"/>
			<input>
				<port id="0">
					<dim>1</dim>
					<dim>16</dim>
					<dim>100</dim>
					<dim>170</dim>
				</port>
			</input>
			<output>
				<port id="1">
					<dim>1</dim>
					<dim>16</dim>
					<dim>100</dim>
					<dim>170</dim>
				</port>
			</output>
		</layer>
		<layer id="59" name="bottleneck2_3/dim_inc/conv" precision="FP16" type="Convolution">
			<data dilations="1,1" group="1" kernel="1,1" output="64" pads_begin="0,0" pads_end="0,0" strides="1,1"/>
			<input>
				<port id="0">
					<dim>1</dim>
					<dim>16</dim>
					<dim>100</dim>
					<dim>170</dim>
				</port>
			</input>
			<output>
				<port id="3">
					<dim>1</dim>
					<dim>64</dim>
					<dim>100</dim>
					<dim>170</dim>
				</port>
			</output>
			<blobs>
				<weights offset="26188" size="2048"/>
				<biases offset="28236" size="128"/>
			</blobs>
		</layer>
		<layer id="60" name="bottleneck2_3/add" precision="FP16" type="Eltwise">
			<data coeff="" operation="sum"/>
			<input>
				<port id="0">
					<dim>1</dim>
					<dim>64</dim>
					<dim>100</dim>
					<dim>170</dim>
				</port>
				<port id="1">
					<dim>1</dim>
					<dim>64</dim>
					<dim>100</dim>
					<dim>170</dim>
				</port>
			</input>
			<output>
				<port id="2">
					<dim>1</dim>
					<dim>64</dim>
					<dim>100</dim>
					<dim>170</dim>
				</port>
			</output>
		</layer>
		<layer id="61" name="bottleneck2_3/fn" precision="FP16" type="ReLU">
			<data negative_slope="0.10000000149011612"/>
			<input>
				<port id="0">
					<dim>1</dim>
					<dim>64</dim>
					<dim>100</dim>
					<dim>170</dim>
				</port>
			</input>
			<output>
				<port id="1">
					<dim>1</dim>
					<dim>64</dim>
					<dim>100</dim>
					<dim>170</dim>
				</port>
			</output>
		</layer>
		<layer id="62" name="bottleneck2_4/dim_red/conv" precision="FP16" type="Convolution">
			<data dilations="1,1" group="1" kernel="1,1" output="16" pads_begin="0,0" pads_end="0,0" strides="1,1"/>
			<input>
				<port id="0">
					<dim>1</dim>
					<dim>64</dim>
					<dim>100</dim>
					<dim>170</dim>
				</port>
			</input>
			<output>
				<port id="3">
					<dim>1</dim>
					<dim>16</dim>
					<dim>100</dim>
					<dim>170</dim>
				</port>
			</output>
			<blobs>
				<weights offset="28364" size="2048"/>
				<biases offset="30412" size="32"/>
			</blobs>
		</layer>
		<layer id="63" name="bottleneck2_4/dim_red/fn" precision="FP16" type="ReLU">
			<data negative_slope="0.10000000149011612"/>
			<input>
				<port id="0">
					<dim>1</dim>
					<dim>16</dim>
					<dim>100</dim>
					<dim>170</dim>
				</port>
			</input>
			<output>
				<port id="1">
					<dim>1</dim>
					<dim>16</dim>
					<dim>100</dim>
					<dim>170</dim>
				</port>
			</output>
		</layer>
		<layer id="64" name="bottleneck2_4/inner/dw1/conv" precision="FP16" type="Convolution">
			<data dilations="1,1" group="16" kernel="3,3" output="16" pads_begin="1,1" pads_end="1,1" strides="1,1"/>
			<input>
				<port id="0">
					<dim>1</dim>
					<dim>16</dim>
					<dim>100</dim>
					<dim>170</dim>
				</port>
			</input>
			<output>
				<port id="3">
					<dim>1</dim>
					<dim>16</dim>
					<dim>100</dim>
					<dim>170</dim>
				</port>
			</output>
			<blobs>
				<weights offset="30444" size="288"/>
				<biases offset="30732" size="32"/>
			</blobs>
		</layer>
		<layer id="65" name="bottleneck2_4/inner/dw1/fn" precision="FP16" type="ReLU">
			<data negative_slope="0.10000000149011612"/>
			<input>
				<port id="0">
					<dim>1</dim>
					<dim>16</dim>
					<dim>100</dim>
					<dim>170</dim>
				</port>
			</input>
			<output>
				<port id="1">
					<dim>1</dim>
					<dim>16</dim>
					<dim>100</dim>
					<dim>170</dim>
				</port>
			</output>
		</layer>
		<layer id="66" name="bottleneck2_4/dim_inc/conv" precision="FP16" type="Convolution">
			<data dilations="1,1" group="1" kernel="1,1" output="64" pads_begin="0,0" pads_end="0,0" strides="1,1"/>
			<input>
				<port id="0">
					<dim>1</dim>
					<dim>16</dim>
					<dim>100</dim>
					<dim>170</dim>
				</port>
			</input>
			<output>
				<port id="3">
					<dim>1</dim>
					<dim>64</dim>
					<dim>100</dim>
					<dim>170</dim>
				</port>
			</output>
			<blobs>
				<weights offset="30764" size="2048"/>
				<biases offset="32812" size="128"/>
			</blobs>
		</layer>
		<layer id="67" name="bottleneck2_4/add" precision="FP16" type="Eltwise">
			<data coeff="" operation="sum"/>
			<input>
				<port id="0">
					<dim>1</dim>
					<dim>64</dim>
					<dim>100</dim>
					<dim>170</dim>
				</port>
				<port id="1">
					<dim>1</dim>
					<dim>64</dim>
					<dim>100</dim>
					<dim>170</dim>
				</port>
			</input>
			<output>
				<port id="2">
					<dim>1</dim>
					<dim>64</dim>
					<dim>100</dim>
					<dim>170</dim>
				</port>
			</output>
		</layer>
		<layer id="68" name="bottleneck2_4/fn" precision="FP16" type="ReLU">
			<data negative_slope="0.10000000149011612"/>
			<input>
				<port id="0">
					<dim>1</dim>
					<dim>64</dim>
					<dim>100</dim>
					<dim>170</dim>
				</port>
			</input>
			<output>
				<port id="1">
					<dim>1</dim>
					<dim>64</dim>
					<dim>100</dim>
					<dim>170</dim>
				</port>
			</output>
		</layer>
		<layer id="69" name="bottleneck2_5/dim_red/conv" precision="FP16" type="Convolution">
			<data dilations="1,1" group="1" kernel="1,1" output="16" pads_begin="0,0" pads_end="0,0" strides="1,1"/>
			<input>
				<port id="0">
					<dim>1</dim>
					<dim>64</dim>
					<dim>100</dim>
					<dim>170</dim>
				</port>
			</input>
			<output>
				<port id="3">
					<dim>1</dim>
					<dim>16</dim>
					<dim>100</dim>
					<dim>170</dim>
				</port>
			</output>
			<blobs>
				<weights offset="32940" size="2048"/>
				<biases offset="34988" size="32"/>
			</blobs>
		</layer>
		<layer id="70" name="bottleneck2_5/dim_red/fn" precision="FP16" type="ReLU">
			<data negative_slope="0.10000000149011612"/>
			<input>
				<port id="0">
					<dim>1</dim>
					<dim>16</dim>
					<dim>100</dim>
					<dim>170</dim>
				</port>
			</input>
			<output>
				<port id="1">
					<dim>1</dim>
					<dim>16</dim>
					<dim>100</dim>
					<dim>170</dim>
				</port>
			</output>
		</layer>
		<layer id="71" name="bottleneck2_5/inner/dw1/conv" precision="FP16" type="Convolution">
			<data dilations="1,1" group="16" kernel="3,3" output="16" pads_begin="1,1" pads_end="1,1" strides="1,1"/>
			<input>
				<port id="0">
					<dim>1</dim>
					<dim>16</dim>
					<dim>100</dim>
					<dim>170</dim>
				</port>
			</input>
			<output>
				<port id="3">
					<dim>1</dim>
					<dim>16</dim>
					<dim>100</dim>
					<dim>170</dim>
				</port>
			</output>
			<blobs>
				<weights offset="35020" size="288"/>
				<biases offset="35308" size="32"/>
			</blobs>
		</layer>
		<layer id="72" name="bottleneck2_5/inner/dw1/fn" precision="FP16" type="ReLU">
			<data negative_slope="0.10000000149011612"/>
			<input>
				<port id="0">
					<dim>1</dim>
					<dim>16</dim>
					<dim>100</dim>
					<dim>170</dim>
				</port>
			</input>
			<output>
				<port id="1">
					<dim>1</dim>
					<dim>16</dim>
					<dim>100</dim>
					<dim>170</dim>
				</port>
			</output>
		</layer>
		<layer id="73" name="bottleneck2_5/dim_inc/conv" precision="FP16" type="Convolution">
			<data dilations="1,1" group="1" kernel="1,1" output="64" pads_begin="0,0" pads_end="0,0" strides="1,1"/>
			<input>
				<port id="0">
					<dim>1</dim>
					<dim>16</dim>
					<dim>100</dim>
					<dim>170</dim>
				</port>
			</input>
			<output>
				<port id="3">
					<dim>1</dim>
					<dim>64</dim>
					<dim>100</dim>
					<dim>170</dim>
				</port>
			</output>
			<blobs>
				<weights offset="35340" size="2048"/>
				<biases offset="37388" size="128"/>
			</blobs>
		</layer>
		<layer id="74" name="bottleneck2_5/add" precision="FP16" type="Eltwise">
			<data coeff="" operation="sum"/>
			<input>
				<port id="0">
					<dim>1</dim>
					<dim>64</dim>
					<dim>100</dim>
					<dim>170</dim>
				</port>
				<port id="1">
					<dim>1</dim>
					<dim>64</dim>
					<dim>100</dim>
					<dim>170</dim>
				</port>
			</input>
			<output>
				<port id="2">
					<dim>1</dim>
					<dim>64</dim>
					<dim>100</dim>
					<dim>170</dim>
				</port>
			</output>
		</layer>
		<layer id="75" name="bottleneck2_5/fn" precision="FP16" type="ReLU">
			<data negative_slope="0.10000000149011612"/>
			<input>
				<port id="0">
					<dim>1</dim>
					<dim>64</dim>
					<dim>100</dim>
					<dim>170</dim>
				</port>
			</input>
			<output>
				<port id="1">
					<dim>1</dim>
					<dim>64</dim>
					<dim>100</dim>
					<dim>170</dim>
				</port>
			</output>
		</layer>
		<layer id="76" name="bottleneck2_6/dim_red/conv" precision="FP16" type="Convolution">
			<data dilations="1,1" group="1" kernel="1,1" output="16" pads_begin="0,0" pads_end="0,0" strides="1,1"/>
			<input>
				<port id="0">
					<dim>1</dim>
					<dim>64</dim>
					<dim>100</dim>
					<dim>170</dim>
				</port>
			</input>
			<output>
				<port id="3">
					<dim>1</dim>
					<dim>16</dim>
					<dim>100</dim>
					<dim>170</dim>
				</port>
			</output>
			<blobs>
				<weights offset="37516" size="2048"/>
				<biases offset="39564" size="32"/>
			</blobs>
		</layer>
		<layer id="77" name="bottleneck2_6/dim_red/fn" precision="FP16" type="ReLU">
			<data negative_slope="0.10000000149011612"/>
			<input>
				<port id="0">
					<dim>1</dim>
					<dim>16</dim>
					<dim>100</dim>
					<dim>170</dim>
				</port>
			</input>
			<output>
				<port id="1">
					<dim>1</dim>
					<dim>16</dim>
					<dim>100</dim>
					<dim>170</dim>
				</port>
			</output>
		</layer>
		<layer id="78" name="bottleneck2_6/inner/dw1/conv" precision="FP16" type="Convolution">
			<data dilations="1,1" group="16" kernel="3,3" output="16" pads_begin="1,1" pads_end="1,1" strides="1,1"/>
			<input>
				<port id="0">
					<dim>1</dim>
					<dim>16</dim>
					<dim>100</dim>
					<dim>170</dim>
				</port>
			</input>
			<output>
				<port id="3">
					<dim>1</dim>
					<dim>16</dim>
					<dim>100</dim>
					<dim>170</dim>
				</port>
			</output>
			<blobs>
				<weights offset="39596" size="288"/>
				<biases offset="39884" size="32"/>
			</blobs>
		</layer>
		<layer id="79" name="bottleneck2_6/inner/dw1/fn" precision="FP16" type="ReLU">
			<data negative_slope="0.10000000149011612"/>
			<input>
				<port id="0">
					<dim>1</dim>
					<dim>16</dim>
					<dim>100</dim>
					<dim>170</dim>
				</port>
			</input>
			<output>
				<port id="1">
					<dim>1</dim>
					<dim>16</dim>
					<dim>100</dim>
					<dim>170</dim>
				</port>
			</output>
		</layer>
		<layer id="80" name="bottleneck2_6/dim_inc/conv" precision="FP16" type="Convolution">
			<data dilations="1,1" group="1" kernel="1,1" output="64" pads_begin="0,0" pads_end="0,0" strides="1,1"/>
			<input>
				<port id="0">
					<dim>1</dim>
					<dim>16</dim>
					<dim>100</dim>
					<dim>170</dim>
				</port>
			</input>
			<output>
				<port id="3">
					<dim>1</dim>
					<dim>64</dim>
					<dim>100</dim>
					<dim>170</dim>
				</port>
			</output>
			<blobs>
				<weights offset="39916" size="2048"/>
				<biases offset="41964" size="128"/>
			</blobs>
		</layer>
		<layer id="81" name="bottleneck2_6/add" precision="FP16" type="Eltwise">
			<data coeff="" operation="sum"/>
			<input>
				<port id="0">
					<dim>1</dim>
					<dim>64</dim>
					<dim>100</dim>
					<dim>170</dim>
				</port>
				<port id="1">
					<dim>1</dim>
					<dim>64</dim>
					<dim>100</dim>
					<dim>170</dim>
				</port>
			</input>
			<output>
				<port id="2">
					<dim>1</dim>
					<dim>64</dim>
					<dim>100</dim>
					<dim>170</dim>
				</port>
			</output>
		</layer>
		<layer id="82" name="bottleneck2_6/fn" precision="FP16" type="ReLU">
			<data negative_slope="0.10000000149011612"/>
			<input>
				<port id="0">
					<dim>1</dim>
					<dim>64</dim>
					<dim>100</dim>
					<dim>170</dim>
				</port>
			</input>
			<output>
				<port id="1">
					<dim>1</dim>
					<dim>64</dim>
					<dim>100</dim>
					<dim>170</dim>
				</port>
			</output>
		</layer>
		<layer id="83" name="bottleneck2_7/dim_red/conv" precision="FP16" type="Convolution">
			<data dilations="1,1" group="1" kernel="1,1" output="16" pads_begin="0,0" pads_end="0,0" strides="1,1"/>
			<input>
				<port id="0">
					<dim>1</dim>
					<dim>64</dim>
					<dim>100</dim>
					<dim>170</dim>
				</port>
			</input>
			<output>
				<port id="3">
					<dim>1</dim>
					<dim>16</dim>
					<dim>100</dim>
					<dim>170</dim>
				</port>
			</output>
			<blobs>
				<weights offset="42092" size="2048"/>
				<biases offset="44140" size="32"/>
			</blobs>
		</layer>
		<layer id="84" name="bottleneck2_7/dim_red/fn" precision="FP16" type="ReLU">
			<data negative_slope="0.10000000149011612"/>
			<input>
				<port id="0">
					<dim>1</dim>
					<dim>16</dim>
					<dim>100</dim>
					<dim>170</dim>
				</port>
			</input>
			<output>
				<port id="1">
					<dim>1</dim>
					<dim>16</dim>
					<dim>100</dim>
					<dim>170</dim>
				</port>
			</output>
		</layer>
		<layer id="85" name="bottleneck2_7/inner/dw1/conv" precision="FP16" type="Convolution">
			<data dilations="1,1" group="16" kernel="3,3" output="16" pads_begin="1,1" pads_end="1,1" strides="1,1"/>
			<input>
				<port id="0">
					<dim>1</dim>
					<dim>16</dim>
					<dim>100</dim>
					<dim>170</dim>
				</port>
			</input>
			<output>
				<port id="3">
					<dim>1</dim>
					<dim>16</dim>
					<dim>100</dim>
					<dim>170</dim>
				</port>
			</output>
			<blobs>
				<weights offset="44172" size="288"/>
				<biases offset="44460" size="32"/>
			</blobs>
		</layer>
		<layer id="86" name="bottleneck2_7/inner/dw1/fn" precision="FP16" type="ReLU">
			<data negative_slope="0.10000000149011612"/>
			<input>
				<port id="0">
					<dim>1</dim>
					<dim>16</dim>
					<dim>100</dim>
					<dim>170</dim>
				</port>
			</input>
			<output>
				<port id="1">
					<dim>1</dim>
					<dim>16</dim>
					<dim>100</dim>
					<dim>170</dim>
				</port>
			</output>
		</layer>
		<layer id="87" name="bottleneck2_7/dim_inc/conv" precision="FP16" type="Convolution">
			<data dilations="1,1" group="1" kernel="1,1" output="64" pads_begin="0,0" pads_end="0,0" strides="1,1"/>
			<input>
				<port id="0">
					<dim>1</dim>
					<dim>16</dim>
					<dim>100</dim>
					<dim>170</dim>
				</port>
			</input>
			<output>
				<port id="3">
					<dim>1</dim>
					<dim>64</dim>
					<dim>100</dim>
					<dim>170</dim>
				</port>
			</output>
			<blobs>
				<weights offset="44492" size="2048"/>
				<biases offset="46540" size="128"/>
			</blobs>
		</layer>
		<layer id="88" name="bottleneck2_7/add" precision="FP16" type="Eltwise">
			<data coeff="" operation="sum"/>
			<input>
				<port id="0">
					<dim>1</dim>
					<dim>64</dim>
					<dim>100</dim>
					<dim>170</dim>
				</port>
				<port id="1">
					<dim>1</dim>
					<dim>64</dim>
					<dim>100</dim>
					<dim>170</dim>
				</port>
			</input>
			<output>
				<port id="2">
					<dim>1</dim>
					<dim>64</dim>
					<dim>100</dim>
					<dim>170</dim>
				</port>
			</output>
		</layer>
		<layer id="89" name="bottleneck2_7/fn" precision="FP16" type="ReLU">
			<data negative_slope="0.10000000149011612"/>
			<input>
				<port id="0">
					<dim>1</dim>
					<dim>64</dim>
					<dim>100</dim>
					<dim>170</dim>
				</port>
			</input>
			<output>
				<port id="1">
					<dim>1</dim>
					<dim>64</dim>
					<dim>100</dim>
					<dim>170</dim>
				</port>
			</output>
		</layer>
		<layer id="90" name="bottleneck2_8/dim_red/conv" precision="FP16" type="Convolution">
			<data dilations="1,1" group="1" kernel="1,1" output="16" pads_begin="0,0" pads_end="0,0" strides="1,1"/>
			<input>
				<port id="0">
					<dim>1</dim>
					<dim>64</dim>
					<dim>100</dim>
					<dim>170</dim>
				</port>
			</input>
			<output>
				<port id="3">
					<dim>1</dim>
					<dim>16</dim>
					<dim>100</dim>
					<dim>170</dim>
				</port>
			</output>
			<blobs>
				<weights offset="46668" size="2048"/>
				<biases offset="48716" size="32"/>
			</blobs>
		</layer>
		<layer id="91" name="bottleneck2_8/dim_red/fn" precision="FP16" type="ReLU">
			<data negative_slope="0.10000000149011612"/>
			<input>
				<port id="0">
					<dim>1</dim>
					<dim>16</dim>
					<dim>100</dim>
					<dim>170</dim>
				</port>
			</input>
			<output>
				<port id="1">
					<dim>1</dim>
					<dim>16</dim>
					<dim>100</dim>
					<dim>170</dim>
				</port>
			</output>
		</layer>
		<layer id="92" name="bottleneck2_8/inner/dw1/conv" precision="FP16" type="Convolution">
			<data dilations="1,1" group="16" kernel="3,3" output="16" pads_begin="1,1" pads_end="1,1" strides="1,1"/>
			<input>
				<port id="0">
					<dim>1</dim>
					<dim>16</dim>
					<dim>100</dim>
					<dim>170</dim>
				</port>
			</input>
			<output>
				<port id="3">
					<dim>1</dim>
					<dim>16</dim>
					<dim>100</dim>
					<dim>170</dim>
				</port>
			</output>
			<blobs>
				<weights offset="48748" size="288"/>
				<biases offset="49036" size="32"/>
			</blobs>
		</layer>
		<layer id="93" name="bottleneck2_8/inner/dw1/fn" precision="FP16" type="ReLU">
			<data negative_slope="0.10000000149011612"/>
			<input>
				<port id="0">
					<dim>1</dim>
					<dim>16</dim>
					<dim>100</dim>
					<dim>170</dim>
				</port>
			</input>
			<output>
				<port id="1">
					<dim>1</dim>
					<dim>16</dim>
					<dim>100</dim>
					<dim>170</dim>
				</port>
			</output>
		</layer>
		<layer id="94" name="bottleneck2_8/dim_inc/conv" precision="FP16" type="Convolution">
			<data dilations="1,1" group="1" kernel="1,1" output="64" pads_begin="0,0" pads_end="0,0" strides="1,1"/>
			<input>
				<port id="0">
					<dim>1</dim>
					<dim>16</dim>
					<dim>100</dim>
					<dim>170</dim>
				</port>
			</input>
			<output>
				<port id="3">
					<dim>1</dim>
					<dim>64</dim>
					<dim>100</dim>
					<dim>170</dim>
				</port>
			</output>
			<blobs>
				<weights offset="49068" size="2048"/>
				<biases offset="51116" size="128"/>
			</blobs>
		</layer>
		<layer id="95" name="bottleneck2_8/add" precision="FP16" type="Eltwise">
			<data coeff="" operation="sum"/>
			<input>
				<port id="0">
					<dim>1</dim>
					<dim>64</dim>
					<dim>100</dim>
					<dim>170</dim>
				</port>
				<port id="1">
					<dim>1</dim>
					<dim>64</dim>
					<dim>100</dim>
					<dim>170</dim>
				</port>
			</input>
			<output>
				<port id="2">
					<dim>1</dim>
					<dim>64</dim>
					<dim>100</dim>
					<dim>170</dim>
				</port>
			</output>
		</layer>
		<layer id="96" name="bottleneck2_8/fn" precision="FP16" type="ReLU">
			<data negative_slope="0.10000000149011612"/>
			<input>
				<port id="0">
					<dim>1</dim>
					<dim>64</dim>
					<dim>100</dim>
					<dim>170</dim>
				</port>
			</input>
			<output>
				<port id="1">
					<dim>1</dim>
					<dim>64</dim>
					<dim>100</dim>
					<dim>170</dim>
				</port>
			</output>
		</layer>
		<layer id="97" name="bottleneck3_0/skip/pooling" precision="FP16" type="Pooling">
			<data exclude-pad="true" kernel="2,2" pads_begin="0,0" pads_end="0,0" pool-method="max" rounding_type="ceil" strides="2,2"/>
			<input>
				<port id="0">
					<dim>1</dim>
					<dim>64</dim>
					<dim>100</dim>
					<dim>170</dim>
				</port>
			</input>
			<output>
				<port id="1">
					<dim>1</dim>
					<dim>64</dim>
					<dim>50</dim>
					<dim>85</dim>
				</port>
			</output>
		</layer>
		<layer id="98" name="bottleneck3_0/skip/conv" precision="FP16" type="Convolution">
			<data dilations="1,1" group="1" kernel="1,1" output="128" pads_begin="0,0" pads_end="0,0" strides="1,1"/>
			<input>
				<port id="0">
					<dim>1</dim>
					<dim>64</dim>
					<dim>50</dim>
					<dim>85</dim>
				</port>
			</input>
			<output>
				<port id="3">
					<dim>1</dim>
					<dim>128</dim>
					<dim>50</dim>
					<dim>85</dim>
				</port>
			</output>
			<blobs>
				<weights offset="51244" size="16384"/>
				<biases offset="67628" size="256"/>
			</blobs>
		</layer>
		<layer id="99" name="bottleneck3_0/dim_red/conv" precision="FP16" type="Convolution">
			<data dilations="1,1" group="1" kernel="1,1" output="32" pads_begin="0,0" pads_end="0,0" strides="1,1"/>
			<input>
				<port id="0">
					<dim>1</dim>
					<dim>64</dim>
					<dim>100</dim>
					<dim>170</dim>
				</port>
			</input>
			<output>
				<port id="3">
					<dim>1</dim>
					<dim>32</dim>
					<dim>100</dim>
					<dim>170</dim>
				</port>
			</output>
			<blobs>
				<weights offset="67884" size="4096"/>
				<biases offset="71980" size="64"/>
			</blobs>
		</layer>
		<layer id="100" name="bottleneck3_0/dim_red/fn" precision="FP16" type="ReLU">
			<data negative_slope="0.10000000149011612"/>
			<input>
				<port id="0">
					<dim>1</dim>
					<dim>32</dim>
					<dim>100</dim>
					<dim>170</dim>
				</port>
			</input>
			<output>
				<port id="1">
					<dim>1</dim>
					<dim>32</dim>
					<dim>100</dim>
					<dim>170</dim>
				</port>
			</output>
		</layer>
		<layer id="101" name="bottleneck3_0/inner/dw1/conv" precision="FP16" type="Convolution">
			<data dilations="1,1" group="32" kernel="3,3" output="32" pads_begin="1,1" pads_end="1,1" strides="2,2"/>
			<input>
				<port id="0">
					<dim>1</dim>
					<dim>32</dim>
					<dim>100</dim>
					<dim>170</dim>
				</port>
			</input>
			<output>
				<port id="3">
					<dim>1</dim>
					<dim>32</dim>
					<dim>50</dim>
					<dim>85</dim>
				</port>
			</output>
			<blobs>
				<weights offset="72044" size="576"/>
				<biases offset="72620" size="64"/>
			</blobs>
		</layer>
		<layer id="102" name="bottleneck3_0/inner/dw1/fn" precision="FP16" type="ReLU">
			<data negative_slope="0.10000000149011612"/>
			<input>
				<port id="0">
					<dim>1</dim>
					<dim>32</dim>
					<dim>50</dim>
					<dim>85</dim>
				</port>
			</input>
			<output>
				<port id="1">
					<dim>1</dim>
					<dim>32</dim>
					<dim>50</dim>
					<dim>85</dim>
				</port>
			</output>
		</layer>
		<layer id="103" name="bottleneck3_0/dim_inc/conv" precision="FP16" type="Convolution">
			<data dilations="1,1" group="1" kernel="1,1" output="128" pads_begin="0,0" pads_end="0,0" strides="1,1"/>
			<input>
				<port id="0">
					<dim>1</dim>
					<dim>32</dim>
					<dim>50</dim>
					<dim>85</dim>
				</port>
			</input>
			<output>
				<port id="3">
					<dim>1</dim>
					<dim>128</dim>
					<dim>50</dim>
					<dim>85</dim>
				</port>
			</output>
			<blobs>
				<weights offset="72684" size="8192"/>
				<biases offset="80876" size="256"/>
			</blobs>
		</layer>
		<layer id="104" name="bottleneck3_0/add" precision="FP16" type="Eltwise">
			<data coeff="" operation="sum"/>
			<input>
				<port id="0">
					<dim>1</dim>
					<dim>128</dim>
					<dim>50</dim>
					<dim>85</dim>
				</port>
				<port id="1">
					<dim>1</dim>
					<dim>128</dim>
					<dim>50</dim>
					<dim>85</dim>
				</port>
			</input>
			<output>
				<port id="2">
					<dim>1</dim>
					<dim>128</dim>
					<dim>50</dim>
					<dim>85</dim>
				</port>
			</output>
		</layer>
		<layer id="105" name="bottleneck3_0/fn" precision="FP16" type="ReLU">
			<data negative_slope="0.10000000149011612"/>
			<input>
				<port id="0">
					<dim>1</dim>
					<dim>128</dim>
					<dim>50</dim>
					<dim>85</dim>
				</port>
			</input>
			<output>
				<port id="1">
					<dim>1</dim>
					<dim>128</dim>
					<dim>50</dim>
					<dim>85</dim>
				</port>
			</output>
		</layer>
		<layer id="106" name="bottleneck3_1/dim_red/conv" precision="FP16" type="Convolution">
			<data dilations="1,1" group="1" kernel="1,1" output="32" pads_begin="0,0" pads_end="0,0" strides="1,1"/>
			<input>
				<port id="0">
					<dim>1</dim>
					<dim>128</dim>
					<dim>50</dim>
					<dim>85</dim>
				</port>
			</input>
			<output>
				<port id="3">
					<dim>1</dim>
					<dim>32</dim>
					<dim>50</dim>
					<dim>85</dim>
				</port>
			</output>
			<blobs>
				<weights offset="81132" size="8192"/>
				<biases offset="89324" size="64"/>
			</blobs>
		</layer>
		<layer id="107" name="bottleneck3_1/dim_red/fn" precision="FP16" type="ReLU">
			<data negative_slope="0.10000000149011612"/>
			<input>
				<port id="0">
					<dim>1</dim>
					<dim>32</dim>
					<dim>50</dim>
					<dim>85</dim>
				</port>
			</input>
			<output>
				<port id="1">
					<dim>1</dim>
					<dim>32</dim>
					<dim>50</dim>
					<dim>85</dim>
				</port>
			</output>
		</layer>
		<layer id="108" name="bottleneck3_1/inner/dw1/conv" precision="FP16" type="Convolution">
			<data dilations="1,1" group="32" kernel="3,3" output="32" pads_begin="1,1" pads_end="1,1" strides="1,1"/>
			<input>
				<port id="0">
					<dim>1</dim>
					<dim>32</dim>
					<dim>50</dim>
					<dim>85</dim>
				</port>
			</input>
			<output>
				<port id="3">
					<dim>1</dim>
					<dim>32</dim>
					<dim>50</dim>
					<dim>85</dim>
				</port>
			</output>
			<blobs>
				<weights offset="89388" size="576"/>
				<biases offset="89964" size="64"/>
			</blobs>
		</layer>
		<layer id="109" name="bottleneck3_1/inner/dw1/fn" precision="FP16" type="ReLU">
			<data negative_slope="0.10000000149011612"/>
			<input>
				<port id="0">
					<dim>1</dim>
					<dim>32</dim>
					<dim>50</dim>
					<dim>85</dim>
				</port>
			</input>
			<output>
				<port id="1">
					<dim>1</dim>
					<dim>32</dim>
					<dim>50</dim>
					<dim>85</dim>
				</port>
			</output>
		</layer>
		<layer id="110" name="bottleneck3_1/dim_inc/conv" precision="FP16" type="Convolution">
			<data dilations="1,1" group="1" kernel="1,1" output="128" pads_begin="0,0" pads_end="0,0" strides="1,1"/>
			<input>
				<port id="0">
					<dim>1</dim>
					<dim>32</dim>
					<dim>50</dim>
					<dim>85</dim>
				</port>
			</input>
			<output>
				<port id="3">
					<dim>1</dim>
					<dim>128</dim>
					<dim>50</dim>
					<dim>85</dim>
				</port>
			</output>
			<blobs>
				<weights offset="90028" size="8192"/>
				<biases offset="98220" size="256"/>
			</blobs>
		</layer>
		<layer id="111" name="bottleneck3_1/add" precision="FP16" type="Eltwise">
			<data coeff="" operation="sum"/>
			<input>
				<port id="0">
					<dim>1</dim>
					<dim>128</dim>
					<dim>50</dim>
					<dim>85</dim>
				</port>
				<port id="1">
					<dim>1</dim>
					<dim>128</dim>
					<dim>50</dim>
					<dim>85</dim>
				</port>
			</input>
			<output>
				<port id="2">
					<dim>1</dim>
					<dim>128</dim>
					<dim>50</dim>
					<dim>85</dim>
				</port>
			</output>
		</layer>
		<layer id="112" name="bottleneck3_1/fn" precision="FP16" type="ReLU">
			<data negative_slope="0.10000000149011612"/>
			<input>
				<port id="0">
					<dim>1</dim>
					<dim>128</dim>
					<dim>50</dim>
					<dim>85</dim>
				</port>
			</input>
			<output>
				<port id="1">
					<dim>1</dim>
					<dim>128</dim>
					<dim>50</dim>
					<dim>85</dim>
				</port>
			</output>
		</layer>
		<layer id="113" name="bottleneck3_2/dim_red/conv" precision="FP16" type="Convolution">
			<data dilations="1,1" group="1" kernel="1,1" output="32" pads_begin="0,0" pads_end="0,0" strides="1,1"/>
			<input>
				<port id="0">
					<dim>1</dim>
					<dim>128</dim>
					<dim>50</dim>
					<dim>85</dim>
				</port>
			</input>
			<output>
				<port id="3">
					<dim>1</dim>
					<dim>32</dim>
					<dim>50</dim>
					<dim>85</dim>
				</port>
			</output>
			<blobs>
				<weights offset="98476" size="8192"/>
				<biases offset="106668" size="64"/>
			</blobs>
		</layer>
		<layer id="114" name="bottleneck3_2/dim_red/fn" precision="FP16" type="ReLU">
			<data negative_slope="0.10000000149011612"/>
			<input>
				<port id="0">
					<dim>1</dim>
					<dim>32</dim>
					<dim>50</dim>
					<dim>85</dim>
				</port>
			</input>
			<output>
				<port id="1">
					<dim>1</dim>
					<dim>32</dim>
					<dim>50</dim>
					<dim>85</dim>
				</port>
			</output>
		</layer>
		<layer id="115" name="bottleneck3_2/inner/dw1/conv" precision="FP16" type="Convolution">
			<data dilations="1,1" group="32" kernel="3,3" output="32" pads_begin="1,1" pads_end="1,1" strides="1,1"/>
			<input>
				<port id="0">
					<dim>1</dim>
					<dim>32</dim>
					<dim>50</dim>
					<dim>85</dim>
				</port>
			</input>
			<output>
				<port id="3">
					<dim>1</dim>
					<dim>32</dim>
					<dim>50</dim>
					<dim>85</dim>
				</port>
			</output>
			<blobs>
				<weights offset="106732" size="576"/>
				<biases offset="107308" size="64"/>
			</blobs>
		</layer>
		<layer id="116" name="bottleneck3_2/inner/dw1/fn" precision="FP16" type="ReLU">
			<data negative_slope="0.10000000149011612"/>
			<input>
				<port id="0">
					<dim>1</dim>
					<dim>32</dim>
					<dim>50</dim>
					<dim>85</dim>
				</port>
			</input>
			<output>
				<port id="1">
					<dim>1</dim>
					<dim>32</dim>
					<dim>50</dim>
					<dim>85</dim>
				</port>
			</output>
		</layer>
		<layer id="117" name="bottleneck3_2/dim_inc/conv" precision="FP16" type="Convolution">
			<data dilations="1,1" group="1" kernel="1,1" output="128" pads_begin="0,0" pads_end="0,0" strides="1,1"/>
			<input>
				<port id="0">
					<dim>1</dim>
					<dim>32</dim>
					<dim>50</dim>
					<dim>85</dim>
				</port>
			</input>
			<output>
				<port id="3">
					<dim>1</dim>
					<dim>128</dim>
					<dim>50</dim>
					<dim>85</dim>
				</port>
			</output>
			<blobs>
				<weights offset="107372" size="8192"/>
				<biases offset="115564" size="256"/>
			</blobs>
		</layer>
		<layer id="118" name="bottleneck3_2/add" precision="FP16" type="Eltwise">
			<data coeff="" operation="sum"/>
			<input>
				<port id="0">
					<dim>1</dim>
					<dim>128</dim>
					<dim>50</dim>
					<dim>85</dim>
				</port>
				<port id="1">
					<dim>1</dim>
					<dim>128</dim>
					<dim>50</dim>
					<dim>85</dim>
				</port>
			</input>
			<output>
				<port id="2">
					<dim>1</dim>
					<dim>128</dim>
					<dim>50</dim>
					<dim>85</dim>
				</port>
			</output>
		</layer>
		<layer id="119" name="bottleneck3_2/fn" precision="FP16" type="ReLU">
			<data negative_slope="0.10000000149011612"/>
			<input>
				<port id="0">
					<dim>1</dim>
					<dim>128</dim>
					<dim>50</dim>
					<dim>85</dim>
				</port>
			</input>
			<output>
				<port id="1">
					<dim>1</dim>
					<dim>128</dim>
					<dim>50</dim>
					<dim>85</dim>
				</port>
			</output>
		</layer>
		<layer id="120" name="bottleneck3_3/dim_red/conv" precision="FP16" type="Convolution">
			<data dilations="1,1" group="1" kernel="1,1" output="32" pads_begin="0,0" pads_end="0,0" strides="1,1"/>
			<input>
				<port id="0">
					<dim>1</dim>
					<dim>128</dim>
					<dim>50</dim>
					<dim>85</dim>
				</port>
			</input>
			<output>
				<port id="3">
					<dim>1</dim>
					<dim>32</dim>
					<dim>50</dim>
					<dim>85</dim>
				</port>
			</output>
			<blobs>
				<weights offset="115820" size="8192"/>
				<biases offset="124012" size="64"/>
			</blobs>
		</layer>
		<layer id="121" name="bottleneck3_3/dim_red/fn" precision="FP16" type="ReLU">
			<data negative_slope="0.10000000149011612"/>
			<input>
				<port id="0">
					<dim>1</dim>
					<dim>32</dim>
					<dim>50</dim>
					<dim>85</dim>
				</port>
			</input>
			<output>
				<port id="1">
					<dim>1</dim>
					<dim>32</dim>
					<dim>50</dim>
					<dim>85</dim>
				</port>
			</output>
		</layer>
		<layer id="122" name="bottleneck3_3/inner/dw1/conv" precision="FP16" type="Convolution">
			<data dilations="1,1" group="32" kernel="3,3" output="32" pads_begin="1,1" pads_end="1,1" strides="1,1"/>
			<input>
				<port id="0">
					<dim>1</dim>
					<dim>32</dim>
					<dim>50</dim>
					<dim>85</dim>
				</port>
			</input>
			<output>
				<port id="3">
					<dim>1</dim>
					<dim>32</dim>
					<dim>50</dim>
					<dim>85</dim>
				</port>
			</output>
			<blobs>
				<weights offset="124076" size="576"/>
				<biases offset="124652" size="64"/>
			</blobs>
		</layer>
		<layer id="123" name="bottleneck3_3/inner/dw1/fn" precision="FP16" type="ReLU">
			<data negative_slope="0.10000000149011612"/>
			<input>
				<port id="0">
					<dim>1</dim>
					<dim>32</dim>
					<dim>50</dim>
					<dim>85</dim>
				</port>
			</input>
			<output>
				<port id="1">
					<dim>1</dim>
					<dim>32</dim>
					<dim>50</dim>
					<dim>85</dim>
				</port>
			</output>
		</layer>
		<layer id="124" name="bottleneck3_3/dim_inc/conv" precision="FP16" type="Convolution">
			<data dilations="1,1" group="1" kernel="1,1" output="128" pads_begin="0,0" pads_end="0,0" strides="1,1"/>
			<input>
				<port id="0">
					<dim>1</dim>
					<dim>32</dim>
					<dim>50</dim>
					<dim>85</dim>
				</port>
			</input>
			<output>
				<port id="3">
					<dim>1</dim>
					<dim>128</dim>
					<dim>50</dim>
					<dim>85</dim>
				</port>
			</output>
			<blobs>
				<weights offset="124716" size="8192"/>
				<biases offset="132908" size="256"/>
			</blobs>
		</layer>
		<layer id="125" name="bottleneck3_3/add" precision="FP16" type="Eltwise">
			<data coeff="" operation="sum"/>
			<input>
				<port id="0">
					<dim>1</dim>
					<dim>128</dim>
					<dim>50</dim>
					<dim>85</dim>
				</port>
				<port id="1">
					<dim>1</dim>
					<dim>128</dim>
					<dim>50</dim>
					<dim>85</dim>
				</port>
			</input>
			<output>
				<port id="2">
					<dim>1</dim>
					<dim>128</dim>
					<dim>50</dim>
					<dim>85</dim>
				</port>
			</output>
		</layer>
		<layer id="126" name="bottleneck3_3/fn" precision="FP16" type="ReLU">
			<data negative_slope="0.10000000149011612"/>
			<input>
				<port id="0">
					<dim>1</dim>
					<dim>128</dim>
					<dim>50</dim>
					<dim>85</dim>
				</port>
			</input>
			<output>
				<port id="1">
					<dim>1</dim>
					<dim>128</dim>
					<dim>50</dim>
					<dim>85</dim>
				</port>
			</output>
		</layer>
		<layer id="127" name="bottleneck3_4/dim_red/conv" precision="FP16" type="Convolution">
			<data dilations="1,1" group="1" kernel="1,1" output="32" pads_begin="0,0" pads_end="0,0" strides="1,1"/>
			<input>
				<port id="0">
					<dim>1</dim>
					<dim>128</dim>
					<dim>50</dim>
					<dim>85</dim>
				</port>
			</input>
			<output>
				<port id="3">
					<dim>1</dim>
					<dim>32</dim>
					<dim>50</dim>
					<dim>85</dim>
				</port>
			</output>
			<blobs>
				<weights offset="133164" size="8192"/>
				<biases offset="141356" size="64"/>
			</blobs>
		</layer>
		<layer id="128" name="bottleneck3_4/dim_red/fn" precision="FP16" type="ReLU">
			<data negative_slope="0.10000000149011612"/>
			<input>
				<port id="0">
					<dim>1</dim>
					<dim>32</dim>
					<dim>50</dim>
					<dim>85</dim>
				</port>
			</input>
			<output>
				<port id="1">
					<dim>1</dim>
					<dim>32</dim>
					<dim>50</dim>
					<dim>85</dim>
				</port>
			</output>
		</layer>
		<layer id="129" name="bottleneck3_4/inner/dw1/conv" precision="FP16" type="Convolution">
			<data dilations="1,1" group="32" kernel="3,3" output="32" pads_begin="1,1" pads_end="1,1" strides="1,1"/>
			<input>
				<port id="0">
					<dim>1</dim>
					<dim>32</dim>
					<dim>50</dim>
					<dim>85</dim>
				</port>
			</input>
			<output>
				<port id="3">
					<dim>1</dim>
					<dim>32</dim>
					<dim>50</dim>
					<dim>85</dim>
				</port>
			</output>
			<blobs>
				<weights offset="141420" size="576"/>
				<biases offset="141996" size="64"/>
			</blobs>
		</layer>
		<layer id="130" name="bottleneck3_4/inner/dw1/fn" precision="FP16" type="ReLU">
			<data negative_slope="0.10000000149011612"/>
			<input>
				<port id="0">
					<dim>1</dim>
					<dim>32</dim>
					<dim>50</dim>
					<dim>85</dim>
				</port>
			</input>
			<output>
				<port id="1">
					<dim>1</dim>
					<dim>32</dim>
					<dim>50</dim>
					<dim>85</dim>
				</port>
			</output>
		</layer>
		<layer id="131" name="bottleneck3_4/dim_inc/conv" precision="FP16" type="Convolution">
			<data dilations="1,1" group="1" kernel="1,1" output="128" pads_begin="0,0" pads_end="0,0" strides="1,1"/>
			<input>
				<port id="0">
					<dim>1</dim>
					<dim>32</dim>
					<dim>50</dim>
					<dim>85</dim>
				</port>
			</input>
			<output>
				<port id="3">
					<dim>1</dim>
					<dim>128</dim>
					<dim>50</dim>
					<dim>85</dim>
				</port>
			</output>
			<blobs>
				<weights offset="142060" size="8192"/>
				<biases offset="150252" size="256"/>
			</blobs>
		</layer>
		<layer id="132" name="bottleneck3_4/add" precision="FP16" type="Eltwise">
			<data coeff="" operation="sum"/>
			<input>
				<port id="0">
					<dim>1</dim>
					<dim>128</dim>
					<dim>50</dim>
					<dim>85</dim>
				</port>
				<port id="1">
					<dim>1</dim>
					<dim>128</dim>
					<dim>50</dim>
					<dim>85</dim>
				</port>
			</input>
			<output>
				<port id="2">
					<dim>1</dim>
					<dim>128</dim>
					<dim>50</dim>
					<dim>85</dim>
				</port>
			</output>
		</layer>
		<layer id="133" name="bottleneck3_4/fn" precision="FP16" type="ReLU">
			<data negative_slope="0.10000000149011612"/>
			<input>
				<port id="0">
					<dim>1</dim>
					<dim>128</dim>
					<dim>50</dim>
					<dim>85</dim>
				</port>
			</input>
			<output>
				<port id="1">
					<dim>1</dim>
					<dim>128</dim>
					<dim>50</dim>
					<dim>85</dim>
				</port>
			</output>
		</layer>
		<layer id="134" name="bottleneck3_5/dim_red/conv" precision="FP16" type="Convolution">
			<data dilations="1,1" group="1" kernel="1,1" output="32" pads_begin="0,0" pads_end="0,0" strides="1,1"/>
			<input>
				<port id="0">
					<dim>1</dim>
					<dim>128</dim>
					<dim>50</dim>
					<dim>85</dim>
				</port>
			</input>
			<output>
				<port id="3">
					<dim>1</dim>
					<dim>32</dim>
					<dim>50</dim>
					<dim>85</dim>
				</port>
			</output>
			<blobs>
				<weights offset="150508" size="8192"/>
				<biases offset="158700" size="64"/>
			</blobs>
		</layer>
		<layer id="135" name="bottleneck3_5/dim_red/fn" precision="FP16" type="ReLU">
			<data negative_slope="0.10000000149011612"/>
			<input>
				<port id="0">
					<dim>1</dim>
					<dim>32</dim>
					<dim>50</dim>
					<dim>85</dim>
				</port>
			</input>
			<output>
				<port id="1">
					<dim>1</dim>
					<dim>32</dim>
					<dim>50</dim>
					<dim>85</dim>
				</port>
			</output>
		</layer>
		<layer id="136" name="bottleneck3_5/inner/dw1/conv" precision="FP16" type="Convolution">
			<data dilations="1,1" group="32" kernel="3,3" output="32" pads_begin="1,1" pads_end="1,1" strides="1,1"/>
			<input>
				<port id="0">
					<dim>1</dim>
					<dim>32</dim>
					<dim>50</dim>
					<dim>85</dim>
				</port>
			</input>
			<output>
				<port id="3">
					<dim>1</dim>
					<dim>32</dim>
					<dim>50</dim>
					<dim>85</dim>
				</port>
			</output>
			<blobs>
				<weights offset="158764" size="576"/>
				<biases offset="159340" size="64"/>
			</blobs>
		</layer>
		<layer id="137" name="bottleneck3_5/inner/dw1/fn" precision="FP16" type="ReLU">
			<data negative_slope="0.10000000149011612"/>
			<input>
				<port id="0">
					<dim>1</dim>
					<dim>32</dim>
					<dim>50</dim>
					<dim>85</dim>
				</port>
			</input>
			<output>
				<port id="1">
					<dim>1</dim>
					<dim>32</dim>
					<dim>50</dim>
					<dim>85</dim>
				</port>
			</output>
		</layer>
		<layer id="138" name="bottleneck3_5/dim_inc/conv" precision="FP16" type="Convolution">
			<data dilations="1,1" group="1" kernel="1,1" output="128" pads_begin="0,0" pads_end="0,0" strides="1,1"/>
			<input>
				<port id="0">
					<dim>1</dim>
					<dim>32</dim>
					<dim>50</dim>
					<dim>85</dim>
				</port>
			</input>
			<output>
				<port id="3">
					<dim>1</dim>
					<dim>128</dim>
					<dim>50</dim>
					<dim>85</dim>
				</port>
			</output>
			<blobs>
				<weights offset="159404" size="8192"/>
				<biases offset="167596" size="256"/>
			</blobs>
		</layer>
		<layer id="139" name="bottleneck3_5/add" precision="FP16" type="Eltwise">
			<data coeff="" operation="sum"/>
			<input>
				<port id="0">
					<dim>1</dim>
					<dim>128</dim>
					<dim>50</dim>
					<dim>85</dim>
				</port>
				<port id="1">
					<dim>1</dim>
					<dim>128</dim>
					<dim>50</dim>
					<dim>85</dim>
				</port>
			</input>
			<output>
				<port id="2">
					<dim>1</dim>
					<dim>128</dim>
					<dim>50</dim>
					<dim>85</dim>
				</port>
			</output>
		</layer>
		<layer id="140" name="bottleneck3_5/fn" precision="FP16" type="ReLU">
			<data negative_slope="0.10000000149011612"/>
			<input>
				<port id="0">
					<dim>1</dim>
					<dim>128</dim>
					<dim>50</dim>
					<dim>85</dim>
				</port>
			</input>
			<output>
				<port id="1">
					<dim>1</dim>
					<dim>128</dim>
					<dim>50</dim>
					<dim>85</dim>
				</port>
			</output>
		</layer>
		<layer id="141" name="bottleneck3_6/dim_red/conv" precision="FP16" type="Convolution">
			<data dilations="1,1" group="1" kernel="1,1" output="32" pads_begin="0,0" pads_end="0,0" strides="1,1"/>
			<input>
				<port id="0">
					<dim>1</dim>
					<dim>128</dim>
					<dim>50</dim>
					<dim>85</dim>
				</port>
			</input>
			<output>
				<port id="3">
					<dim>1</dim>
					<dim>32</dim>
					<dim>50</dim>
					<dim>85</dim>
				</port>
			</output>
			<blobs>
				<weights offset="167852" size="8192"/>
				<biases offset="176044" size="64"/>
			</blobs>
		</layer>
		<layer id="142" name="bottleneck3_6/dim_red/fn" precision="FP16" type="ReLU">
			<data negative_slope="0.10000000149011612"/>
			<input>
				<port id="0">
					<dim>1</dim>
					<dim>32</dim>
					<dim>50</dim>
					<dim>85</dim>
				</port>
			</input>
			<output>
				<port id="1">
					<dim>1</dim>
					<dim>32</dim>
					<dim>50</dim>
					<dim>85</dim>
				</port>
			</output>
		</layer>
		<layer id="143" name="bottleneck3_6/inner/dw1/conv" precision="FP16" type="Convolution">
			<data dilations="1,1" group="32" kernel="3,3" output="32" pads_begin="1,1" pads_end="1,1" strides="1,1"/>
			<input>
				<port id="0">
					<dim>1</dim>
					<dim>32</dim>
					<dim>50</dim>
					<dim>85</dim>
				</port>
			</input>
			<output>
				<port id="3">
					<dim>1</dim>
					<dim>32</dim>
					<dim>50</dim>
					<dim>85</dim>
				</port>
			</output>
			<blobs>
				<weights offset="176108" size="576"/>
				<biases offset="176684" size="64"/>
			</blobs>
		</layer>
		<layer id="144" name="bottleneck3_6/inner/dw1/fn" precision="FP16" type="ReLU">
			<data negative_slope="0.10000000149011612"/>
			<input>
				<port id="0">
					<dim>1</dim>
					<dim>32</dim>
					<dim>50</dim>
					<dim>85</dim>
				</port>
			</input>
			<output>
				<port id="1">
					<dim>1</dim>
					<dim>32</dim>
					<dim>50</dim>
					<dim>85</dim>
				</port>
			</output>
		</layer>
		<layer id="145" name="bottleneck3_6/dim_inc/conv" precision="FP16" type="Convolution">
			<data dilations="1,1" group="1" kernel="1,1" output="128" pads_begin="0,0" pads_end="0,0" strides="1,1"/>
			<input>
				<port id="0">
					<dim>1</dim>
					<dim>32</dim>
					<dim>50</dim>
					<dim>85</dim>
				</port>
			</input>
			<output>
				<port id="3">
					<dim>1</dim>
					<dim>128</dim>
					<dim>50</dim>
					<dim>85</dim>
				</port>
			</output>
			<blobs>
				<weights offset="176748" size="8192"/>
				<biases offset="184940" size="256"/>
			</blobs>
		</layer>
		<layer id="146" name="bottleneck3_6/add" precision="FP16" type="Eltwise">
			<data coeff="" operation="sum"/>
			<input>
				<port id="0">
					<dim>1</dim>
					<dim>128</dim>
					<dim>50</dim>
					<dim>85</dim>
				</port>
				<port id="1">
					<dim>1</dim>
					<dim>128</dim>
					<dim>50</dim>
					<dim>85</dim>
				</port>
			</input>
			<output>
				<port id="2">
					<dim>1</dim>
					<dim>128</dim>
					<dim>50</dim>
					<dim>85</dim>
				</port>
			</output>
		</layer>
		<layer id="147" name="bottleneck3_6/fn" precision="FP16" type="ReLU">
			<data negative_slope="0.10000000149011612"/>
			<input>
				<port id="0">
					<dim>1</dim>
					<dim>128</dim>
					<dim>50</dim>
					<dim>85</dim>
				</port>
			</input>
			<output>
				<port id="1">
					<dim>1</dim>
					<dim>128</dim>
					<dim>50</dim>
					<dim>85</dim>
				</port>
			</output>
		</layer>
		<layer id="148" name="bottleneck3_7/dim_red/conv" precision="FP16" type="Convolution">
			<data dilations="1,1" group="1" kernel="1,1" output="32" pads_begin="0,0" pads_end="0,0" strides="1,1"/>
			<input>
				<port id="0">
					<dim>1</dim>
					<dim>128</dim>
					<dim>50</dim>
					<dim>85</dim>
				</port>
			</input>
			<output>
				<port id="3">
					<dim>1</dim>
					<dim>32</dim>
					<dim>50</dim>
					<dim>85</dim>
				</port>
			</output>
			<blobs>
				<weights offset="185196" size="8192"/>
				<biases offset="193388" size="64"/>
			</blobs>
		</layer>
		<layer id="149" name="bottleneck3_7/dim_red/fn" precision="FP16" type="ReLU">
			<data negative_slope="0.10000000149011612"/>
			<input>
				<port id="0">
					<dim>1</dim>
					<dim>32</dim>
					<dim>50</dim>
					<dim>85</dim>
				</port>
			</input>
			<output>
				<port id="1">
					<dim>1</dim>
					<dim>32</dim>
					<dim>50</dim>
					<dim>85</dim>
				</port>
			</output>
		</layer>
		<layer id="150" name="bottleneck3_7/inner/dw1/conv" precision="FP16" type="Convolution">
			<data dilations="1,1" group="32" kernel="3,3" output="32" pads_begin="1,1" pads_end="1,1" strides="1,1"/>
			<input>
				<port id="0">
					<dim>1</dim>
					<dim>32</dim>
					<dim>50</dim>
					<dim>85</dim>
				</port>
			</input>
			<output>
				<port id="3">
					<dim>1</dim>
					<dim>32</dim>
					<dim>50</dim>
					<dim>85</dim>
				</port>
			</output>
			<blobs>
				<weights offset="193452" size="576"/>
				<biases offset="194028" size="64"/>
			</blobs>
		</layer>
		<layer id="151" name="bottleneck3_7/inner/dw1/fn" precision="FP16" type="ReLU">
			<data negative_slope="0.10000000149011612"/>
			<input>
				<port id="0">
					<dim>1</dim>
					<dim>32</dim>
					<dim>50</dim>
					<dim>85</dim>
				</port>
			</input>
			<output>
				<port id="1">
					<dim>1</dim>
					<dim>32</dim>
					<dim>50</dim>
					<dim>85</dim>
				</port>
			</output>
		</layer>
		<layer id="152" name="bottleneck3_7/dim_inc/conv" precision="FP16" type="Convolution">
			<data dilations="1,1" group="1" kernel="1,1" output="128" pads_begin="0,0" pads_end="0,0" strides="1,1"/>
			<input>
				<port id="0">
					<dim>1</dim>
					<dim>32</dim>
					<dim>50</dim>
					<dim>85</dim>
				</port>
			</input>
			<output>
				<port id="3">
					<dim>1</dim>
					<dim>128</dim>
					<dim>50</dim>
					<dim>85</dim>
				</port>
			</output>
			<blobs>
				<weights offset="194092" size="8192"/>
				<biases offset="202284" size="256"/>
			</blobs>
		</layer>
		<layer id="153" name="bottleneck3_7/add" precision="FP16" type="Eltwise">
			<data coeff="" operation="sum"/>
			<input>
				<port id="0">
					<dim>1</dim>
					<dim>128</dim>
					<dim>50</dim>
					<dim>85</dim>
				</port>
				<port id="1">
					<dim>1</dim>
					<dim>128</dim>
					<dim>50</dim>
					<dim>85</dim>
				</port>
			</input>
			<output>
				<port id="2">
					<dim>1</dim>
					<dim>128</dim>
					<dim>50</dim>
					<dim>85</dim>
				</port>
			</output>
		</layer>
		<layer id="154" name="bottleneck3_7/fn" precision="FP16" type="ReLU">
			<data negative_slope="0.10000000149011612"/>
			<input>
				<port id="0">
					<dim>1</dim>
					<dim>128</dim>
					<dim>50</dim>
					<dim>85</dim>
				</port>
			</input>
			<output>
				<port id="1">
					<dim>1</dim>
					<dim>128</dim>
					<dim>50</dim>
					<dim>85</dim>
				</port>
			</output>
		</layer>
		<layer id="155" name="bottleneck3_8/dim_red/conv" precision="FP16" type="Convolution">
			<data dilations="1,1" group="1" kernel="1,1" output="32" pads_begin="0,0" pads_end="0,0" strides="1,1"/>
			<input>
				<port id="0">
					<dim>1</dim>
					<dim>128</dim>
					<dim>50</dim>
					<dim>85</dim>
				</port>
			</input>
			<output>
				<port id="3">
					<dim>1</dim>
					<dim>32</dim>
					<dim>50</dim>
					<dim>85</dim>
				</port>
			</output>
			<blobs>
				<weights offset="202540" size="8192"/>
				<biases offset="210732" size="64"/>
			</blobs>
		</layer>
		<layer id="156" name="bottleneck3_8/dim_red/fn" precision="FP16" type="ReLU">
			<data negative_slope="0.10000000149011612"/>
			<input>
				<port id="0">
					<dim>1</dim>
					<dim>32</dim>
					<dim>50</dim>
					<dim>85</dim>
				</port>
			</input>
			<output>
				<port id="1">
					<dim>1</dim>
					<dim>32</dim>
					<dim>50</dim>
					<dim>85</dim>
				</port>
			</output>
		</layer>
		<layer id="157" name="bottleneck3_8/inner/dw1/conv" precision="FP16" type="Convolution">
			<data dilations="1,1" group="32" kernel="3,3" output="32" pads_begin="1,1" pads_end="1,1" strides="1,1"/>
			<input>
				<port id="0">
					<dim>1</dim>
					<dim>32</dim>
					<dim>50</dim>
					<dim>85</dim>
				</port>
			</input>
			<output>
				<port id="3">
					<dim>1</dim>
					<dim>32</dim>
					<dim>50</dim>
					<dim>85</dim>
				</port>
			</output>
			<blobs>
				<weights offset="210796" size="576"/>
				<biases offset="211372" size="64"/>
			</blobs>
		</layer>
		<layer id="158" name="bottleneck3_8/inner/dw1/fn" precision="FP16" type="ReLU">
			<data negative_slope="0.10000000149011612"/>
			<input>
				<port id="0">
					<dim>1</dim>
					<dim>32</dim>
					<dim>50</dim>
					<dim>85</dim>
				</port>
			</input>
			<output>
				<port id="1">
					<dim>1</dim>
					<dim>32</dim>
					<dim>50</dim>
					<dim>85</dim>
				</port>
			</output>
		</layer>
		<layer id="159" name="bottleneck3_8/dim_inc/conv" precision="FP16" type="Convolution">
			<data dilations="1,1" group="1" kernel="1,1" output="128" pads_begin="0,0" pads_end="0,0" strides="1,1"/>
			<input>
				<port id="0">
					<dim>1</dim>
					<dim>32</dim>
					<dim>50</dim>
					<dim>85</dim>
				</port>
			</input>
			<output>
				<port id="3">
					<dim>1</dim>
					<dim>128</dim>
					<dim>50</dim>
					<dim>85</dim>
				</port>
			</output>
			<blobs>
				<weights offset="211436" size="8192"/>
				<biases offset="219628" size="256"/>
			</blobs>
		</layer>
		<layer id="160" name="bottleneck3_8/add" precision="FP16" type="Eltwise">
			<data coeff="" operation="sum"/>
			<input>
				<port id="0">
					<dim>1</dim>
					<dim>128</dim>
					<dim>50</dim>
					<dim>85</dim>
				</port>
				<port id="1">
					<dim>1</dim>
					<dim>128</dim>
					<dim>50</dim>
					<dim>85</dim>
				</port>
			</input>
			<output>
				<port id="2">
					<dim>1</dim>
					<dim>128</dim>
					<dim>50</dim>
					<dim>85</dim>
				</port>
			</output>
		</layer>
		<layer id="161" name="bottleneck3_8/fn" precision="FP16" type="ReLU">
			<data negative_slope="0.10000000149011612"/>
			<input>
				<port id="0">
					<dim>1</dim>
					<dim>128</dim>
					<dim>50</dim>
					<dim>85</dim>
				</port>
			</input>
			<output>
				<port id="1">
					<dim>1</dim>
					<dim>128</dim>
					<dim>50</dim>
					<dim>85</dim>
				</port>
			</output>
		</layer>
		<layer id="162" name="bottleneck3_9/dim_red/conv" precision="FP16" type="Convolution">
			<data dilations="1,1" group="1" kernel="1,1" output="32" pads_begin="0,0" pads_end="0,0" strides="1,1"/>
			<input>
				<port id="0">
					<dim>1</dim>
					<dim>128</dim>
					<dim>50</dim>
					<dim>85</dim>
				</port>
			</input>
			<output>
				<port id="3">
					<dim>1</dim>
					<dim>32</dim>
					<dim>50</dim>
					<dim>85</dim>
				</port>
			</output>
			<blobs>
				<weights offset="219884" size="8192"/>
				<biases offset="228076" size="64"/>
			</blobs>
		</layer>
		<layer id="163" name="bottleneck3_9/dim_red/fn" precision="FP16" type="ReLU">
			<data negative_slope="0.10000000149011612"/>
			<input>
				<port id="0">
					<dim>1</dim>
					<dim>32</dim>
					<dim>50</dim>
					<dim>85</dim>
				</port>
			</input>
			<output>
				<port id="1">
					<dim>1</dim>
					<dim>32</dim>
					<dim>50</dim>
					<dim>85</dim>
				</port>
			</output>
		</layer>
		<layer id="164" name="bottleneck3_9/inner/dw1/conv" precision="FP16" type="Convolution">
			<data dilations="1,1" group="32" kernel="3,3" output="32" pads_begin="1,1" pads_end="1,1" strides="1,1"/>
			<input>
				<port id="0">
					<dim>1</dim>
					<dim>32</dim>
					<dim>50</dim>
					<dim>85</dim>
				</port>
			</input>
			<output>
				<port id="3">
					<dim>1</dim>
					<dim>32</dim>
					<dim>50</dim>
					<dim>85</dim>
				</port>
			</output>
			<blobs>
				<weights offset="228140" size="576"/>
				<biases offset="228716" size="64"/>
			</blobs>
		</layer>
		<layer id="165" name="bottleneck3_9/inner/dw1/fn" precision="FP16" type="ReLU">
			<data negative_slope="0.10000000149011612"/>
			<input>
				<port id="0">
					<dim>1</dim>
					<dim>32</dim>
					<dim>50</dim>
					<dim>85</dim>
				</port>
			</input>
			<output>
				<port id="1">
					<dim>1</dim>
					<dim>32</dim>
					<dim>50</dim>
					<dim>85</dim>
				</port>
			</output>
		</layer>
		<layer id="166" name="bottleneck3_9/dim_inc/conv" precision="FP16" type="Convolution">
			<data dilations="1,1" group="1" kernel="1,1" output="128" pads_begin="0,0" pads_end="0,0" strides="1,1"/>
			<input>
				<port id="0">
					<dim>1</dim>
					<dim>32</dim>
					<dim>50</dim>
					<dim>85</dim>
				</port>
			</input>
			<output>
				<port id="3">
					<dim>1</dim>
					<dim>128</dim>
					<dim>50</dim>
					<dim>85</dim>
				</port>
			</output>
			<blobs>
				<weights offset="228780" size="8192"/>
				<biases offset="236972" size="256"/>
			</blobs>
		</layer>
		<layer id="167" name="bottleneck3_9/add" precision="FP16" type="Eltwise">
			<data coeff="" operation="sum"/>
			<input>
				<port id="0">
					<dim>1</dim>
					<dim>128</dim>
					<dim>50</dim>
					<dim>85</dim>
				</port>
				<port id="1">
					<dim>1</dim>
					<dim>128</dim>
					<dim>50</dim>
					<dim>85</dim>
				</port>
			</input>
			<output>
				<port id="2">
					<dim>1</dim>
					<dim>128</dim>
					<dim>50</dim>
					<dim>85</dim>
				</port>
			</output>
		</layer>
		<layer id="168" name="bottleneck3_9/fn" precision="FP16" type="ReLU">
			<data negative_slope="0.10000000149011612"/>
			<input>
				<port id="0">
					<dim>1</dim>
					<dim>128</dim>
					<dim>50</dim>
					<dim>85</dim>
				</port>
			</input>
			<output>
				<port id="1">
					<dim>1</dim>
					<dim>128</dim>
					<dim>50</dim>
					<dim>85</dim>
				</port>
			</output>
		</layer>
		<layer id="169" name="bottleneck3_10/dim_red/conv" precision="FP16" type="Convolution">
			<data dilations="1,1" group="1" kernel="1,1" output="32" pads_begin="0,0" pads_end="0,0" strides="1,1"/>
			<input>
				<port id="0">
					<dim>1</dim>
					<dim>128</dim>
					<dim>50</dim>
					<dim>85</dim>
				</port>
			</input>
			<output>
				<port id="3">
					<dim>1</dim>
					<dim>32</dim>
					<dim>50</dim>
					<dim>85</dim>
				</port>
			</output>
			<blobs>
				<weights offset="237228" size="8192"/>
				<biases offset="245420" size="64"/>
			</blobs>
		</layer>
		<layer id="170" name="bottleneck3_10/dim_red/fn" precision="FP16" type="ReLU">
			<data negative_slope="0.10000000149011612"/>
			<input>
				<port id="0">
					<dim>1</dim>
					<dim>32</dim>
					<dim>50</dim>
					<dim>85</dim>
				</port>
			</input>
			<output>
				<port id="1">
					<dim>1</dim>
					<dim>32</dim>
					<dim>50</dim>
					<dim>85</dim>
				</port>
			</output>
		</layer>
		<layer id="171" name="bottleneck3_10/inner/dw1/conv" precision="FP16" type="Convolution">
			<data dilations="1,1" group="32" kernel="3,3" output="32" pads_begin="1,1" pads_end="1,1" strides="1,1"/>
			<input>
				<port id="0">
					<dim>1</dim>
					<dim>32</dim>
					<dim>50</dim>
					<dim>85</dim>
				</port>
			</input>
			<output>
				<port id="3">
					<dim>1</dim>
					<dim>32</dim>
					<dim>50</dim>
					<dim>85</dim>
				</port>
			</output>
			<blobs>
				<weights offset="245484" size="576"/>
				<biases offset="246060" size="64"/>
			</blobs>
		</layer>
		<layer id="172" name="bottleneck3_10/inner/dw1/fn" precision="FP16" type="ReLU">
			<data negative_slope="0.10000000149011612"/>
			<input>
				<port id="0">
					<dim>1</dim>
					<dim>32</dim>
					<dim>50</dim>
					<dim>85</dim>
				</port>
			</input>
			<output>
				<port id="1">
					<dim>1</dim>
					<dim>32</dim>
					<dim>50</dim>
					<dim>85</dim>
				</port>
			</output>
		</layer>
		<layer id="173" name="bottleneck3_10/dim_inc/conv" precision="FP16" type="Convolution">
			<data dilations="1,1" group="1" kernel="1,1" output="128" pads_begin="0,0" pads_end="0,0" strides="1,1"/>
			<input>
				<port id="0">
					<dim>1</dim>
					<dim>32</dim>
					<dim>50</dim>
					<dim>85</dim>
				</port>
			</input>
			<output>
				<port id="3">
					<dim>1</dim>
					<dim>128</dim>
					<dim>50</dim>
					<dim>85</dim>
				</port>
			</output>
			<blobs>
				<weights offset="246124" size="8192"/>
				<biases offset="254316" size="256"/>
			</blobs>
		</layer>
		<layer id="174" name="bottleneck3_10/add" precision="FP16" type="Eltwise">
			<data coeff="" operation="sum"/>
			<input>
				<port id="0">
					<dim>1</dim>
					<dim>128</dim>
					<dim>50</dim>
					<dim>85</dim>
				</port>
				<port id="1">
					<dim>1</dim>
					<dim>128</dim>
					<dim>50</dim>
					<dim>85</dim>
				</port>
			</input>
			<output>
				<port id="2">
					<dim>1</dim>
					<dim>128</dim>
					<dim>50</dim>
					<dim>85</dim>
				</port>
			</output>
		</layer>
		<layer id="175" name="bottleneck3_10/fn" precision="FP16" type="ReLU">
			<data negative_slope="0.10000000149011612"/>
			<input>
				<port id="0">
					<dim>1</dim>
					<dim>128</dim>
					<dim>50</dim>
					<dim>85</dim>
				</port>
			</input>
			<output>
				<port id="1">
					<dim>1</dim>
					<dim>128</dim>
					<dim>50</dim>
					<dim>85</dim>
				</port>
			</output>
		</layer>
		<layer id="176" name="bottleneck4_0/skip/pooling" precision="FP16" type="Pooling">
			<data exclude-pad="true" kernel="2,2" pads_begin="0,0" pads_end="0,0" pool-method="max" rounding_type="ceil" strides="2,2"/>
			<input>
				<port id="0">
					<dim>1</dim>
					<dim>128</dim>
					<dim>50</dim>
					<dim>85</dim>
				</port>
			</input>
			<output>
				<port id="1">
					<dim>1</dim>
					<dim>128</dim>
					<dim>25</dim>
					<dim>43</dim>
				</port>
			</output>
		</layer>
		<layer id="177" name="bottleneck4_0/skip/conv" precision="FP16" type="Convolution">
			<data dilations="1,1" group="1" kernel="1,1" output="256" pads_begin="0,0" pads_end="0,0" strides="1,1"/>
			<input>
				<port id="0">
					<dim>1</dim>
					<dim>128</dim>
					<dim>25</dim>
					<dim>43</dim>
				</port>
			</input>
			<output>
				<port id="3">
					<dim>1</dim>
					<dim>256</dim>
					<dim>25</dim>
					<dim>43</dim>
				</port>
			</output>
			<blobs>
				<weights offset="254572" size="65536"/>
				<biases offset="320108" size="512"/>
			</blobs>
		</layer>
		<layer id="178" name="bottleneck4_0/dim_red/conv" precision="FP16" type="Convolution">
			<data dilations="1,1" group="1" kernel="1,1" output="64" pads_begin="0,0" pads_end="0,0" strides="1,1"/>
			<input>
				<port id="0">
					<dim>1</dim>
					<dim>128</dim>
					<dim>50</dim>
					<dim>85</dim>
				</port>
			</input>
			<output>
				<port id="3">
					<dim>1</dim>
					<dim>64</dim>
					<dim>50</dim>
					<dim>85</dim>
				</port>
			</output>
			<blobs>
				<weights offset="320620" size="16384"/>
				<biases offset="337004" size="128"/>
			</blobs>
		</layer>
		<layer id="179" name="bottleneck4_0/dim_red/fn" precision="FP16" type="ReLU">
			<data negative_slope="0.10000000149011612"/>
			<input>
				<port id="0">
					<dim>1</dim>
					<dim>64</dim>
					<dim>50</dim>
					<dim>85</dim>
				</port>
			</input>
			<output>
				<port id="1">
					<dim>1</dim>
					<dim>64</dim>
					<dim>50</dim>
					<dim>85</dim>
				</port>
			</output>
		</layer>
		<layer id="180" name="bottleneck4_0/inner/dw1/conv" precision="FP16" type="Convolution">
			<data dilations="1,1" group="64" kernel="3,3" output="64" pads_begin="1,1" pads_end="1,1" strides="2,2"/>
			<input>
				<port id="0">
					<dim>1</dim>
					<dim>64</dim>
					<dim>50</dim>
					<dim>85</dim>
				</port>
			</input>
			<output>
				<port id="3">
					<dim>1</dim>
					<dim>64</dim>
					<dim>25</dim>
					<dim>43</dim>
				</port>
			</output>
			<blobs>
				<weights offset="337132" size="1152"/>
				<biases offset="338284" size="128"/>
			</blobs>
		</layer>
		<layer id="181" name="bottleneck4_0/inner/dw1/fn" precision="FP16" type="ReLU">
			<data negative_slope="0.10000000149011612"/>
			<input>
				<port id="0">
					<dim>1</dim>
					<dim>64</dim>
					<dim>25</dim>
					<dim>43</dim>
				</port>
			</input>
			<output>
				<port id="1">
					<dim>1</dim>
					<dim>64</dim>
					<dim>25</dim>
					<dim>43</dim>
				</port>
			</output>
		</layer>
		<layer id="182" name="bottleneck4_0/dim_inc/conv" precision="FP16" type="Convolution">
			<data dilations="1,1" group="1" kernel="1,1" output="256" pads_begin="0,0" pads_end="0,0" strides="1,1"/>
			<input>
				<port id="0">
					<dim>1</dim>
					<dim>64</dim>
					<dim>25</dim>
					<dim>43</dim>
				</port>
			</input>
			<output>
				<port id="3">
					<dim>1</dim>
					<dim>256</dim>
					<dim>25</dim>
					<dim>43</dim>
				</port>
			</output>
			<blobs>
				<weights offset="338412" size="32768"/>
				<biases offset="371180" size="512"/>
			</blobs>
		</layer>
		<layer id="183" name="bottleneck4_0/add" precision="FP16" type="Eltwise">
			<data coeff="" operation="sum"/>
			<input>
				<port id="0">
					<dim>1</dim>
					<dim>256</dim>
					<dim>25</dim>
					<dim>43</dim>
				</port>
				<port id="1">
					<dim>1</dim>
					<dim>256</dim>
					<dim>25</dim>
					<dim>43</dim>
				</port>
			</input>
			<output>
				<port id="2">
					<dim>1</dim>
					<dim>256</dim>
					<dim>25</dim>
					<dim>43</dim>
				</port>
			</output>
		</layer>
		<layer id="184" name="bottleneck4_0/fn" precision="FP16" type="ReLU">
			<data negative_slope="0.10000000149011612"/>
			<input>
				<port id="0">
					<dim>1</dim>
					<dim>256</dim>
					<dim>25</dim>
					<dim>43</dim>
				</port>
			</input>
			<output>
				<port id="1">
					<dim>1</dim>
					<dim>256</dim>
					<dim>25</dim>
					<dim>43</dim>
				</port>
			</output>
		</layer>
		<layer id="185" name="bottleneck4_1/dim_red/conv" precision="FP16" type="Convolution">
			<data dilations="1,1" group="1" kernel="1,1" output="64" pads_begin="0,0" pads_end="0,0" strides="1,1"/>
			<input>
				<port id="0">
					<dim>1</dim>
					<dim>256</dim>
					<dim>25</dim>
					<dim>43</dim>
				</port>
			</input>
			<output>
				<port id="3">
					<dim>1</dim>
					<dim>64</dim>
					<dim>25</dim>
					<dim>43</dim>
				</port>
			</output>
			<blobs>
				<weights offset="371692" size="32768"/>
				<biases offset="404460" size="128"/>
			</blobs>
		</layer>
		<layer id="186" name="bottleneck4_1/dim_red/fn" precision="FP16" type="ReLU">
			<data negative_slope="0.10000000149011612"/>
			<input>
				<port id="0">
					<dim>1</dim>
					<dim>64</dim>
					<dim>25</dim>
					<dim>43</dim>
				</port>
			</input>
			<output>
				<port id="1">
					<dim>1</dim>
					<dim>64</dim>
					<dim>25</dim>
					<dim>43</dim>
				</port>
			</output>
		</layer>
		<layer id="187" name="bottleneck4_1/inner/dw1/conv" precision="FP16" type="Convolution">
			<data dilations="1,1" group="64" kernel="3,3" output="64" pads_begin="1,1" pads_end="1,1" strides="1,1"/>
			<input>
				<port id="0">
					<dim>1</dim>
					<dim>64</dim>
					<dim>25</dim>
					<dim>43</dim>
				</port>
			</input>
			<output>
				<port id="3">
					<dim>1</dim>
					<dim>64</dim>
					<dim>25</dim>
					<dim>43</dim>
				</port>
			</output>
			<blobs>
				<weights offset="404588" size="1152"/>
				<biases offset="405740" size="128"/>
			</blobs>
		</layer>
		<layer id="188" name="bottleneck4_1/inner/dw1/fn" precision="FP16" type="ReLU">
			<data negative_slope="0.10000000149011612"/>
			<input>
				<port id="0">
					<dim>1</dim>
					<dim>64</dim>
					<dim>25</dim>
					<dim>43</dim>
				</port>
			</input>
			<output>
				<port id="1">
					<dim>1</dim>
					<dim>64</dim>
					<dim>25</dim>
					<dim>43</dim>
				</port>
			</output>
		</layer>
		<layer id="189" name="bottleneck4_1/dim_inc/conv" precision="FP16" type="Convolution">
			<data dilations="1,1" group="1" kernel="1,1" output="256" pads_begin="0,0" pads_end="0,0" strides="1,1"/>
			<input>
				<port id="0">
					<dim>1</dim>
					<dim>64</dim>
					<dim>25</dim>
					<dim>43</dim>
				</port>
			</input>
			<output>
				<port id="3">
					<dim>1</dim>
					<dim>256</dim>
					<dim>25</dim>
					<dim>43</dim>
				</port>
			</output>
			<blobs>
				<weights offset="405868" size="32768"/>
				<biases offset="438636" size="512"/>
			</blobs>
		</layer>
		<layer id="190" name="bottleneck4_1/add" precision="FP16" type="Eltwise">
			<data coeff="" operation="sum"/>
			<input>
				<port id="0">
					<dim>1</dim>
					<dim>256</dim>
					<dim>25</dim>
					<dim>43</dim>
				</port>
				<port id="1">
					<dim>1</dim>
					<dim>256</dim>
					<dim>25</dim>
					<dim>43</dim>
				</port>
			</input>
			<output>
				<port id="2">
					<dim>1</dim>
					<dim>256</dim>
					<dim>25</dim>
					<dim>43</dim>
				</port>
			</output>
		</layer>
		<layer id="191" name="bottleneck4_1/fn" precision="FP16" type="ReLU">
			<data negative_slope="0.10000000149011612"/>
			<input>
				<port id="0">
					<dim>1</dim>
					<dim>256</dim>
					<dim>25</dim>
					<dim>43</dim>
				</port>
			</input>
			<output>
				<port id="1">
					<dim>1</dim>
					<dim>256</dim>
					<dim>25</dim>
					<dim>43</dim>
				</port>
			</output>
		</layer>
		<layer id="192" name="bottleneck4_2/dim_red/conv" precision="FP16" type="Convolution">
			<data dilations="1,1" group="1" kernel="1,1" output="64" pads_begin="0,0" pads_end="0,0" strides="1,1"/>
			<input>
				<port id="0">
					<dim>1</dim>
					<dim>256</dim>
					<dim>25</dim>
					<dim>43</dim>
				</port>
			</input>
			<output>
				<port id="3">
					<dim>1</dim>
					<dim>64</dim>
					<dim>25</dim>
					<dim>43</dim>
				</port>
			</output>
			<blobs>
				<weights offset="439148" size="32768"/>
				<biases offset="471916" size="128"/>
			</blobs>
		</layer>
		<layer id="193" name="bottleneck4_2/dim_red/fn" precision="FP16" type="ReLU">
			<data negative_slope="0.10000000149011612"/>
			<input>
				<port id="0">
					<dim>1</dim>
					<dim>64</dim>
					<dim>25</dim>
					<dim>43</dim>
				</port>
			</input>
			<output>
				<port id="1">
					<dim>1</dim>
					<dim>64</dim>
					<dim>25</dim>
					<dim>43</dim>
				</port>
			</output>
		</layer>
		<layer id="194" name="bottleneck4_2/inner/dw1/conv" precision="FP16" type="Convolution">
			<data dilations="1,1" group="64" kernel="3,3" output="64" pads_begin="1,1" pads_end="1,1" strides="1,1"/>
			<input>
				<port id="0">
					<dim>1</dim>
					<dim>64</dim>
					<dim>25</dim>
					<dim>43</dim>
				</port>
			</input>
			<output>
				<port id="3">
					<dim>1</dim>
					<dim>64</dim>
					<dim>25</dim>
					<dim>43</dim>
				</port>
			</output>
			<blobs>
				<weights offset="472044" size="1152"/>
				<biases offset="473196" size="128"/>
			</blobs>
		</layer>
		<layer id="195" name="bottleneck4_2/inner/dw1/fn" precision="FP16" type="ReLU">
			<data negative_slope="0.10000000149011612"/>
			<input>
				<port id="0">
					<dim>1</dim>
					<dim>64</dim>
					<dim>25</dim>
					<dim>43</dim>
				</port>
			</input>
			<output>
				<port id="1">
					<dim>1</dim>
					<dim>64</dim>
					<dim>25</dim>
					<dim>43</dim>
				</port>
			</output>
		</layer>
		<layer id="196" name="bottleneck4_2/dim_inc/conv" precision="FP16" type="Convolution">
			<data dilations="1,1" group="1" kernel="1,1" output="256" pads_begin="0,0" pads_end="0,0" strides="1,1"/>
			<input>
				<port id="0">
					<dim>1</dim>
					<dim>64</dim>
					<dim>25</dim>
					<dim>43</dim>
				</port>
			</input>
			<output>
				<port id="3">
					<dim>1</dim>
					<dim>256</dim>
					<dim>25</dim>
					<dim>43</dim>
				</port>
			</output>
			<blobs>
				<weights offset="473324" size="32768"/>
				<biases offset="506092" size="512"/>
			</blobs>
		</layer>
		<layer id="197" name="bottleneck4_2/add" precision="FP16" type="Eltwise">
			<data coeff="" operation="sum"/>
			<input>
				<port id="0">
					<dim>1</dim>
					<dim>256</dim>
					<dim>25</dim>
					<dim>43</dim>
				</port>
				<port id="1">
					<dim>1</dim>
					<dim>256</dim>
					<dim>25</dim>
					<dim>43</dim>
				</port>
			</input>
			<output>
				<port id="2">
					<dim>1</dim>
					<dim>256</dim>
					<dim>25</dim>
					<dim>43</dim>
				</port>
			</output>
		</layer>
		<layer id="198" name="bottleneck4_2/fn" precision="FP16" type="ReLU">
			<data negative_slope="0.10000000149011612"/>
			<input>
				<port id="0">
					<dim>1</dim>
					<dim>256</dim>
					<dim>25</dim>
					<dim>43</dim>
				</port>
			</input>
			<output>
				<port id="1">
					<dim>1</dim>
					<dim>256</dim>
					<dim>25</dim>
					<dim>43</dim>
				</port>
			</output>
		</layer>
		<layer id="199" name="bottleneck4_3/dim_red/conv" precision="FP16" type="Convolution">
			<data dilations="1,1" group="1" kernel="1,1" output="64" pads_begin="0,0" pads_end="0,0" strides="1,1"/>
			<input>
				<port id="0">
					<dim>1</dim>
					<dim>256</dim>
					<dim>25</dim>
					<dim>43</dim>
				</port>
			</input>
			<output>
				<port id="3">
					<dim>1</dim>
					<dim>64</dim>
					<dim>25</dim>
					<dim>43</dim>
				</port>
			</output>
			<blobs>
				<weights offset="506604" size="32768"/>
				<biases offset="539372" size="128"/>
			</blobs>
		</layer>
		<layer id="200" name="bottleneck4_3/dim_red/fn" precision="FP16" type="ReLU">
			<data negative_slope="0.10000000149011612"/>
			<input>
				<port id="0">
					<dim>1</dim>
					<dim>64</dim>
					<dim>25</dim>
					<dim>43</dim>
				</port>
			</input>
			<output>
				<port id="1">
					<dim>1</dim>
					<dim>64</dim>
					<dim>25</dim>
					<dim>43</dim>
				</port>
			</output>
		</layer>
		<layer id="201" name="bottleneck4_3/inner/dw1/conv" precision="FP16" type="Convolution">
			<data dilations="1,1" group="64" kernel="3,3" output="64" pads_begin="1,1" pads_end="1,1" strides="1,1"/>
			<input>
				<port id="0">
					<dim>1</dim>
					<dim>64</dim>
					<dim>25</dim>
					<dim>43</dim>
				</port>
			</input>
			<output>
				<port id="3">
					<dim>1</dim>
					<dim>64</dim>
					<dim>25</dim>
					<dim>43</dim>
				</port>
			</output>
			<blobs>
				<weights offset="539500" size="1152"/>
				<biases offset="540652" size="128"/>
			</blobs>
		</layer>
		<layer id="202" name="bottleneck4_3/inner/dw1/fn" precision="FP16" type="ReLU">
			<data negative_slope="0.10000000149011612"/>
			<input>
				<port id="0">
					<dim>1</dim>
					<dim>64</dim>
					<dim>25</dim>
					<dim>43</dim>
				</port>
			</input>
			<output>
				<port id="1">
					<dim>1</dim>
					<dim>64</dim>
					<dim>25</dim>
					<dim>43</dim>
				</port>
			</output>
		</layer>
		<layer id="203" name="bottleneck4_3/dim_inc/conv" precision="FP16" type="Convolution">
			<data dilations="1,1" group="1" kernel="1,1" output="256" pads_begin="0,0" pads_end="0,0" strides="1,1"/>
			<input>
				<port id="0">
					<dim>1</dim>
					<dim>64</dim>
					<dim>25</dim>
					<dim>43</dim>
				</port>
			</input>
			<output>
				<port id="3">
					<dim>1</dim>
					<dim>256</dim>
					<dim>25</dim>
					<dim>43</dim>
				</port>
			</output>
			<blobs>
				<weights offset="540780" size="32768"/>
				<biases offset="573548" size="512"/>
			</blobs>
		</layer>
		<layer id="204" name="bottleneck4_3/add" precision="FP16" type="Eltwise">
			<data coeff="" operation="sum"/>
			<input>
				<port id="0">
					<dim>1</dim>
					<dim>256</dim>
					<dim>25</dim>
					<dim>43</dim>
				</port>
				<port id="1">
					<dim>1</dim>
					<dim>256</dim>
					<dim>25</dim>
					<dim>43</dim>
				</port>
			</input>
			<output>
				<port id="2">
					<dim>1</dim>
					<dim>256</dim>
					<dim>25</dim>
					<dim>43</dim>
				</port>
			</output>
		</layer>
		<layer id="205" name="bottleneck4_3/fn" precision="FP16" type="ReLU">
			<data negative_slope="0.10000000149011612"/>
			<input>
				<port id="0">
					<dim>1</dim>
					<dim>256</dim>
					<dim>25</dim>
					<dim>43</dim>
				</port>
			</input>
			<output>
				<port id="1">
					<dim>1</dim>
					<dim>256</dim>
					<dim>25</dim>
					<dim>43</dim>
				</port>
			</output>
		</layer>
		<layer id="206" name="bottleneck4_4/dim_red/conv" precision="FP16" type="Convolution">
			<data dilations="1,1" group="1" kernel="1,1" output="64" pads_begin="0,0" pads_end="0,0" strides="1,1"/>
			<input>
				<port id="0">
					<dim>1</dim>
					<dim>256</dim>
					<dim>25</dim>
					<dim>43</dim>
				</port>
			</input>
			<output>
				<port id="3">
					<dim>1</dim>
					<dim>64</dim>
					<dim>25</dim>
					<dim>43</dim>
				</port>
			</output>
			<blobs>
				<weights offset="574060" size="32768"/>
				<biases offset="606828" size="128"/>
			</blobs>
		</layer>
		<layer id="207" name="bottleneck4_4/dim_red/fn" precision="FP16" type="ReLU">
			<data negative_slope="0.10000000149011612"/>
			<input>
				<port id="0">
					<dim>1</dim>
					<dim>64</dim>
					<dim>25</dim>
					<dim>43</dim>
				</port>
			</input>
			<output>
				<port id="1">
					<dim>1</dim>
					<dim>64</dim>
					<dim>25</dim>
					<dim>43</dim>
				</port>
			</output>
		</layer>
		<layer id="208" name="bottleneck4_4/inner/dw1/conv" precision="FP16" type="Convolution">
			<data dilations="1,1" group="64" kernel="3,3" output="64" pads_begin="1,1" pads_end="1,1" strides="1,1"/>
			<input>
				<port id="0">
					<dim>1</dim>
					<dim>64</dim>
					<dim>25</dim>
					<dim>43</dim>
				</port>
			</input>
			<output>
				<port id="3">
					<dim>1</dim>
					<dim>64</dim>
					<dim>25</dim>
					<dim>43</dim>
				</port>
			</output>
			<blobs>
				<weights offset="606956" size="1152"/>
				<biases offset="608108" size="128"/>
			</blobs>
		</layer>
		<layer id="209" name="bottleneck4_4/inner/dw1/fn" precision="FP16" type="ReLU">
			<data negative_slope="0.10000000149011612"/>
			<input>
				<port id="0">
					<dim>1</dim>
					<dim>64</dim>
					<dim>25</dim>
					<dim>43</dim>
				</port>
			</input>
			<output>
				<port id="1">
					<dim>1</dim>
					<dim>64</dim>
					<dim>25</dim>
					<dim>43</dim>
				</port>
			</output>
		</layer>
		<layer id="210" name="bottleneck4_4/dim_inc/conv" precision="FP16" type="Convolution">
			<data dilations="1,1" group="1" kernel="1,1" output="256" pads_begin="0,0" pads_end="0,0" strides="1,1"/>
			<input>
				<port id="0">
					<dim>1</dim>
					<dim>64</dim>
					<dim>25</dim>
					<dim>43</dim>
				</port>
			</input>
			<output>
				<port id="3">
					<dim>1</dim>
					<dim>256</dim>
					<dim>25</dim>
					<dim>43</dim>
				</port>
			</output>
			<blobs>
				<weights offset="608236" size="32768"/>
				<biases offset="641004" size="512"/>
			</blobs>
		</layer>
		<layer id="211" name="bottleneck4_4/add" precision="FP16" type="Eltwise">
			<data coeff="" operation="sum"/>
			<input>
				<port id="0">
					<dim>1</dim>
					<dim>256</dim>
					<dim>25</dim>
					<dim>43</dim>
				</port>
				<port id="1">
					<dim>1</dim>
					<dim>256</dim>
					<dim>25</dim>
					<dim>43</dim>
				</port>
			</input>
			<output>
				<port id="2">
					<dim>1</dim>
					<dim>256</dim>
					<dim>25</dim>
					<dim>43</dim>
				</port>
			</output>
		</layer>
		<layer id="212" name="bottleneck4_4/fn" precision="FP16" type="ReLU">
			<data negative_slope="0.10000000149011612"/>
			<input>
				<port id="0">
					<dim>1</dim>
					<dim>256</dim>
					<dim>25</dim>
					<dim>43</dim>
				</port>
			</input>
			<output>
				<port id="1">
					<dim>1</dim>
					<dim>256</dim>
					<dim>25</dim>
					<dim>43</dim>
				</port>
			</output>
		</layer>
		<layer id="213" name="bottleneck4_5/dim_red/conv" precision="FP16" type="Convolution">
			<data dilations="1,1" group="1" kernel="1,1" output="64" pads_begin="0,0" pads_end="0,0" strides="1,1"/>
			<input>
				<port id="0">
					<dim>1</dim>
					<dim>256</dim>
					<dim>25</dim>
					<dim>43</dim>
				</port>
			</input>
			<output>
				<port id="3">
					<dim>1</dim>
					<dim>64</dim>
					<dim>25</dim>
					<dim>43</dim>
				</port>
			</output>
			<blobs>
				<weights offset="641516" size="32768"/>
				<biases offset="674284" size="128"/>
			</blobs>
		</layer>
		<layer id="214" name="bottleneck4_5/dim_red/fn" precision="FP16" type="ReLU">
			<data negative_slope="0.10000000149011612"/>
			<input>
				<port id="0">
					<dim>1</dim>
					<dim>64</dim>
					<dim>25</dim>
					<dim>43</dim>
				</port>
			</input>
			<output>
				<port id="1">
					<dim>1</dim>
					<dim>64</dim>
					<dim>25</dim>
					<dim>43</dim>
				</port>
			</output>
		</layer>
		<layer id="215" name="bottleneck4_5/inner/dw1/conv" precision="FP16" type="Convolution">
			<data dilations="1,1" group="64" kernel="3,3" output="64" pads_begin="1,1" pads_end="1,1" strides="1,1"/>
			<input>
				<port id="0">
					<dim>1</dim>
					<dim>64</dim>
					<dim>25</dim>
					<dim>43</dim>
				</port>
			</input>
			<output>
				<port id="3">
					<dim>1</dim>
					<dim>64</dim>
					<dim>25</dim>
					<dim>43</dim>
				</port>
			</output>
			<blobs>
				<weights offset="674412" size="1152"/>
				<biases offset="675564" size="128"/>
			</blobs>
		</layer>
		<layer id="216" name="bottleneck4_5/inner/dw1/fn" precision="FP16" type="ReLU">
			<data negative_slope="0.10000000149011612"/>
			<input>
				<port id="0">
					<dim>1</dim>
					<dim>64</dim>
					<dim>25</dim>
					<dim>43</dim>
				</port>
			</input>
			<output>
				<port id="1">
					<dim>1</dim>
					<dim>64</dim>
					<dim>25</dim>
					<dim>43</dim>
				</port>
			</output>
		</layer>
		<layer id="217" name="bottleneck4_5/dim_inc/conv" precision="FP16" type="Convolution">
			<data dilations="1,1" group="1" kernel="1,1" output="256" pads_begin="0,0" pads_end="0,0" strides="1,1"/>
			<input>
				<port id="0">
					<dim>1</dim>
					<dim>64</dim>
					<dim>25</dim>
					<dim>43</dim>
				</port>
			</input>
			<output>
				<port id="3">
					<dim>1</dim>
					<dim>256</dim>
					<dim>25</dim>
					<dim>43</dim>
				</port>
			</output>
			<blobs>
				<weights offset="675692" size="32768"/>
				<biases offset="708460" size="512"/>
			</blobs>
		</layer>
		<layer id="218" name="bottleneck4_5/add" precision="FP16" type="Eltwise">
			<data coeff="" operation="sum"/>
			<input>
				<port id="0">
					<dim>1</dim>
					<dim>256</dim>
					<dim>25</dim>
					<dim>43</dim>
				</port>
				<port id="1">
					<dim>1</dim>
					<dim>256</dim>
					<dim>25</dim>
					<dim>43</dim>
				</port>
			</input>
			<output>
				<port id="2">
					<dim>1</dim>
					<dim>256</dim>
					<dim>25</dim>
					<dim>43</dim>
				</port>
			</output>
		</layer>
		<layer id="219" name="bottleneck4_5/fn" precision="FP16" type="ReLU">
			<data negative_slope="0.10000000149011612"/>
			<input>
				<port id="0">
					<dim>1</dim>
					<dim>256</dim>
					<dim>25</dim>
					<dim>43</dim>
				</port>
			</input>
			<output>
				<port id="1">
					<dim>1</dim>
					<dim>256</dim>
					<dim>25</dim>
					<dim>43</dim>
				</port>
			</output>
		</layer>
		<layer id="220" name="bottleneck4_6/dim_red/conv" precision="FP16" type="Convolution">
			<data dilations="1,1" group="1" kernel="1,1" output="64" pads_begin="0,0" pads_end="0,0" strides="1,1"/>
			<input>
				<port id="0">
					<dim>1</dim>
					<dim>256</dim>
					<dim>25</dim>
					<dim>43</dim>
				</port>
			</input>
			<output>
				<port id="3">
					<dim>1</dim>
					<dim>64</dim>
					<dim>25</dim>
					<dim>43</dim>
				</port>
			</output>
			<blobs>
				<weights offset="708972" size="32768"/>
				<biases offset="741740" size="128"/>
			</blobs>
		</layer>
		<layer id="221" name="bottleneck4_6/dim_red/fn" precision="FP16" type="ReLU">
			<data negative_slope="0.10000000149011612"/>
			<input>
				<port id="0">
					<dim>1</dim>
					<dim>64</dim>
					<dim>25</dim>
					<dim>43</dim>
				</port>
			</input>
			<output>
				<port id="1">
					<dim>1</dim>
					<dim>64</dim>
					<dim>25</dim>
					<dim>43</dim>
				</port>
			</output>
		</layer>
		<layer id="222" name="bottleneck4_6/inner/dw1/conv" precision="FP16" type="Convolution">
			<data dilations="1,1" group="64" kernel="3,3" output="64" pads_begin="1,1" pads_end="1,1" strides="1,1"/>
			<input>
				<port id="0">
					<dim>1</dim>
					<dim>64</dim>
					<dim>25</dim>
					<dim>43</dim>
				</port>
			</input>
			<output>
				<port id="3">
					<dim>1</dim>
					<dim>64</dim>
					<dim>25</dim>
					<dim>43</dim>
				</port>
			</output>
			<blobs>
				<weights offset="741868" size="1152"/>
				<biases offset="743020" size="128"/>
			</blobs>
		</layer>
		<layer id="223" name="bottleneck4_6/inner/dw1/fn" precision="FP16" type="ReLU">
			<data negative_slope="0.10000000149011612"/>
			<input>
				<port id="0">
					<dim>1</dim>
					<dim>64</dim>
					<dim>25</dim>
					<dim>43</dim>
				</port>
			</input>
			<output>
				<port id="1">
					<dim>1</dim>
					<dim>64</dim>
					<dim>25</dim>
					<dim>43</dim>
				</port>
			</output>
		</layer>
		<layer id="224" name="bottleneck4_6/dim_inc/conv" precision="FP16" type="Convolution">
			<data dilations="1,1" group="1" kernel="1,1" output="256" pads_begin="0,0" pads_end="0,0" strides="1,1"/>
			<input>
				<port id="0">
					<dim>1</dim>
					<dim>64</dim>
					<dim>25</dim>
					<dim>43</dim>
				</port>
			</input>
			<output>
				<port id="3">
					<dim>1</dim>
					<dim>256</dim>
					<dim>25</dim>
					<dim>43</dim>
				</port>
			</output>
			<blobs>
				<weights offset="743148" size="32768"/>
				<biases offset="775916" size="512"/>
			</blobs>
		</layer>
		<layer id="225" name="bottleneck4_6/add" precision="FP16" type="Eltwise">
			<data coeff="" operation="sum"/>
			<input>
				<port id="0">
					<dim>1</dim>
					<dim>256</dim>
					<dim>25</dim>
					<dim>43</dim>
				</port>
				<port id="1">
					<dim>1</dim>
					<dim>256</dim>
					<dim>25</dim>
					<dim>43</dim>
				</port>
			</input>
			<output>
				<port id="2">
					<dim>1</dim>
					<dim>256</dim>
					<dim>25</dim>
					<dim>43</dim>
				</port>
			</output>
		</layer>
		<layer id="226" name="bottleneck4_6/fn" precision="FP16" type="ReLU">
			<data negative_slope="0.10000000149011612"/>
			<input>
				<port id="0">
					<dim>1</dim>
					<dim>256</dim>
					<dim>25</dim>
					<dim>43</dim>
				</port>
			</input>
			<output>
				<port id="1">
					<dim>1</dim>
					<dim>256</dim>
					<dim>25</dim>
					<dim>43</dim>
				</port>
			</output>
		</layer>
		<layer id="227" name="bottleneck4_7/dim_red/conv" precision="FP16" type="Convolution">
			<data dilations="1,1" group="1" kernel="1,1" output="64" pads_begin="0,0" pads_end="0,0" strides="1,1"/>
			<input>
				<port id="0">
					<dim>1</dim>
					<dim>256</dim>
					<dim>25</dim>
					<dim>43</dim>
				</port>
			</input>
			<output>
				<port id="3">
					<dim>1</dim>
					<dim>64</dim>
					<dim>25</dim>
					<dim>43</dim>
				</port>
			</output>
			<blobs>
				<weights offset="776428" size="32768"/>
				<biases offset="809196" size="128"/>
			</blobs>
		</layer>
		<layer id="228" name="bottleneck4_7/dim_red/fn" precision="FP16" type="ReLU">
			<data negative_slope="0.10000000149011612"/>
			<input>
				<port id="0">
					<dim>1</dim>
					<dim>64</dim>
					<dim>25</dim>
					<dim>43</dim>
				</port>
			</input>
			<output>
				<port id="1">
					<dim>1</dim>
					<dim>64</dim>
					<dim>25</dim>
					<dim>43</dim>
				</port>
			</output>
		</layer>
		<layer id="229" name="bottleneck4_7/inner/dw1/conv" precision="FP16" type="Convolution">
			<data dilations="1,1" group="64" kernel="3,3" output="64" pads_begin="1,1" pads_end="1,1" strides="1,1"/>
			<input>
				<port id="0">
					<dim>1</dim>
					<dim>64</dim>
					<dim>25</dim>
					<dim>43</dim>
				</port>
			</input>
			<output>
				<port id="3">
					<dim>1</dim>
					<dim>64</dim>
					<dim>25</dim>
					<dim>43</dim>
				</port>
			</output>
			<blobs>
				<weights offset="809324" size="1152"/>
				<biases offset="810476" size="128"/>
			</blobs>
		</layer>
		<layer id="230" name="bottleneck4_7/inner/dw1/fn" precision="FP16" type="ReLU">
			<data negative_slope="0.10000000149011612"/>
			<input>
				<port id="0">
					<dim>1</dim>
					<dim>64</dim>
					<dim>25</dim>
					<dim>43</dim>
				</port>
			</input>
			<output>
				<port id="1">
					<dim>1</dim>
					<dim>64</dim>
					<dim>25</dim>
					<dim>43</dim>
				</port>
			</output>
		</layer>
		<layer id="231" name="bottleneck4_7/dim_inc/conv" precision="FP16" type="Convolution">
			<data dilations="1,1" group="1" kernel="1,1" output="256" pads_begin="0,0" pads_end="0,0" strides="1,1"/>
			<input>
				<port id="0">
					<dim>1</dim>
					<dim>64</dim>
					<dim>25</dim>
					<dim>43</dim>
				</port>
			</input>
			<output>
				<port id="3">
					<dim>1</dim>
					<dim>256</dim>
					<dim>25</dim>
					<dim>43</dim>
				</port>
			</output>
			<blobs>
				<weights offset="810604" size="32768"/>
				<biases offset="843372" size="512"/>
			</blobs>
		</layer>
		<layer id="232" name="bottleneck4_7/add" precision="FP16" type="Eltwise">
			<data coeff="" operation="sum"/>
			<input>
				<port id="0">
					<dim>1</dim>
					<dim>256</dim>
					<dim>25</dim>
					<dim>43</dim>
				</port>
				<port id="1">
					<dim>1</dim>
					<dim>256</dim>
					<dim>25</dim>
					<dim>43</dim>
				</port>
			</input>
			<output>
				<port id="2">
					<dim>1</dim>
					<dim>256</dim>
					<dim>25</dim>
					<dim>43</dim>
				</port>
			</output>
		</layer>
		<layer id="233" name="bottleneck4_7/fn" precision="FP16" type="ReLU">
			<data negative_slope="0.10000000149011612"/>
			<input>
				<port id="0">
					<dim>1</dim>
					<dim>256</dim>
					<dim>25</dim>
					<dim>43</dim>
				</port>
			</input>
			<output>
				<port id="1">
					<dim>1</dim>
					<dim>256</dim>
					<dim>25</dim>
					<dim>43</dim>
				</port>
			</output>
		</layer>
		<layer id="234" name="bottleneck4_8/dim_red/conv" precision="FP16" type="Convolution">
			<data dilations="1,1" group="1" kernel="1,1" output="64" pads_begin="0,0" pads_end="0,0" strides="1,1"/>
			<input>
				<port id="0">
					<dim>1</dim>
					<dim>256</dim>
					<dim>25</dim>
					<dim>43</dim>
				</port>
			</input>
			<output>
				<port id="3">
					<dim>1</dim>
					<dim>64</dim>
					<dim>25</dim>
					<dim>43</dim>
				</port>
			</output>
			<blobs>
				<weights offset="843884" size="32768"/>
				<biases offset="876652" size="128"/>
			</blobs>
		</layer>
		<layer id="235" name="bottleneck4_8/dim_red/fn" precision="FP16" type="ReLU">
			<data negative_slope="0.10000000149011612"/>
			<input>
				<port id="0">
					<dim>1</dim>
					<dim>64</dim>
					<dim>25</dim>
					<dim>43</dim>
				</port>
			</input>
			<output>
				<port id="1">
					<dim>1</dim>
					<dim>64</dim>
					<dim>25</dim>
					<dim>43</dim>
				</port>
			</output>
		</layer>
		<layer id="236" name="bottleneck4_8/inner/dw1/conv" precision="FP16" type="Convolution">
			<data dilations="1,1" group="64" kernel="3,3" output="64" pads_begin="1,1" pads_end="1,1" strides="1,1"/>
			<input>
				<port id="0">
					<dim>1</dim>
					<dim>64</dim>
					<dim>25</dim>
					<dim>43</dim>
				</port>
			</input>
			<output>
				<port id="3">
					<dim>1</dim>
					<dim>64</dim>
					<dim>25</dim>
					<dim>43</dim>
				</port>
			</output>
			<blobs>
				<weights offset="876780" size="1152"/>
				<biases offset="877932" size="128"/>
			</blobs>
		</layer>
		<layer id="237" name="bottleneck4_8/inner/dw1/fn" precision="FP16" type="ReLU">
			<data negative_slope="0.10000000149011612"/>
			<input>
				<port id="0">
					<dim>1</dim>
					<dim>64</dim>
					<dim>25</dim>
					<dim>43</dim>
				</port>
			</input>
			<output>
				<port id="1">
					<dim>1</dim>
					<dim>64</dim>
					<dim>25</dim>
					<dim>43</dim>
				</port>
			</output>
		</layer>
		<layer id="238" name="bottleneck4_8/dim_inc/conv" precision="FP16" type="Convolution">
			<data dilations="1,1" group="1" kernel="1,1" output="256" pads_begin="0,0" pads_end="0,0" strides="1,1"/>
			<input>
				<port id="0">
					<dim>1</dim>
					<dim>64</dim>
					<dim>25</dim>
					<dim>43</dim>
				</port>
			</input>
			<output>
				<port id="3">
					<dim>1</dim>
					<dim>256</dim>
					<dim>25</dim>
					<dim>43</dim>
				</port>
			</output>
			<blobs>
				<weights offset="878060" size="32768"/>
				<biases offset="910828" size="512"/>
			</blobs>
		</layer>
		<layer id="239" name="bottleneck4_8/add" precision="FP16" type="Eltwise">
			<data coeff="" operation="sum"/>
			<input>
				<port id="0">
					<dim>1</dim>
					<dim>256</dim>
					<dim>25</dim>
					<dim>43</dim>
				</port>
				<port id="1">
					<dim>1</dim>
					<dim>256</dim>
					<dim>25</dim>
					<dim>43</dim>
				</port>
			</input>
			<output>
				<port id="2">
					<dim>1</dim>
					<dim>256</dim>
					<dim>25</dim>
					<dim>43</dim>
				</port>
			</output>
		</layer>
		<layer id="240" name="bottleneck4_8/fn" precision="FP16" type="ReLU">
			<data negative_slope="0.10000000149011612"/>
			<input>
				<port id="0">
					<dim>1</dim>
					<dim>256</dim>
					<dim>25</dim>
					<dim>43</dim>
				</port>
			</input>
			<output>
				<port id="1">
					<dim>1</dim>
					<dim>256</dim>
					<dim>25</dim>
					<dim>43</dim>
				</port>
			</output>
		</layer>
		<layer id="241" name="bottleneck4_9/dim_red/conv" precision="FP16" type="Convolution">
			<data dilations="1,1" group="1" kernel="1,1" output="64" pads_begin="0,0" pads_end="0,0" strides="1,1"/>
			<input>
				<port id="0">
					<dim>1</dim>
					<dim>256</dim>
					<dim>25</dim>
					<dim>43</dim>
				</port>
			</input>
			<output>
				<port id="3">
					<dim>1</dim>
					<dim>64</dim>
					<dim>25</dim>
					<dim>43</dim>
				</port>
			</output>
			<blobs>
				<weights offset="911340" size="32768"/>
				<biases offset="944108" size="128"/>
			</blobs>
		</layer>
		<layer id="242" name="bottleneck4_9/dim_red/fn" precision="FP16" type="ReLU">
			<data negative_slope="0.10000000149011612"/>
			<input>
				<port id="0">
					<dim>1</dim>
					<dim>64</dim>
					<dim>25</dim>
					<dim>43</dim>
				</port>
			</input>
			<output>
				<port id="1">
					<dim>1</dim>
					<dim>64</dim>
					<dim>25</dim>
					<dim>43</dim>
				</port>
			</output>
		</layer>
		<layer id="243" name="bottleneck4_9/inner/dw1/conv" precision="FP16" type="Convolution">
			<data dilations="1,1" group="64" kernel="3,3" output="64" pads_begin="1,1" pads_end="1,1" strides="1,1"/>
			<input>
				<port id="0">
					<dim>1</dim>
					<dim>64</dim>
					<dim>25</dim>
					<dim>43</dim>
				</port>
			</input>
			<output>
				<port id="3">
					<dim>1</dim>
					<dim>64</dim>
					<dim>25</dim>
					<dim>43</dim>
				</port>
			</output>
			<blobs>
				<weights offset="944236" size="1152"/>
				<biases offset="945388" size="128"/>
			</blobs>
		</layer>
		<layer id="244" name="bottleneck4_9/inner/dw1/fn" precision="FP16" type="ReLU">
			<data negative_slope="0.10000000149011612"/>
			<input>
				<port id="0">
					<dim>1</dim>
					<dim>64</dim>
					<dim>25</dim>
					<dim>43</dim>
				</port>
			</input>
			<output>
				<port id="1">
					<dim>1</dim>
					<dim>64</dim>
					<dim>25</dim>
					<dim>43</dim>
				</port>
			</output>
		</layer>
		<layer id="245" name="bottleneck4_9/dim_inc/conv" precision="FP16" type="Convolution">
			<data dilations="1,1" group="1" kernel="1,1" output="256" pads_begin="0,0" pads_end="0,0" strides="1,1"/>
			<input>
				<port id="0">
					<dim>1</dim>
					<dim>64</dim>
					<dim>25</dim>
					<dim>43</dim>
				</port>
			</input>
			<output>
				<port id="3">
					<dim>1</dim>
					<dim>256</dim>
					<dim>25</dim>
					<dim>43</dim>
				</port>
			</output>
			<blobs>
				<weights offset="945516" size="32768"/>
				<biases offset="978284" size="512"/>
			</blobs>
		</layer>
		<layer id="246" name="bottleneck4_9/add" precision="FP16" type="Eltwise">
			<data coeff="" operation="sum"/>
			<input>
				<port id="0">
					<dim>1</dim>
					<dim>256</dim>
					<dim>25</dim>
					<dim>43</dim>
				</port>
				<port id="1">
					<dim>1</dim>
					<dim>256</dim>
					<dim>25</dim>
					<dim>43</dim>
				</port>
			</input>
			<output>
				<port id="2">
					<dim>1</dim>
					<dim>256</dim>
					<dim>25</dim>
					<dim>43</dim>
				</port>
			</output>
		</layer>
		<layer id="247" name="bottleneck4_9/fn" precision="FP16" type="ReLU">
			<data negative_slope="0.10000000149011612"/>
			<input>
				<port id="0">
					<dim>1</dim>
					<dim>256</dim>
					<dim>25</dim>
					<dim>43</dim>
				</port>
			</input>
			<output>
				<port id="1">
					<dim>1</dim>
					<dim>256</dim>
					<dim>25</dim>
					<dim>43</dim>
				</port>
			</output>
		</layer>
		<layer id="248" name="bottleneck4_10/dim_red/conv" precision="FP16" type="Convolution">
			<data dilations="1,1" group="1" kernel="1,1" output="64" pads_begin="0,0" pads_end="0,0" strides="1,1"/>
			<input>
				<port id="0">
					<dim>1</dim>
					<dim>256</dim>
					<dim>25</dim>
					<dim>43</dim>
				</port>
			</input>
			<output>
				<port id="3">
					<dim>1</dim>
					<dim>64</dim>
					<dim>25</dim>
					<dim>43</dim>
				</port>
			</output>
			<blobs>
				<weights offset="978796" size="32768"/>
				<biases offset="1011564" size="128"/>
			</blobs>
		</layer>
		<layer id="249" name="bottleneck4_10/dim_red/fn" precision="FP16" type="ReLU">
			<data negative_slope="0.10000000149011612"/>
			<input>
				<port id="0">
					<dim>1</dim>
					<dim>64</dim>
					<dim>25</dim>
					<dim>43</dim>
				</port>
			</input>
			<output>
				<port id="1">
					<dim>1</dim>
					<dim>64</dim>
					<dim>25</dim>
					<dim>43</dim>
				</port>
			</output>
		</layer>
		<layer id="250" name="bottleneck4_10/inner/dw1/conv" precision="FP16" type="Convolution">
			<data dilations="1,1" group="64" kernel="3,3" output="64" pads_begin="1,1" pads_end="1,1" strides="1,1"/>
			<input>
				<port id="0">
					<dim>1</dim>
					<dim>64</dim>
					<dim>25</dim>
					<dim>43</dim>
				</port>
			</input>
			<output>
				<port id="3">
					<dim>1</dim>
					<dim>64</dim>
					<dim>25</dim>
					<dim>43</dim>
				</port>
			</output>
			<blobs>
				<weights offset="1011692" size="1152"/>
				<biases offset="1012844" size="128"/>
			</blobs>
		</layer>
		<layer id="251" name="bottleneck4_10/inner/dw1/fn" precision="FP16" type="ReLU">
			<data negative_slope="0.10000000149011612"/>
			<input>
				<port id="0">
					<dim>1</dim>
					<dim>64</dim>
					<dim>25</dim>
					<dim>43</dim>
				</port>
			</input>
			<output>
				<port id="1">
					<dim>1</dim>
					<dim>64</dim>
					<dim>25</dim>
					<dim>43</dim>
				</port>
			</output>
		</layer>
		<layer id="252" name="bottleneck4_10/dim_inc/conv" precision="FP16" type="Convolution">
			<data dilations="1,1" group="1" kernel="1,1" output="256" pads_begin="0,0" pads_end="0,0" strides="1,1"/>
			<input>
				<port id="0">
					<dim>1</dim>
					<dim>64</dim>
					<dim>25</dim>
					<dim>43</dim>
				</port>
			</input>
			<output>
				<port id="3">
					<dim>1</dim>
					<dim>256</dim>
					<dim>25</dim>
					<dim>43</dim>
				</port>
			</output>
			<blobs>
				<weights offset="1012972" size="32768"/>
				<biases offset="1045740" size="512"/>
			</blobs>
		</layer>
		<layer id="253" name="bottleneck4_10/add" precision="FP16" type="Eltwise">
			<data coeff="" operation="sum"/>
			<input>
				<port id="0">
					<dim>1</dim>
					<dim>256</dim>
					<dim>25</dim>
					<dim>43</dim>
				</port>
				<port id="1">
					<dim>1</dim>
					<dim>256</dim>
					<dim>25</dim>
					<dim>43</dim>
				</port>
			</input>
			<output>
				<port id="2">
					<dim>1</dim>
					<dim>256</dim>
					<dim>25</dim>
					<dim>43</dim>
				</port>
			</output>
		</layer>
		<layer id="254" name="bottleneck4_10/fn" precision="FP16" type="ReLU">
			<data negative_slope="0.10000000149011612"/>
			<input>
				<port id="0">
					<dim>1</dim>
					<dim>256</dim>
					<dim>25</dim>
					<dim>43</dim>
				</port>
			</input>
			<output>
				<port id="1">
					<dim>1</dim>
					<dim>256</dim>
					<dim>25</dim>
					<dim>43</dim>
				</port>
			</output>
		</layer>
		<layer id="255" name="bottleneck4_11/dim_red/conv" precision="FP16" type="Convolution">
			<data dilations="1,1" group="1" kernel="1,1" output="64" pads_begin="0,0" pads_end="0,0" strides="1,1"/>
			<input>
				<port id="0">
					<dim>1</dim>
					<dim>256</dim>
					<dim>25</dim>
					<dim>43</dim>
				</port>
			</input>
			<output>
				<port id="3">
					<dim>1</dim>
					<dim>64</dim>
					<dim>25</dim>
					<dim>43</dim>
				</port>
			</output>
			<blobs>
				<weights offset="1046252" size="32768"/>
				<biases offset="1079020" size="128"/>
			</blobs>
		</layer>
		<layer id="256" name="bottleneck4_11/dim_red/fn" precision="FP16" type="ReLU">
			<data negative_slope="0.10000000149011612"/>
			<input>
				<port id="0">
					<dim>1</dim>
					<dim>64</dim>
					<dim>25</dim>
					<dim>43</dim>
				</port>
			</input>
			<output>
				<port id="1">
					<dim>1</dim>
					<dim>64</dim>
					<dim>25</dim>
					<dim>43</dim>
				</port>
			</output>
		</layer>
		<layer id="257" name="bottleneck4_11/inner/dw1/conv" precision="FP16" type="Convolution">
			<data dilations="1,1" group="64" kernel="3,3" output="64" pads_begin="1,1" pads_end="1,1" strides="1,1"/>
			<input>
				<port id="0">
					<dim>1</dim>
					<dim>64</dim>
					<dim>25</dim>
					<dim>43</dim>
				</port>
			</input>
			<output>
				<port id="3">
					<dim>1</dim>
					<dim>64</dim>
					<dim>25</dim>
					<dim>43</dim>
				</port>
			</output>
			<blobs>
				<weights offset="1079148" size="1152"/>
				<biases offset="1080300" size="128"/>
			</blobs>
		</layer>
		<layer id="258" name="bottleneck4_11/inner/dw1/fn" precision="FP16" type="ReLU">
			<data negative_slope="0.10000000149011612"/>
			<input>
				<port id="0">
					<dim>1</dim>
					<dim>64</dim>
					<dim>25</dim>
					<dim>43</dim>
				</port>
			</input>
			<output>
				<port id="1">
					<dim>1</dim>
					<dim>64</dim>
					<dim>25</dim>
					<dim>43</dim>
				</port>
			</output>
		</layer>
		<layer id="259" name="bottleneck4_11/dim_inc/conv" precision="FP16" type="Convolution">
			<data dilations="1,1" group="1" kernel="1,1" output="256" pads_begin="0,0" pads_end="0,0" strides="1,1"/>
			<input>
				<port id="0">
					<dim>1</dim>
					<dim>64</dim>
					<dim>25</dim>
					<dim>43</dim>
				</port>
			</input>
			<output>
				<port id="3">
					<dim>1</dim>
					<dim>256</dim>
					<dim>25</dim>
					<dim>43</dim>
				</port>
			</output>
			<blobs>
				<weights offset="1080428" size="32768"/>
				<biases offset="1113196" size="512"/>
			</blobs>
		</layer>
		<layer id="260" name="bottleneck4_11/add" precision="FP16" type="Eltwise">
			<data coeff="" operation="sum"/>
			<input>
				<port id="0">
					<dim>1</dim>
					<dim>256</dim>
					<dim>25</dim>
					<dim>43</dim>
				</port>
				<port id="1">
					<dim>1</dim>
					<dim>256</dim>
					<dim>25</dim>
					<dim>43</dim>
				</port>
			</input>
			<output>
				<port id="2">
					<dim>1</dim>
					<dim>256</dim>
					<dim>25</dim>
					<dim>43</dim>
				</port>
			</output>
		</layer>
		<layer id="261" name="bottleneck4_11/fn" precision="FP16" type="ReLU">
			<data negative_slope="0.10000000149011612"/>
			<input>
				<port id="0">
					<dim>1</dim>
					<dim>256</dim>
					<dim>25</dim>
					<dim>43</dim>
				</port>
			</input>
			<output>
				<port id="1">
					<dim>1</dim>
					<dim>256</dim>
					<dim>25</dim>
					<dim>43</dim>
				</port>
			</output>
		</layer>
		<layer id="262" name="mbox/priorbox" precision="FP16" type="PriorBoxClustered">
			<data clip="0" flip="1" height="67.03703308105469,90.37037658691406,129.25924682617188,190.00001525878906" offset="0.5" step="16.0" variance="0.10000000149011612,0.10000000149011612,0.20000000298023224,0.20000000298023224" width="29.927091598510742,41.43751525878906,58.08333969116211,91.02082061767578"/>
			<input>
				<port id="0">
					<dim>1</dim>
					<dim>256</dim>
					<dim>25</dim>
					<dim>43</dim>
				</port>
				<port id="1">
					<dim>1</dim>
					<dim>3</dim>
					<dim>400</dim>
					<dim>680</dim>
				</port>
			</input>
			<output>
				<port id="2">
					<dim>1</dim>
					<dim>2</dim>
					<dim>17200</dim>
				</port>
			</output>
		</layer>
		<layer id="263" name="mbox_loc1/out/conv" precision="FP16" type="Convolution">
			<data dilations="1,1" group="1" kernel="3,3" output="16" pads_begin="1,1" pads_end="1,1" strides="1,1"/>
			<input>
				<port id="0">
					<dim>1</dim>
					<dim>256</dim>
					<dim>25</dim>
					<dim>43</dim>
				</port>
			</input>
			<output>
				<port id="3">
					<dim>1</dim>
					<dim>16</dim>
					<dim>25</dim>
					<dim>43</dim>
				</port>
			</output>
			<blobs>
				<weights offset="1113708" size="73728"/>
				<biases offset="1187436" size="32"/>
			</blobs>
		</layer>
		<layer id="264" name="mbox_loc1/out/conv/perm" precision="FP16" type="Permute">
			<data order="0,2,3,1"/>
			<input>
				<port id="0">
					<dim>1</dim>
					<dim>16</dim>
					<dim>25</dim>
					<dim>43</dim>
				</port>
			</input>
			<output>
				<port id="1">
					<dim>1</dim>
					<dim>25</dim>
					<dim>43</dim>
					<dim>16</dim>
				</port>
			</output>
		</layer>
		<layer id="265" name="mbox_loc1/out/conv/flat" precision="FP16" type="Flatten">
			<data axis="1" end_axis="-1"/>
			<input>
				<port id="0">
					<dim>1</dim>
					<dim>25</dim>
					<dim>43</dim>
					<dim>16</dim>
				</port>
			</input>
			<output>
				<port id="1">
					<dim>1</dim>
					<dim>17200</dim>
				</port>
			</output>
		</layer>
		<layer id="266" name="mbox_conf1/out/conv" precision="FP16" type="Convolution">
			<data dilations="1,1" group="1" kernel="3,3" output="8" pads_begin="1,1" pads_end="1,1" strides="1,1"/>
			<input>
				<port id="0">
					<dim>1</dim>
					<dim>256</dim>
					<dim>25</dim>
					<dim>43</dim>
				</port>
			</input>
			<output>
				<port id="3">
					<dim>1</dim>
					<dim>8</dim>
					<dim>25</dim>
					<dim>43</dim>
				</port>
			</output>
			<blobs>
				<weights offset="1187468" size="36864"/>
				<biases offset="1224332" size="16"/>
			</blobs>
		</layer>
		<layer id="267" name="mbox_conf1/out/conv/perm" precision="FP16" type="Permute">
			<data order="0,2,3,1"/>
			<input>
				<port id="0">
					<dim>1</dim>
					<dim>8</dim>
					<dim>25</dim>
					<dim>43</dim>
				</port>
			</input>
			<output>
				<port id="1">
					<dim>1</dim>
					<dim>25</dim>
					<dim>43</dim>
					<dim>8</dim>
				</port>
			</output>
		</layer>
		<layer id="268" name="mbox_conf1/out/conv/flat" precision="FP16" type="Flatten">
			<data axis="1" end_axis="-1"/>
			<input>
				<port id="0">
					<dim>1</dim>
					<dim>25</dim>
					<dim>43</dim>
					<dim>8</dim>
				</port>
			</input>
			<output>
				<port id="1">
					<dim>1</dim>
					<dim>8600</dim>
				</port>
			</output>
		</layer>
		<layer id="269" name="mbox_main_conf/out/conv/flat/reshape" precision="FP16" type="Reshape">
			<data axis="0" dim="0,-1,2" num_axes="-1"/>
			<input>
				<port id="0">
					<dim>1</dim>
					<dim>8600</dim>
				</port>
			</input>
			<output>
				<port id="1">
					<dim>1</dim>
					<dim>4300</dim>
					<dim>2</dim>
				</port>
			</output>
		</layer>
		<layer id="270" name="mbox_main_conf/out/conv/flat/softmax" precision="FP16" type="SoftMax">
			<data axis="2"/>
			<input>
				<port id="0">
					<dim>1</dim>
					<dim>4300</dim>
					<dim>2</dim>
				</port>
			</input>
			<output>
				<port id="1">
					<dim>1</dim>
					<dim>4300</dim>
					<dim>2</dim>
				</port>
			</output>
		</layer>
		<layer id="271" name="mbox_main_conf/out/conv/flat/softmax/flat" precision="FP16" type="Flatten">
			<data axis="1" end_axis="-1"/>
			<input>
				<port id="0">
					<dim>1</dim>
					<dim>4300</dim>
					<dim>2</dim>
				</port>
			</input>
			<output>
				<port id="1">
					<dim>1</dim>
					<dim>8600</dim>
				</port>
			</output>
		</layer>
		<layer id="272" name="action/anchor1/det_dim_red/conv" precision="FP16" type="Convolution">
			<data dilations="1,1" group="1" kernel="1,1" output="128" pads_begin="0,0" pads_end="0,0" strides="1,1"/>
			<input>
				<port id="0">
					<dim>1</dim>
					<dim>256</dim>
					<dim>25</dim>
					<dim>43</dim>
				</port>
			</input>
			<output>
				<port id="3">
					<dim>1</dim>
					<dim>128</dim>
					<dim>25</dim>
					<dim>43</dim>
				</port>
			</output>
			<blobs>
				<weights offset="1224348" size="65536"/>
				<biases offset="1289884" size="256"/>
			</blobs>
		</layer>
		<layer id="273" name="action/anchor1/det_dim_red/normalize" precision="FP16" type="Normalize">
			<data across_spatial="0" channel_shared="1" eps="9.99999993922529e-09"/>
			<input>
				<port id="0">
					<dim>1</dim>
					<dim>128</dim>
					<dim>25</dim>
					<dim>43</dim>
				</port>
			</input>
			<output>
				<port id="2">
					<dim>1</dim>
					<dim>128</dim>
					<dim>25</dim>
					<dim>43</dim>
				</port>
			</output>
			<blobs>
				<weights offset="1290140" size="2"/>
			</blobs>
		</layer>
		<layer id="274" name="cross_branch2/conv" precision="FP16" type="Convolution">
			<data dilations="1,1" group="1" kernel="1,1" output="256" pads_begin="0,0" pads_end="0,0" strides="1,1"/>
			<input>
				<port id="0">
					<dim>1</dim>
					<dim>256</dim>
					<dim>25</dim>
					<dim>43</dim>
				</port>
			</input>
			<output>
				<port id="3">
					<dim>1</dim>
					<dim>256</dim>
					<dim>25</dim>
					<dim>43</dim>
				</port>
			</output>
			<blobs>
				<weights offset="1290142" size="131072"/>
				<biases offset="1421214" size="512"/>
			</blobs>
		</layer>
		<layer id="275" name="cross_branch1/conv" precision="FP16" type="Convolution">
			<data dilations="1,1" group="1" kernel="1,1" output="128" pads_begin="0,0" pads_end="0,0" strides="1,1"/>
			<input>
				<port id="0">
					<dim>1</dim>
					<dim>128</dim>
					<dim>50</dim>
					<dim>85</dim>
				</port>
			</input>
			<output>
				<port id="3">
					<dim>1</dim>
					<dim>128</dim>
					<dim>50</dim>
					<dim>85</dim>
				</port>
			</output>
			<blobs>
				<weights offset="1421726" size="32768"/>
				<biases offset="1454494" size="256"/>
			</blobs>
		</layer>
		<layer id="276" name="cl/bottleneck3_0/skip/pooling" precision="FP16" type="Pooling">
			<data exclude-pad="true" kernel="2,2" pads_begin="0,0" pads_end="0,0" pool-method="max" rounding_type="ceil" strides="2,2"/>
			<input>
				<port id="0">
					<dim>1</dim>
					<dim>64</dim>
					<dim>100</dim>
					<dim>170</dim>
				</port>
			</input>
			<output>
				<port id="1">
					<dim>1</dim>
					<dim>64</dim>
					<dim>50</dim>
					<dim>85</dim>
				</port>
			</output>
		</layer>
		<layer id="277" name="cl/bottleneck3_0/skip/conv" precision="FP16" type="Convolution">
			<data dilations="1,1" group="1" kernel="1,1" output="128" pads_begin="0,0" pads_end="0,0" strides="1,1"/>
			<input>
				<port id="0">
					<dim>1</dim>
					<dim>64</dim>
					<dim>50</dim>
					<dim>85</dim>
				</port>
			</input>
			<output>
				<port id="3">
					<dim>1</dim>
					<dim>128</dim>
					<dim>50</dim>
					<dim>85</dim>
				</port>
			</output>
			<blobs>
				<weights offset="1454750" size="16384"/>
				<biases offset="1471134" size="256"/>
			</blobs>
		</layer>
		<layer id="278" name="cl/bottleneck3_0/dim_red/conv" precision="FP16" type="Convolution">
			<data dilations="1,1" group="1" kernel="1,1" output="32" pads_begin="0,0" pads_end="0,0" strides="1,1"/>
			<input>
				<port id="0">
					<dim>1</dim>
					<dim>64</dim>
					<dim>100</dim>
					<dim>170</dim>
				</port>
			</input>
			<output>
				<port id="3">
					<dim>1</dim>
					<dim>32</dim>
					<dim>100</dim>
					<dim>170</dim>
				</port>
			</output>
			<blobs>
				<weights offset="1471390" size="4096"/>
				<biases offset="1475486" size="64"/>
			</blobs>
		</layer>
		<layer id="279" name="cl/bottleneck3_0/dim_red/fn" precision="FP16" type="ReLU">
			<data negative_slope="0.10000000149011612"/>
			<input>
				<port id="0">
					<dim>1</dim>
					<dim>32</dim>
					<dim>100</dim>
					<dim>170</dim>
				</port>
			</input>
			<output>
				<port id="1">
					<dim>1</dim>
					<dim>32</dim>
					<dim>100</dim>
					<dim>170</dim>
				</port>
			</output>
		</layer>
		<layer id="280" name="cl/bottleneck3_0/inner/dw1/conv" precision="FP16" type="Convolution">
			<data dilations="1,1" group="32" kernel="3,3" output="32" pads_begin="1,1" pads_end="1,1" strides="2,2"/>
			<input>
				<port id="0">
					<dim>1</dim>
					<dim>32</dim>
					<dim>100</dim>
					<dim>170</dim>
				</port>
			</input>
			<output>
				<port id="3">
					<dim>1</dim>
					<dim>32</dim>
					<dim>50</dim>
					<dim>85</dim>
				</port>
			</output>
			<blobs>
				<weights offset="1475550" size="576"/>
				<biases offset="1476126" size="64"/>
			</blobs>
		</layer>
		<layer id="281" name="cl/bottleneck3_0/inner/dw1/fn" precision="FP16" type="ReLU">
			<data negative_slope="0.10000000149011612"/>
			<input>
				<port id="0">
					<dim>1</dim>
					<dim>32</dim>
					<dim>50</dim>
					<dim>85</dim>
				</port>
			</input>
			<output>
				<port id="1">
					<dim>1</dim>
					<dim>32</dim>
					<dim>50</dim>
					<dim>85</dim>
				</port>
			</output>
		</layer>
		<layer id="282" name="cl/bottleneck3_0/dim_inc/conv" precision="FP16" type="Convolution">
			<data dilations="1,1" group="1" kernel="1,1" output="128" pads_begin="0,0" pads_end="0,0" strides="1,1"/>
			<input>
				<port id="0">
					<dim>1</dim>
					<dim>32</dim>
					<dim>50</dim>
					<dim>85</dim>
				</port>
			</input>
			<output>
				<port id="3">
					<dim>1</dim>
					<dim>128</dim>
					<dim>50</dim>
					<dim>85</dim>
				</port>
			</output>
			<blobs>
				<weights offset="1476190" size="8192"/>
				<biases offset="1484382" size="256"/>
			</blobs>
		</layer>
		<layer id="283" name="cl/bottleneck3_0/add" precision="FP16" type="Eltwise">
			<data coeff="" operation="sum"/>
			<input>
				<port id="0">
					<dim>1</dim>
					<dim>128</dim>
					<dim>50</dim>
					<dim>85</dim>
				</port>
				<port id="1">
					<dim>1</dim>
					<dim>128</dim>
					<dim>50</dim>
					<dim>85</dim>
				</port>
			</input>
			<output>
				<port id="2">
					<dim>1</dim>
					<dim>128</dim>
					<dim>50</dim>
					<dim>85</dim>
				</port>
			</output>
		</layer>
		<layer id="284" name="cl/bottleneck3_0/fn" precision="FP16" type="ReLU">
			<data negative_slope="0.10000000149011612"/>
			<input>
				<port id="0">
					<dim>1</dim>
					<dim>128</dim>
					<dim>50</dim>
					<dim>85</dim>
				</port>
			</input>
			<output>
				<port id="1">
					<dim>1</dim>
					<dim>128</dim>
					<dim>50</dim>
					<dim>85</dim>
				</port>
			</output>
		</layer>
		<layer id="285" name="cl/bottleneck3_1/dim_red/conv" precision="FP16" type="Convolution">
			<data dilations="1,1" group="1" kernel="1,1" output="32" pads_begin="0,0" pads_end="0,0" strides="1,1"/>
			<input>
				<port id="0">
					<dim>1</dim>
					<dim>128</dim>
					<dim>50</dim>
					<dim>85</dim>
				</port>
			</input>
			<output>
				<port id="3">
					<dim>1</dim>
					<dim>32</dim>
					<dim>50</dim>
					<dim>85</dim>
				</port>
			</output>
			<blobs>
				<weights offset="1484638" size="8192"/>
				<biases offset="1492830" size="64"/>
			</blobs>
		</layer>
		<layer id="286" name="cl/bottleneck3_1/dim_red/fn" precision="FP16" type="ReLU">
			<data negative_slope="0.10000000149011612"/>
			<input>
				<port id="0">
					<dim>1</dim>
					<dim>32</dim>
					<dim>50</dim>
					<dim>85</dim>
				</port>
			</input>
			<output>
				<port id="1">
					<dim>1</dim>
					<dim>32</dim>
					<dim>50</dim>
					<dim>85</dim>
				</port>
			</output>
		</layer>
		<layer id="287" name="cl/bottleneck3_1/inner/dw1/conv" precision="FP16" type="Convolution">
			<data dilations="1,1" group="32" kernel="3,3" output="32" pads_begin="1,1" pads_end="1,1" strides="1,1"/>
			<input>
				<port id="0">
					<dim>1</dim>
					<dim>32</dim>
					<dim>50</dim>
					<dim>85</dim>
				</port>
			</input>
			<output>
				<port id="3">
					<dim>1</dim>
					<dim>32</dim>
					<dim>50</dim>
					<dim>85</dim>
				</port>
			</output>
			<blobs>
				<weights offset="1492894" size="576"/>
				<biases offset="1493470" size="64"/>
			</blobs>
		</layer>
		<layer id="288" name="cl/bottleneck3_1/inner/dw1/fn" precision="FP16" type="ReLU">
			<data negative_slope="0.10000000149011612"/>
			<input>
				<port id="0">
					<dim>1</dim>
					<dim>32</dim>
					<dim>50</dim>
					<dim>85</dim>
				</port>
			</input>
			<output>
				<port id="1">
					<dim>1</dim>
					<dim>32</dim>
					<dim>50</dim>
					<dim>85</dim>
				</port>
			</output>
		</layer>
		<layer id="289" name="cl/bottleneck3_1/dim_inc/conv" precision="FP16" type="Convolution">
			<data dilations="1,1" group="1" kernel="1,1" output="128" pads_begin="0,0" pads_end="0,0" strides="1,1"/>
			<input>
				<port id="0">
					<dim>1</dim>
					<dim>32</dim>
					<dim>50</dim>
					<dim>85</dim>
				</port>
			</input>
			<output>
				<port id="3">
					<dim>1</dim>
					<dim>128</dim>
					<dim>50</dim>
					<dim>85</dim>
				</port>
			</output>
			<blobs>
				<weights offset="1493534" size="8192"/>
				<biases offset="1501726" size="256"/>
			</blobs>
		</layer>
		<layer id="290" name="cl/bottleneck3_1/add" precision="FP16" type="Eltwise">
			<data coeff="" operation="sum"/>
			<input>
				<port id="0">
					<dim>1</dim>
					<dim>128</dim>
					<dim>50</dim>
					<dim>85</dim>
				</port>
				<port id="1">
					<dim>1</dim>
					<dim>128</dim>
					<dim>50</dim>
					<dim>85</dim>
				</port>
			</input>
			<output>
				<port id="2">
					<dim>1</dim>
					<dim>128</dim>
					<dim>50</dim>
					<dim>85</dim>
				</port>
			</output>
		</layer>
		<layer id="291" name="cl/bottleneck3_1/fn" precision="FP16" type="ReLU">
			<data negative_slope="0.10000000149011612"/>
			<input>
				<port id="0">
					<dim>1</dim>
					<dim>128</dim>
					<dim>50</dim>
					<dim>85</dim>
				</port>
			</input>
			<output>
				<port id="1">
					<dim>1</dim>
					<dim>128</dim>
					<dim>50</dim>
					<dim>85</dim>
				</port>
			</output>
		</layer>
		<layer id="292" name="cl/bottleneck3_2/dim_red/conv" precision="FP16" type="Convolution">
			<data dilations="1,1" group="1" kernel="1,1" output="32" pads_begin="0,0" pads_end="0,0" strides="1,1"/>
			<input>
				<port id="0">
					<dim>1</dim>
					<dim>128</dim>
					<dim>50</dim>
					<dim>85</dim>
				</port>
			</input>
			<output>
				<port id="3">
					<dim>1</dim>
					<dim>32</dim>
					<dim>50</dim>
					<dim>85</dim>
				</port>
			</output>
			<blobs>
				<weights offset="1501982" size="8192"/>
				<biases offset="1510174" size="64"/>
			</blobs>
		</layer>
		<layer id="293" name="cl/bottleneck3_2/dim_red/fn" precision="FP16" type="ReLU">
			<data negative_slope="0.10000000149011612"/>
			<input>
				<port id="0">
					<dim>1</dim>
					<dim>32</dim>
					<dim>50</dim>
					<dim>85</dim>
				</port>
			</input>
			<output>
				<port id="1">
					<dim>1</dim>
					<dim>32</dim>
					<dim>50</dim>
					<dim>85</dim>
				</port>
			</output>
		</layer>
		<layer id="294" name="cl/bottleneck3_2/inner/dw1/conv" precision="FP16" type="Convolution">
			<data dilations="1,1" group="32" kernel="3,3" output="32" pads_begin="1,1" pads_end="1,1" strides="1,1"/>
			<input>
				<port id="0">
					<dim>1</dim>
					<dim>32</dim>
					<dim>50</dim>
					<dim>85</dim>
				</port>
			</input>
			<output>
				<port id="3">
					<dim>1</dim>
					<dim>32</dim>
					<dim>50</dim>
					<dim>85</dim>
				</port>
			</output>
			<blobs>
				<weights offset="1510238" size="576"/>
				<biases offset="1510814" size="64"/>
			</blobs>
		</layer>
		<layer id="295" name="cl/bottleneck3_2/inner/dw1/fn" precision="FP16" type="ReLU">
			<data negative_slope="0.10000000149011612"/>
			<input>
				<port id="0">
					<dim>1</dim>
					<dim>32</dim>
					<dim>50</dim>
					<dim>85</dim>
				</port>
			</input>
			<output>
				<port id="1">
					<dim>1</dim>
					<dim>32</dim>
					<dim>50</dim>
					<dim>85</dim>
				</port>
			</output>
		</layer>
		<layer id="296" name="cl/bottleneck3_2/dim_inc/conv" precision="FP16" type="Convolution">
			<data dilations="1,1" group="1" kernel="1,1" output="128" pads_begin="0,0" pads_end="0,0" strides="1,1"/>
			<input>
				<port id="0">
					<dim>1</dim>
					<dim>32</dim>
					<dim>50</dim>
					<dim>85</dim>
				</port>
			</input>
			<output>
				<port id="3">
					<dim>1</dim>
					<dim>128</dim>
					<dim>50</dim>
					<dim>85</dim>
				</port>
			</output>
			<blobs>
				<weights offset="1510878" size="8192"/>
				<biases offset="1519070" size="256"/>
			</blobs>
		</layer>
		<layer id="297" name="cl/bottleneck3_2/add" precision="FP16" type="Eltwise">
			<data coeff="" operation="sum"/>
			<input>
				<port id="0">
					<dim>1</dim>
					<dim>128</dim>
					<dim>50</dim>
					<dim>85</dim>
				</port>
				<port id="1">
					<dim>1</dim>
					<dim>128</dim>
					<dim>50</dim>
					<dim>85</dim>
				</port>
			</input>
			<output>
				<port id="2">
					<dim>1</dim>
					<dim>128</dim>
					<dim>50</dim>
					<dim>85</dim>
				</port>
			</output>
		</layer>
		<layer id="298" name="cl/bottleneck3_2/fn" precision="FP16" type="ReLU">
			<data negative_slope="0.10000000149011612"/>
			<input>
				<port id="0">
					<dim>1</dim>
					<dim>128</dim>
					<dim>50</dim>
					<dim>85</dim>
				</port>
			</input>
			<output>
				<port id="1">
					<dim>1</dim>
					<dim>128</dim>
					<dim>50</dim>
					<dim>85</dim>
				</port>
			</output>
		</layer>
		<layer id="299" name="cl/bottleneck3_3/dim_red/conv" precision="FP16" type="Convolution">
			<data dilations="1,1" group="1" kernel="1,1" output="32" pads_begin="0,0" pads_end="0,0" strides="1,1"/>
			<input>
				<port id="0">
					<dim>1</dim>
					<dim>128</dim>
					<dim>50</dim>
					<dim>85</dim>
				</port>
			</input>
			<output>
				<port id="3">
					<dim>1</dim>
					<dim>32</dim>
					<dim>50</dim>
					<dim>85</dim>
				</port>
			</output>
			<blobs>
				<weights offset="1519326" size="8192"/>
				<biases offset="1527518" size="64"/>
			</blobs>
		</layer>
		<layer id="300" name="cl/bottleneck3_3/dim_red/fn" precision="FP16" type="ReLU">
			<data negative_slope="0.10000000149011612"/>
			<input>
				<port id="0">
					<dim>1</dim>
					<dim>32</dim>
					<dim>50</dim>
					<dim>85</dim>
				</port>
			</input>
			<output>
				<port id="1">
					<dim>1</dim>
					<dim>32</dim>
					<dim>50</dim>
					<dim>85</dim>
				</port>
			</output>
		</layer>
		<layer id="301" name="cl/bottleneck3_3/inner/dw1/conv" precision="FP16" type="Convolution">
			<data dilations="1,1" group="32" kernel="3,3" output="32" pads_begin="1,1" pads_end="1,1" strides="1,1"/>
			<input>
				<port id="0">
					<dim>1</dim>
					<dim>32</dim>
					<dim>50</dim>
					<dim>85</dim>
				</port>
			</input>
			<output>
				<port id="3">
					<dim>1</dim>
					<dim>32</dim>
					<dim>50</dim>
					<dim>85</dim>
				</port>
			</output>
			<blobs>
				<weights offset="1527582" size="576"/>
				<biases offset="1528158" size="64"/>
			</blobs>
		</layer>
		<layer id="302" name="cl/bottleneck3_3/inner/dw1/fn" precision="FP16" type="ReLU">
			<data negative_slope="0.10000000149011612"/>
			<input>
				<port id="0">
					<dim>1</dim>
					<dim>32</dim>
					<dim>50</dim>
					<dim>85</dim>
				</port>
			</input>
			<output>
				<port id="1">
					<dim>1</dim>
					<dim>32</dim>
					<dim>50</dim>
					<dim>85</dim>
				</port>
			</output>
		</layer>
		<layer id="303" name="cl/bottleneck3_3/dim_inc/conv" precision="FP16" type="Convolution">
			<data dilations="1,1" group="1" kernel="1,1" output="128" pads_begin="0,0" pads_end="0,0" strides="1,1"/>
			<input>
				<port id="0">
					<dim>1</dim>
					<dim>32</dim>
					<dim>50</dim>
					<dim>85</dim>
				</port>
			</input>
			<output>
				<port id="3">
					<dim>1</dim>
					<dim>128</dim>
					<dim>50</dim>
					<dim>85</dim>
				</port>
			</output>
			<blobs>
				<weights offset="1528222" size="8192"/>
				<biases offset="1536414" size="256"/>
			</blobs>
		</layer>
		<layer id="304" name="cl/bottleneck3_3/add" precision="FP16" type="Eltwise">
			<data coeff="" operation="sum"/>
			<input>
				<port id="0">
					<dim>1</dim>
					<dim>128</dim>
					<dim>50</dim>
					<dim>85</dim>
				</port>
				<port id="1">
					<dim>1</dim>
					<dim>128</dim>
					<dim>50</dim>
					<dim>85</dim>
				</port>
			</input>
			<output>
				<port id="2">
					<dim>1</dim>
					<dim>128</dim>
					<dim>50</dim>
					<dim>85</dim>
				</port>
			</output>
		</layer>
		<layer id="305" name="cl/bottleneck3_3/fn" precision="FP16" type="ReLU">
			<data negative_slope="0.10000000149011612"/>
			<input>
				<port id="0">
					<dim>1</dim>
					<dim>128</dim>
					<dim>50</dim>
					<dim>85</dim>
				</port>
			</input>
			<output>
				<port id="1">
					<dim>1</dim>
					<dim>128</dim>
					<dim>50</dim>
					<dim>85</dim>
				</port>
			</output>
		</layer>
		<layer id="306" name="cl/bottleneck3_4/dim_red/conv" precision="FP16" type="Convolution">
			<data dilations="1,1" group="1" kernel="1,1" output="32" pads_begin="0,0" pads_end="0,0" strides="1,1"/>
			<input>
				<port id="0">
					<dim>1</dim>
					<dim>128</dim>
					<dim>50</dim>
					<dim>85</dim>
				</port>
			</input>
			<output>
				<port id="3">
					<dim>1</dim>
					<dim>32</dim>
					<dim>50</dim>
					<dim>85</dim>
				</port>
			</output>
			<blobs>
				<weights offset="1536670" size="8192"/>
				<biases offset="1544862" size="64"/>
			</blobs>
		</layer>
		<layer id="307" name="cl/bottleneck3_4/dim_red/fn" precision="FP16" type="ReLU">
			<data negative_slope="0.10000000149011612"/>
			<input>
				<port id="0">
					<dim>1</dim>
					<dim>32</dim>
					<dim>50</dim>
					<dim>85</dim>
				</port>
			</input>
			<output>
				<port id="1">
					<dim>1</dim>
					<dim>32</dim>
					<dim>50</dim>
					<dim>85</dim>
				</port>
			</output>
		</layer>
		<layer id="308" name="cl/bottleneck3_4/inner/dw1/conv" precision="FP16" type="Convolution">
			<data dilations="1,1" group="32" kernel="3,3" output="32" pads_begin="1,1" pads_end="1,1" strides="1,1"/>
			<input>
				<port id="0">
					<dim>1</dim>
…
					<dim>25</dim>
					<dim>43</dim>
				</port>
			</input>
			<output>
				<port id="3">
					<dim>1</dim>
					<dim>128</dim>
					<dim>25</dim>
					<dim>43</dim>
				</port>
			</output>
			<blobs>
				<weights offset="3439326" size="65536"/>
				<biases offset="3504862" size="256"/>
			</blobs>
		</layer>
		<layer id="479" name="action/anchor3/inner/fn" precision="FP16" type="ReLU">
			<data negative_slope="0.10000000149011612"/>
			<input>
				<port id="0">
					<dim>1</dim>
					<dim>128</dim>
					<dim>25</dim>
					<dim>43</dim>
				</port>
			</input>
			<output>
				<port id="1">
					<dim>1</dim>
					<dim>128</dim>
					<dim>25</dim>
					<dim>43</dim>
				</port>
			</output>
		</layer>
		<layer id="480" name="action/anchor3/out/conv" precision="FP16" type="Convolution">
			<data dilations="1,1" group="1" kernel="1,1" output="128" pads_begin="0,0" pads_end="0,0" strides="1,1"/>
			<input>
				<port id="0">
					<dim>1</dim>
					<dim>128</dim>
					<dim>25</dim>
					<dim>43</dim>
				</port>
			</input>
			<output>
				<port id="3">
					<dim>1</dim>
					<dim>128</dim>
					<dim>25</dim>
					<dim>43</dim>
				</port>
			</output>
			<blobs>
				<weights offset="3505118" size="32768"/>
				<biases offset="3537886" size="256"/>
			</blobs>
		</layer>
		<layer id="481" name="action/anchor3/normalize" precision="FP16" type="Normalize">
			<data across_spatial="0" channel_shared="1" eps="9.99999993922529e-09"/>
			<input>
				<port id="0">
					<dim>1</dim>
					<dim>128</dim>
					<dim>25</dim>
					<dim>43</dim>
				</port>
			</input>
			<output>
				<port id="2">
					<dim>1</dim>
					<dim>128</dim>
					<dim>25</dim>
					<dim>43</dim>
				</port>
			</output>
			<blobs>
				<weights offset="1290140" size="2"/>
			</blobs>
		</layer>
		<layer id="482" name="logits/anchor3" precision="FP16" type="Convolution">
			<data dilations="1,1" group="1" kernel="1,1" output="3" pads_begin="0,0" pads_end="0,0" strides="1,1"/>
			<input>
				<port id="0">
					<dim>1</dim>
					<dim>128</dim>
					<dim>25</dim>
					<dim>43</dim>
				</port>
			</input>
			<output>
				<port id="2">
					<dim>1</dim>
					<dim>3</dim>
					<dim>25</dim>
					<dim>43</dim>
				</port>
			</output>
			<blobs>
				<weights offset="2813406" size="768"/>
			</blobs>
		</layer>
		<layer id="483" name="logits/anchor3/perm" precision="FP16" type="Permute">
			<data order="0,2,3,1"/>
			<input>
				<port id="0">
					<dim>1</dim>
					<dim>3</dim>
					<dim>25</dim>
					<dim>43</dim>
				</port>
			</input>
			<output>
				<port id="1">
					<dim>1</dim>
					<dim>25</dim>
					<dim>43</dim>
					<dim>3</dim>
				</port>
			</output>
		</layer>
		<layer id="484" name="out/anchor3" precision="FP16" type="SoftMax">
			<data axis="3"/>
			<input>
				<port id="0">
					<dim>1</dim>
					<dim>25</dim>
					<dim>43</dim>
					<dim>3</dim>
				</port>
			</input>
			<output>
				<port id="1">
					<dim>1</dim>
					<dim>25</dim>
					<dim>43</dim>
					<dim>3</dim>
				</port>
			</output>
		</layer>
		<layer id="485" name="action/anchor4/det_dim_red/conv" precision="FP16" type="Convolution">
			<data dilations="1,1" group="1" kernel="1,1" output="128" pads_begin="0,0" pads_end="0,0" strides="1,1"/>
			<input>
				<port id="0">
					<dim>1</dim>
					<dim>256</dim>
					<dim>25</dim>
					<dim>43</dim>
				</port>
			</input>
			<output>
				<port id="3">
					<dim>1</dim>
					<dim>128</dim>
					<dim>25</dim>
					<dim>43</dim>
				</port>
			</output>
			<blobs>
				<weights offset="3538142" size="65536"/>
				<biases offset="3603678" size="256"/>
			</blobs>
		</layer>
		<layer id="486" name="action/anchor4/det_dim_red/normalize" precision="FP16" type="Normalize">
			<data across_spatial="0" channel_shared="1" eps="9.99999993922529e-09"/>
			<input>
				<port id="0">
					<dim>1</dim>
					<dim>128</dim>
					<dim>25</dim>
					<dim>43</dim>
				</port>
			</input>
			<output>
				<port id="2">
					<dim>1</dim>
					<dim>128</dim>
					<dim>25</dim>
					<dim>43</dim>
				</port>
			</output>
			<blobs>
				<weights offset="1290140" size="2"/>
			</blobs>
		</layer>
		<layer id="487" name="action/anchor4/action_dim_red/conv" precision="FP16" type="Convolution">
			<data dilations="1,1" group="1" kernel="1,1" output="128" pads_begin="0,0" pads_end="0,0" strides="1,1"/>
			<input>
				<port id="0">
					<dim>1</dim>
					<dim>256</dim>
					<dim>25</dim>
					<dim>43</dim>
				</port>
			</input>
			<output>
				<port id="3">
					<dim>1</dim>
					<dim>128</dim>
					<dim>25</dim>
					<dim>43</dim>
				</port>
			</output>
			<blobs>
				<weights offset="3603934" size="65536"/>
				<biases offset="3669470" size="256"/>
			</blobs>
		</layer>
		<layer id="488" name="action/anchor4/action_dim_red/normalize" precision="FP16" type="Normalize">
			<data across_spatial="0" channel_shared="1" eps="9.99999993922529e-09"/>
			<input>
				<port id="0">
					<dim>1</dim>
					<dim>128</dim>
					<dim>25</dim>
					<dim>43</dim>
				</port>
			</input>
			<output>
				<port id="2">
					<dim>1</dim>
					<dim>128</dim>
					<dim>25</dim>
					<dim>43</dim>
				</port>
			</output>
			<blobs>
				<weights offset="1290140" size="2"/>
			</blobs>
		</layer>
		<layer id="489" name="action/anchor4/concat" precision="FP16" type="Concat">
			<data axis="1"/>
			<input>
				<port id="0">
					<dim>1</dim>
					<dim>128</dim>
					<dim>25</dim>
					<dim>43</dim>
				</port>
				<port id="1">
					<dim>1</dim>
					<dim>128</dim>
					<dim>25</dim>
					<dim>43</dim>
				</port>
			</input>
			<output>
				<port id="2">
					<dim>1</dim>
					<dim>256</dim>
					<dim>25</dim>
					<dim>43</dim>
				</port>
			</output>
		</layer>
		<layer id="490" name="action/anchor4/ch_mix/conv" precision="FP16" type="Convolution">
			<data dilations="1,1" group="1" kernel="1,1" output="256" pads_begin="0,0" pads_end="0,0" strides="1,1"/>
			<input>
				<port id="0">
					<dim>1</dim>
					<dim>256</dim>
					<dim>25</dim>
					<dim>43</dim>
				</port>
			</input>
			<output>
				<port id="3">
					<dim>1</dim>
					<dim>256</dim>
					<dim>25</dim>
					<dim>43</dim>
				</port>
			</output>
			<blobs>
				<weights offset="3669726" size="131072"/>
				<biases offset="3800798" size="512"/>
			</blobs>
		</layer>
		<layer id="491" name="action/anchor4/ch_mix/fn" precision="FP16" type="ReLU">
			<data negative_slope="0.10000000149011612"/>
			<input>
				<port id="0">
					<dim>1</dim>
					<dim>256</dim>
					<dim>25</dim>
					<dim>43</dim>
				</port>
			</input>
			<output>
				<port id="1">
					<dim>1</dim>
					<dim>256</dim>
					<dim>25</dim>
					<dim>43</dim>
				</port>
			</output>
		</layer>
		<layer id="492" name="action/anchor4/inner/conv" precision="FP16" type="Convolution">
			<data dilations="1,1" group="1" kernel="1,1" output="128" pads_begin="0,0" pads_end="0,0" strides="1,1"/>
			<input>
				<port id="0">
					<dim>1</dim>
					<dim>256</dim>
					<dim>25</dim>
					<dim>43</dim>
				</port>
			</input>
			<output>
				<port id="3">
					<dim>1</dim>
					<dim>128</dim>
					<dim>25</dim>
					<dim>43</dim>
				</port>
			</output>
			<blobs>
				<weights offset="3801310" size="65536"/>
				<biases offset="3866846" size="256"/>
			</blobs>
		</layer>
		<layer id="493" name="action/anchor4/inner/fn" precision="FP16" type="ReLU">
			<data negative_slope="0.10000000149011612"/>
			<input>
				<port id="0">
					<dim>1</dim>
					<dim>128</dim>
					<dim>25</dim>
					<dim>43</dim>
				</port>
			</input>
			<output>
				<port id="1">
					<dim>1</dim>
					<dim>128</dim>
					<dim>25</dim>
					<dim>43</dim>
				</port>
			</output>
		</layer>
		<layer id="494" name="action/anchor4/out/conv" precision="FP16" type="Convolution">
			<data dilations="1,1" group="1" kernel="1,1" output="128" pads_begin="0,0" pads_end="0,0" strides="1,1"/>
			<input>
				<port id="0">
					<dim>1</dim>
					<dim>128</dim>
					<dim>25</dim>
					<dim>43</dim>
				</port>
			</input>
			<output>
				<port id="3">
					<dim>1</dim>
					<dim>128</dim>
					<dim>25</dim>
					<dim>43</dim>
				</port>
			</output>
			<blobs>
				<weights offset="3867102" size="32768"/>
				<biases offset="3899870" size="256"/>
			</blobs>
		</layer>
		<layer id="495" name="action/anchor4/normalize" precision="FP16" type="Normalize">
			<data across_spatial="0" channel_shared="1" eps="9.99999993922529e-09"/>
			<input>
				<port id="0">
					<dim>1</dim>
					<dim>128</dim>
					<dim>25</dim>
					<dim>43</dim>
				</port>
			</input>
			<output>
				<port id="2">
					<dim>1</dim>
					<dim>128</dim>
					<dim>25</dim>
					<dim>43</dim>
				</port>
			</output>
			<blobs>
				<weights offset="1290140" size="2"/>
			</blobs>
		</layer>
		<layer id="496" name="logits/anchor4" precision="FP16" type="Convolution">
			<data dilations="1,1" group="1" kernel="1,1" output="3" pads_begin="0,0" pads_end="0,0" strides="1,1"/>
			<input>
				<port id="0">
					<dim>1</dim>
					<dim>128</dim>
					<dim>25</dim>
					<dim>43</dim>
				</port>
			</input>
			<output>
				<port id="2">
					<dim>1</dim>
					<dim>3</dim>
					<dim>25</dim>
					<dim>43</dim>
				</port>
			</output>
			<blobs>
				<weights offset="2813406" size="768"/>
			</blobs>
		</layer>
		<layer id="497" name="logits/anchor4/perm" precision="FP16" type="Permute">
			<data order="0,2,3,1"/>
			<input>
				<port id="0">
					<dim>1</dim>
					<dim>3</dim>
					<dim>25</dim>
					<dim>43</dim>
				</port>
			</input>
			<output>
				<port id="1">
					<dim>1</dim>
					<dim>25</dim>
					<dim>43</dim>
					<dim>3</dim>
				</port>
			</output>
		</layer>
		<layer id="498" name="out/anchor4" precision="FP16" type="SoftMax">
			<data axis="3"/>
			<input>
				<port id="0">
					<dim>1</dim>
					<dim>25</dim>
					<dim>43</dim>
					<dim>3</dim>
				</port>
			</input>
			<output>
				<port id="1">
					<dim>1</dim>
					<dim>25</dim>
					<dim>43</dim>
					<dim>3</dim>
				</port>
			</output>
		</layer>
	</layers>
	<edges>
		<edge from-layer="0" from-port="0" to-layer="1" to-port="0"/>
		<edge from-layer="1" from-port="3" to-layer="2" to-port="0"/>
		<edge from-layer="2" from-port="3" to-layer="3" to-port="0"/>
		<edge from-layer="3" from-port="1" to-layer="4" to-port="0"/>
		<edge from-layer="4" from-port="3" to-layer="5" to-port="0"/>
		<edge from-layer="5" from-port="1" to-layer="6" to-port="0"/>
		<edge from-layer="6" from-port="3" to-layer="7" to-port="0"/>
		<edge from-layer="7" from-port="1" to-layer="8" to-port="0"/>
		<edge from-layer="3" from-port="1" to-layer="9" to-port="0"/>
		<edge from-layer="8" from-port="3" to-layer="9" to-port="1"/>
		<edge from-layer="9" from-port="2" to-layer="10" to-port="0"/>
		<edge from-layer="10" from-port="1" to-layer="11" to-port="0"/>
		<edge from-layer="11" from-port="3" to-layer="12" to-port="0"/>
		<edge from-layer="12" from-port="1" to-layer="13" to-port="0"/>
		<edge from-layer="13" from-port="3" to-layer="14" to-port="0"/>
		<edge from-layer="14" from-port="1" to-layer="15" to-port="0"/>
		<edge from-layer="10" from-port="1" to-layer="16" to-port="0"/>
		<edge from-layer="15" from-port="3" to-layer="16" to-port="1"/>
		<edge from-layer="16" from-port="2" to-layer="17" to-port="0"/>
		<edge from-layer="17" from-port="1" to-layer="18" to-port="0"/>
		<edge from-layer="18" from-port="3" to-layer="19" to-port="0"/>
		<edge from-layer="19" from-port="1" to-layer="20" to-port="0"/>
		<edge from-layer="20" from-port="3" to-layer="21" to-port="0"/>
		<edge from-layer="21" from-port="1" to-layer="22" to-port="0"/>
		<edge from-layer="17" from-port="1" to-layer="23" to-port="0"/>
		<edge from-layer="22" from-port="3" to-layer="23" to-port="1"/>
		<edge from-layer="23" from-port="2" to-layer="24" to-port="0"/>
		<edge from-layer="24" from-port="1" to-layer="25" to-port="0"/>
		<edge from-layer="25" from-port="3" to-layer="26" to-port="0"/>
		<edge from-layer="26" from-port="1" to-layer="27" to-port="0"/>
		<edge from-layer="27" from-port="3" to-layer="28" to-port="0"/>
		<edge from-layer="28" from-port="1" to-layer="29" to-port="0"/>
		<edge from-layer="24" from-port="1" to-layer="30" to-port="0"/>
		<edge from-layer="29" from-port="3" to-layer="30" to-port="1"/>
		<edge from-layer="30" from-port="2" to-layer="31" to-port="0"/>
		<edge from-layer="31" from-port="1" to-layer="32" to-port="0"/>
		<edge from-layer="32" from-port="1" to-layer="33" to-port="0"/>
		<edge from-layer="31" from-port="1" to-layer="34" to-port="0"/>
		<edge from-layer="34" from-port="3" to-layer="35" to-port="0"/>
		<edge from-layer="35" from-port="1" to-layer="36" to-port="0"/>
		<edge from-layer="36" from-port="3" to-layer="37" to-port="0"/>
		<edge from-layer="37" from-port="1" to-layer="38" to-port="0"/>
		<edge from-layer="33" from-port="3" to-layer="39" to-port="0"/>
		<edge from-layer="38" from-port="3" to-layer="39" to-port="1"/>
		<edge from-layer="39" from-port="2" to-layer="40" to-port="0"/>
		<edge from-layer="40" from-port="1" to-layer="41" to-port="0"/>
		<edge from-layer="41" from-port="3" to-layer="42" to-port="0"/>
		<edge from-layer="42" from-port="1" to-layer="43" to-port="0"/>
		<edge from-layer="43" from-port="3" to-layer="44" to-port="0"/>
		<edge from-layer="44" from-port="1" to-layer="45" to-port="0"/>
		<edge from-layer="40" from-port="1" to-layer="46" to-port="0"/>
		<edge from-layer="45" from-port="3" to-layer="46" to-port="1"/>
		<edge from-layer="46" from-port="2" to-layer="47" to-port="0"/>
		<edge from-layer="47" from-port="1" to-layer="48" to-port="0"/>
		<edge from-layer="48" from-port="3" to-layer="49" to-port="0"/>
		<edge from-layer="49" from-port="1" to-layer="50" to-port="0"/>
		<edge from-layer="50" from-port="3" to-layer="51" to-port="0"/>
		<edge from-layer="51" from-port="1" to-layer="52" to-port="0"/>
		<edge from-layer="47" from-port="1" to-layer="53" to-port="0"/>
		<edge from-layer="52" from-port="3" to-layer="53" to-port="1"/>
		<edge from-layer="53" from-port="2" to-layer="54" to-port="0"/>
		<edge from-layer="54" from-port="1" to-layer="55" to-port="0"/>
		<edge from-layer="55" from-port="3" to-layer="56" to-port="0"/>
		<edge from-layer="56" from-port="1" to-layer="57" to-port="0"/>
		<edge from-layer="57" from-port="3" to-layer="58" to-port="0"/>
		<edge from-layer="58" from-port="1" to-layer="59" to-port="0"/>
		<edge from-layer="54" from-port="1" to-layer="60" to-port="0"/>
		<edge from-layer="59" from-port="3" to-layer="60" to-port="1"/>
		<edge from-layer="60" from-port="2" to-layer="61" to-port="0"/>
		<edge from-layer="61" from-port="1" to-layer="62" to-port="0"/>
		<edge from-layer="62" from-port="3" to-layer="63" to-port="0"/>
		<edge from-layer="63" from-port="1" to-layer="64" to-port="0"/>
		<edge from-layer="64" from-port="3" to-layer="65" to-port="0"/>
		<edge from-layer="65" from-port="1" to-layer="66" to-port="0"/>
		<edge from-layer="61" from-port="1" to-layer="67" to-port="0"/>
		<edge from-layer="66" from-port="3" to-layer="67" to-port="1"/>
		<edge from-layer="67" from-port="2" to-layer="68" to-port="0"/>
		<edge from-layer="68" from-port="1" to-layer="69" to-port="0"/>
		<edge from-layer="69" from-port="3" to-layer="70" to-port="0"/>
		<edge from-layer="70" from-port="1" to-layer="71" to-port="0"/>
		<edge from-layer="71" from-port="3" to-layer="72" to-port="0"/>
		<edge from-layer="72" from-port="1" to-layer="73" to-port="0"/>
		<edge from-layer="68" from-port="1" to-layer="74" to-port="0"/>
		<edge from-layer="73" from-port="3" to-layer="74" to-port="1"/>
		<edge from-layer="74" from-port="2" to-layer="75" to-port="0"/>
		<edge from-layer="75" from-port="1" to-layer="76" to-port="0"/>
		<edge from-layer="76" from-port="3" to-layer="77" to-port="0"/>
		<edge from-layer="77" from-port="1" to-layer="78" to-port="0"/>
		<edge from-layer="78" from-port="3" to-layer="79" to-port="0"/>
		<edge from-layer="79" from-port="1" to-layer="80" to-port="0"/>
		<edge from-layer="75" from-port="1" to-layer="81" to-port="0"/>
		<edge from-layer="80" from-port="3" to-layer="81" to-port="1"/>
		<edge from-layer="81" from-port="2" to-layer="82" to-port="0"/>
		<edge from-layer="82" from-port="1" to-layer="83" to-port="0"/>
		<edge from-layer="83" from-port="3" to-layer="84" to-port="0"/>
		<edge from-layer="84" from-port="1" to-layer="85" to-port="0"/>
		<edge from-layer="85" from-port="3" to-layer="86" to-port="0"/>
		<edge from-layer="86" from-port="1" to-layer="87" to-port="0"/>
		<edge from-layer="82" from-port="1" to-layer="88" to-port="0"/>
		<edge from-layer="87" from-port="3" to-layer="88" to-port="1"/>
		<edge from-layer="88" from-port="2" to-layer="89" to-port="0"/>
		<edge from-layer="89" from-port="1" to-layer="90" to-port="0"/>
		<edge from-layer="90" from-port="3" to-layer="91" to-port="0"/>
		<edge from-layer="91" from-port="1" to-layer="92" to-port="0"/>
		<edge from-layer="92" from-port="3" to-layer="93" to-port="0"/>
		<edge from-layer="93" from-port="1" to-layer="94" to-port="0"/>
		<edge from-layer="89" from-port="1" to-layer="95" to-port="0"/>
		<edge from-layer="94" from-port="3" to-layer="95" to-port="1"/>
		<edge from-layer="95" from-port="2" to-layer="96" to-port="0"/>
		<edge from-layer="96" from-port="1" to-layer="97" to-port="0"/>
		<edge from-layer="97" from-port="1" to-layer="98" to-port="0"/>
		<edge from-layer="96" from-port="1" to-layer="99" to-port="0"/>
		<edge from-layer="99" from-port="3" to-layer="100" to-port="0"/>
		<edge from-layer="100" from-port="1" to-layer="101" to-port="0"/>
		<edge from-layer="101" from-port="3" to-layer="102" to-port="0"/>
		<edge from-layer="102" from-port="1" to-layer="103" to-port="0"/>
		<edge from-layer="98" from-port="3" to-layer="104" to-port="0"/>
		<edge from-layer="103" from-port="3" to-layer="104" to-port="1"/>
		<edge from-layer="104" from-port="2" to-layer="105" to-port="0"/>
		<edge from-layer="105" from-port="1" to-layer="106" to-port="0"/>
		<edge from-layer="106" from-port="3" to-layer="107" to-port="0"/>
		<edge from-layer="107" from-port="1" to-layer="108" to-port="0"/>
		<edge from-layer="108" from-port="3" to-layer="109" to-port="0"/>
		<edge from-layer="109" from-port="1" to-layer="110" to-port="0"/>
		<edge from-layer="105" from-port="1" to-layer="111" to-port="0"/>
		<edge from-layer="110" from-port="3" to-layer="111" to-port="1"/>
		<edge from-layer="111" from-port="2" to-layer="112" to-port="0"/>
		<edge from-layer="112" from-port="1" to-layer="113" to-port="0"/>
		<edge from-layer="113" from-port="3" to-layer="114" to-port="0"/>
		<edge from-layer="114" from-port="1" to-layer="115" to-port="0"/>
		<edge from-layer="115" from-port="3" to-layer="116" to-port="0"/>
		<edge from-layer="116" from-port="1" to-layer="117" to-port="0"/>
		<edge from-layer="112" from-port="1" to-layer="118" to-port="0"/>
		<edge from-layer="117" from-port="3" to-layer="118" to-port="1"/>
		<edge from-layer="118" from-port="2" to-layer="119" to-port="0"/>
		<edge from-layer="119" from-port="1" to-layer="120" to-port="0"/>
		<edge from-layer="120" from-port="3" to-layer="121" to-port="0"/>
		<edge from-layer="121" from-port="1" to-layer="122" to-port="0"/>
		<edge from-layer="122" from-port="3" to-layer="123" to-port="0"/>
		<edge from-layer="123" from-port="1" to-layer="124" to-port="0"/>
		<edge from-layer="119" from-port="1" to-layer="125" to-port="0"/>
		<edge from-layer="124" from-port="3" to-layer="125" to-port="1"/>
		<edge from-layer="125" from-port="2" to-layer="126" to-port="0"/>
		<edge from-layer="126" from-port="1" to-layer="127" to-port="0"/>
		<edge from-layer="127" from-port="3" to-layer="128" to-port="0"/>
		<edge from-layer="128" from-port="1" to-layer="129" to-port="0"/>
		<edge from-layer="129" from-port="3" to-layer="130" to-port="0"/>
		<edge from-layer="130" from-port="1" to-layer="131" to-port="0"/>
		<edge from-layer="126" from-port="1" to-layer="132" to-port="0"/>
		<edge from-layer="131" from-port="3" to-layer="132" to-port="1"/>
		<edge from-layer="132" from-port="2" to-layer="133" to-port="0"/>
		<edge from-layer="133" from-port="1" to-layer="134" to-port="0"/>
		<edge from-layer="134" from-port="3" to-layer="135" to-port="0"/>
		<edge from-layer="135" from-port="1" to-layer="136" to-port="0"/>
		<edge from-layer="136" from-port="3" to-layer="137" to-port="0"/>
		<edge from-layer="137" from-port="1" to-layer="138" to-port="0"/>
		<edge from-layer="133" from-port="1" to-layer="139" to-port="0"/>
		<edge from-layer="138" from-port="3" to-layer="139" to-port="1"/>
		<edge from-layer="139" from-port="2" to-layer="140" to-port="0"/>
		<edge from-layer="140" from-port="1" to-layer="141" to-port="0"/>
		<edge from-layer="141" from-port="3" to-layer="142" to-port="0"/>
		<edge from-layer="142" from-port="1" to-layer="143" to-port="0"/>
		<edge from-layer="143" from-port="3" to-layer="144" to-port="0"/>
		<edge from-layer="144" from-port="1" to-layer="145" to-port="0"/>
		<edge from-layer="140" from-port="1" to-layer="146" to-port="0"/>
		<edge from-layer="145" from-port="3" to-layer="146" to-port="1"/>
		<edge from-layer="146" from-port="2" to-layer="147" to-port="0"/>
		<edge from-layer="147" from-port="1" to-layer="148" to-port="0"/>
		<edge from-layer="148" from-port="3" to-layer="149" to-port="0"/>
		<edge from-layer="149" from-port="1" to-layer="150" to-port="0"/>
		<edge from-layer="150" from-port="3" to-layer="151" to-port="0"/>
		<edge from-layer="151" from-port="1" to-layer="152" to-port="0"/>
		<edge from-layer="147" from-port="1" to-layer="153" to-port="0"/>
		<edge from-layer="152" from-port="3" to-layer="153" to-port="1"/>
		<edge from-layer="153" from-port="2" to-layer="154" to-port="0"/>
		<edge from-layer="154" from-port="1" to-layer="155" to-port="0"/>
		<edge from-layer="155" from-port="3" to-layer="156" to-port="0"/>
		<edge from-layer="156" from-port="1" to-layer="157" to-port="0"/>
		<edge from-layer="157" from-port="3" to-layer="158" to-port="0"/>
		<edge from-layer="158" from-port="1" to-layer="159" to-port="0"/>
		<edge from-layer="154" from-port="1" to-layer="160" to-port="0"/>
		<edge from-layer="159" from-port="3" to-layer="160" to-port="1"/>
		<edge from-layer="160" from-port="2" to-layer="161" to-port="0"/>
		<edge from-layer="161" from-port="1" to-layer="162" to-port="0"/>
		<edge from-layer="162" from-port="3" to-layer="163" to-port="0"/>
		<edge from-layer="163" from-port="1" to-layer="164" to-port="0"/>
		<edge from-layer="164" from-port="3" to-layer="165" to-port="0"/>
		<edge from-layer="165" from-port="1" to-layer="166" to-port="0"/>
		<edge from-layer="161" from-port="1" to-layer="167" to-port="0"/>
		<edge from-layer="166" from-port="3" to-layer="167" to-port="1"/>
		<edge from-layer="167" from-port="2" to-layer="168" to-port="0"/>
		<edge from-layer="168" from-port="1" to-layer="169" to-port="0"/>
		<edge from-layer="169" from-port="3" to-layer="170" to-port="0"/>
		<edge from-layer="170" from-port="1" to-layer="171" to-port="0"/>
		<edge from-layer="171" from-port="3" to-layer="172" to-port="0"/>
		<edge from-layer="172" from-port="1" to-layer="173" to-port="0"/>
		<edge from-layer="168" from-port="1" to-layer="174" to-port="0"/>
		<edge from-layer="173" from-port="3" to-layer="174" to-port="1"/>
		<edge from-layer="174" from-port="2" to-layer="175" to-port="0"/>
		<edge from-layer="175" from-port="1" to-layer="176" to-port="0"/>
		<edge from-layer="176" from-port="1" to-layer="177" to-port="0"/>
		<edge from-layer="175" from-port="1" to-layer="178" to-port="0"/>
		<edge from-layer="178" from-port="3" to-layer="179" to-port="0"/>
		<edge from-layer="179" from-port="1" to-layer="180" to-port="0"/>
		<edge from-layer="180" from-port="3" to-layer="181" to-port="0"/>
		<edge from-layer="181" from-port="1" to-layer="182" to-port="0"/>
		<edge from-layer="177" from-port="3" to-layer="183" to-port="0"/>
		<edge from-layer="182" from-port="3" to-layer="183" to-port="1"/>
		<edge from-layer="183" from-port="2" to-layer="184" to-port="0"/>
		<edge from-layer="184" from-port="1" to-layer="185" to-port="0"/>
		<edge from-layer="185" from-port="3" to-layer="186" to-port="0"/>
		<edge from-layer="186" from-port="1" to-layer="187" to-port="0"/>
		<edge from-layer="187" from-port="3" to-layer="188" to-port="0"/>
		<edge from-layer="188" from-port="1" to-layer="189" to-port="0"/>
		<edge from-layer="184" from-port="1" to-layer="190" to-port="0"/>
		<edge from-layer="189" from-port="3" to-layer="190" to-port="1"/>
		<edge from-layer="190" from-port="2" to-layer="191" to-port="0"/>
		<edge from-layer="191" from-port="1" to-layer="192" to-port="0"/>
		<edge from-layer="192" from-port="3" to-layer="193" to-port="0"/>
		<edge from-layer="193" from-port="1" to-layer="194" to-port="0"/>
		<edge from-layer="194" from-port="3" to-layer="195" to-port="0"/>
		<edge from-layer="195" from-port="1" to-layer="196" to-port="0"/>
		<edge from-layer="191" from-port="1" to-layer="197" to-port="0"/>
		<edge from-layer="196" from-port="3" to-layer="197" to-port="1"/>
		<edge from-layer="197" from-port="2" to-layer="198" to-port="0"/>
		<edge from-layer="198" from-port="1" to-layer="199" to-port="0"/>
		<edge from-layer="199" from-port="3" to-layer="200" to-port="0"/>
		<edge from-layer="200" from-port="1" to-layer="201" to-port="0"/>
		<edge from-layer="201" from-port="3" to-layer="202" to-port="0"/>
		<edge from-layer="202" from-port="1" to-layer="203" to-port="0"/>
		<edge from-layer="198" from-port="1" to-layer="204" to-port="0"/>
		<edge from-layer="203" from-port="3" to-layer="204" to-port="1"/>
		<edge from-layer="204" from-port="2" to-layer="205" to-port="0"/>
		<edge from-layer="205" from-port="1" to-layer="206" to-port="0"/>
		<edge from-layer="206" from-port="3" to-layer="207" to-port="0"/>
		<edge from-layer="207" from-port="1" to-layer="208" to-port="0"/>
		<edge from-layer="208" from-port="3" to-layer="209" to-port="0"/>
		<edge from-layer="209" from-port="1" to-layer="210" to-port="0"/>
		<edge from-layer="205" from-port="1" to-layer="211" to-port="0"/>
		<edge from-layer="210" from-port="3" to-layer="211" to-port="1"/>
		<edge from-layer="211" from-port="2" to-layer="212" to-port="0"/>
		<edge from-layer="212" from-port="1" to-layer="213" to-port="0"/>
		<edge from-layer="213" from-port="3" to-layer="214" to-port="0"/>
		<edge from-layer="214" from-port="1" to-layer="215" to-port="0"/>
		<edge from-layer="215" from-port="3" to-layer="216" to-port="0"/>
		<edge from-layer="216" from-port="1" to-layer="217" to-port="0"/>
		<edge from-layer="212" from-port="1" to-layer="218" to-port="0"/>
		<edge from-layer="217" from-port="3" to-layer="218" to-port="1"/>
		<edge from-layer="218" from-port="2" to-layer="219" to-port="0"/>
		<edge from-layer="219" from-port="1" to-layer="220" to-port="0"/>
		<edge from-layer="220" from-port="3" to-layer="221" to-port="0"/>
		<edge from-layer="221" from-port="1" to-layer="222" to-port="0"/>
		<edge from-layer="222" from-port="3" to-layer="223" to-port="0"/>
		<edge from-layer="223" from-port="1" to-layer="224" to-port="0"/>
		<edge from-layer="219" from-port="1" to-layer="225" to-port="0"/>
		<edge from-layer="224" from-port="3" to-layer="225" to-port="1"/>
		<edge from-layer="225" from-port="2" to-layer="226" to-port="0"/>
		<edge from-layer="226" from-port="1" to-layer="227" to-port="0"/>
		<edge from-layer="227" from-port="3" to-layer="228" to-port="0"/>
		<edge from-layer="228" from-port="1" to-layer="229" to-port="0"/>
		<edge from-layer="229" from-port="3" to-layer="230" to-port="0"/>
		<edge from-layer="230" from-port="1" to-layer="231" to-port="0"/>
		<edge from-layer="226" from-port="1" to-layer="232" to-port="0"/>
		<edge from-layer="231" from-port="3" to-layer="232" to-port="1"/>
		<edge from-layer="232" from-port="2" to-layer="233" to-port="0"/>
		<edge from-layer="233" from-port="1" to-layer="234" to-port="0"/>
		<edge from-layer="234" from-port="3" to-layer="235" to-port="0"/>
		<edge from-layer="235" from-port="1" to-layer="236" to-port="0"/>
		<edge from-layer="236" from-port="3" to-layer="237" to-port="0"/>
		<edge from-layer="237" from-port="1" to-layer="238" to-port="0"/>
		<edge from-layer="233" from-port="1" to-layer="239" to-port="0"/>
		<edge from-layer="238" from-port="3" to-layer="239" to-port="1"/>
		<edge from-layer="239" from-port="2" to-layer="240" to-port="0"/>
		<edge from-layer="240" from-port="1" to-layer="241" to-port="0"/>
		<edge from-layer="241" from-port="3" to-layer="242" to-port="0"/>
		<edge from-layer="242" from-port="1" to-layer="243" to-port="0"/>
		<edge from-layer="243" from-port="3" to-layer="244" to-port="0"/>
		<edge from-layer="244" from-port="1" to-layer="245" to-port="0"/>
		<edge from-layer="240" from-port="1" to-layer="246" to-port="0"/>
		<edge from-layer="245" from-port="3" to-layer="246" to-port="1"/>
		<edge from-layer="246" from-port="2" to-layer="247" to-port="0"/>
		<edge from-layer="247" from-port="1" to-layer="248" to-port="0"/>
		<edge from-layer="248" from-port="3" to-layer="249" to-port="0"/>
		<edge from-layer="249" from-port="1" to-layer="250" to-port="0"/>
		<edge from-layer="250" from-port="3" to-layer="251" to-port="0"/>
		<edge from-layer="251" from-port="1" to-layer="252" to-port="0"/>
		<edge from-layer="247" from-port="1" to-layer="253" to-port="0"/>
		<edge from-layer="252" from-port="3" to-layer="253" to-port="1"/>
		<edge from-layer="253" from-port="2" to-layer="254" to-port="0"/>
		<edge from-layer="254" from-port="1" to-layer="255" to-port="0"/>
		<edge from-layer="255" from-port="3" to-layer="256" to-port="0"/>
		<edge from-layer="256" from-port="1" to-layer="257" to-port="0"/>
		<edge from-layer="257" from-port="3" to-layer="258" to-port="0"/>
		<edge from-layer="258" from-port="1" to-layer="259" to-port="0"/>
		<edge from-layer="254" from-port="1" to-layer="260" to-port="0"/>
		<edge from-layer="259" from-port="3" to-layer="260" to-port="1"/>
		<edge from-layer="260" from-port="2" to-layer="261" to-port="0"/>
		<edge from-layer="261" from-port="1" to-layer="262" to-port="0"/>
		<edge from-layer="0" from-port="0" to-layer="262" to-port="1"/>
		<edge from-layer="261" from-port="1" to-layer="263" to-port="0"/>
		<edge from-layer="263" from-port="3" to-layer="264" to-port="0"/>
		<edge from-layer="264" from-port="1" to-layer="265" to-port="0"/>
		<edge from-layer="261" from-port="1" to-layer="266" to-port="0"/>
		<edge from-layer="266" from-port="3" to-layer="267" to-port="0"/>
		<edge from-layer="267" from-port="1" to-layer="268" to-port="0"/>
		<edge from-layer="268" from-port="1" to-layer="269" to-port="0"/>
		<edge from-layer="269" from-port="1" to-layer="270" to-port="0"/>
		<edge from-layer="270" from-port="1" to-layer="271" to-port="0"/>
		<edge from-layer="261" from-port="1" to-layer="272" to-port="0"/>
		<edge from-layer="272" from-port="3" to-layer="273" to-port="0"/>
		<edge from-layer="219" from-port="1" to-layer="274" to-port="0"/>
		<edge from-layer="140" from-port="1" to-layer="275" to-port="0"/>
		<edge from-layer="96" from-port="1" to-layer="276" to-port="0"/>
		<edge from-layer="276" from-port="1" to-layer="277" to-port="0"/>
		<edge from-layer="96" from-port="1" to-layer="278" to-port="0"/>
		<edge from-layer="278" from-port="3" to-layer="279" to-port="0"/>
		<edge from-layer="279" from-port="1" to-layer="280" to-port="0"/>
		<edge from-layer="280" from-port="3" to-layer="281" to-port="0"/>
		<edge from-layer="281" from-port="1" to-layer="282" to-port="0"/>
		<edge from-layer="277" from-port="3" to-layer="283" to-port="0"/>
		<edge from-layer="282" from-port="3" to-layer="283" to-port="1"/>
		<edge from-layer="283" from-port="2" to-layer="284" to-port="0"/>
		<edge from-layer="284" from-port="1" to-layer="285" to-port="0"/>
		<edge from-layer="285" from-port="3" to-layer="286" to-port="0"/>
		<edge from-layer="286" from-port="1" to-layer="287" to-port="0"/>
		<edge from-layer="287" from-port="3" to-layer="288" to-port="0"/>
		<edge from-layer="288" from-port="1" to-layer="289" to-port="0"/>
		<edge from-layer="284" from-port="1" to-layer="290" to-port="0"/>
		<edge from-layer="289" from-port="3" to-layer="290" to-port="1"/>
		<edge from-layer="290" from-port="2" to-layer="291" to-port="0"/>
		<edge from-layer="291" from-port="1" to-layer="292" to-port="0"/>
		<edge from-layer="292" from-port="3" to-layer="293" to-port="0"/>
		<edge from-layer="293" from-port="1" to-layer="294" to-port="0"/>
		<edge from-layer="294" from-port="3" to-layer="295" to-port="0"/>
		<edge from-layer="295" from-port="1" to-layer="296" to-port="0"/>
		<edge from-layer="291" from-port="1" to-layer="297" to-port="0"/>
		<edge from-layer="296" from-port="3" to-layer="297" to-port="1"/>
		<edge from-layer="297" from-port="2" to-layer="298" to-port="0"/>
		<edge from-layer="298" from-port="1" to-layer="299" to-port="0"/>
		<edge from-layer="299" from-port="3" to-layer="300" to-port="0"/>
		<edge from-layer="300" from-port="1" to-layer="301" to-port="0"/>
		<edge from-layer="301" from-port="3" to-layer="302" to-port="0"/>
		<edge from-layer="302" from-port="1" to-layer="303" to-port="0"/>
		<edge from-layer="298" from-port="1" to-layer="304" to-port="0"/>
		<edge from-layer="303" from-port="3" to-layer="304" to-port="1"/>
		<edge from-layer="304" from-port="2" to-layer="305" to-port="0"/>
		<edge from-layer="305" from-port="1" to-layer="306" to-port="0"/>
		<edge from-layer="306" from-port="3" to-layer="307" to-port="0"/>
		<edge from-layer="307" from-port="1" to-layer="308" to-port="0"/>
		<edge from-layer="308" from-port="3" to-layer="309" to-port="0"/>
		<edge from-layer="309" from-port="1" to-layer="310" to-port="0"/>
		<edge from-layer="305" from-port="1" to-layer="311" to-port="0"/>
		<edge from-layer="310" from-port="3" to-layer="311" to-port="1"/>
		<edge from-layer="311" from-port="2" to-layer="312" to-port="0"/>
		<edge from-layer="312" from-port="1" to-layer="313" to-port="0"/>
		<edge from-layer="313" from-port="3" to-layer="314" to-port="0"/>
		<edge from-layer="314" from-port="1" to-layer="315" to-port="0"/>
		<edge from-layer="315" from-port="3" to-layer="316" to-port="0"/>
		<edge from-layer="316" from-port="1" to-layer="317" to-port="0"/>
		<edge from-layer="312" from-port="1" to-layer="318" to-port="0"/>
		<edge from-layer="317" from-port="3" to-layer="318" to-port="1"/>
		<edge from-layer="318" from-port="2" to-layer="319" to-port="0"/>
		<edge from-layer="275" from-port="3" to-layer="320" to-port="0"/>
		<edge from-layer="319" from-port="1" to-layer="320" to-port="1"/>
		<edge from-layer="320" from-port="2" to-layer="321" to-port="0"/>
		<edge from-layer="321" from-port="1" to-layer="322" to-port="0"/>
		<edge from-layer="322" from-port="3" to-layer="323" to-port="0"/>
		<edge from-layer="323" from-port="1" to-layer="324" to-port="0"/>
		<edge from-layer="324" from-port="3" to-layer="325" to-port="0"/>
		<edge from-layer="325" from-port="1" to-layer="326" to-port="0"/>
		<edge from-layer="321" from-port="1" to-layer="327" to-port="0"/>
		<edge from-layer="326" from-port="3" to-layer="327" to-port="1"/>
		<edge from-layer="327" from-port="2" to-layer="328" to-port="0"/>
		<edge from-layer="328" from-port="1" to-layer="329" to-port="0"/>
		<edge from-layer="329" from-port="3" to-layer="330" to-port="0"/>
		<edge from-layer="330" from-port="1" to-layer="331" to-port="0"/>
		<edge from-layer="331" from-port="3" to-layer="332" to-port="0"/>
		<edge from-layer="332" from-port="1" to-layer="333" to-port="0"/>
		<edge from-layer="328" from-port="1" to-layer="334" to-port="0"/>
		<edge from-layer="333" from-port="3" to-layer="334" to-port="1"/>
		<edge from-layer="334" from-port="2" to-layer="335" to-port="0"/>
		<edge from-layer="335" from-port="1" to-layer="336" to-port="0"/>
		<edge from-layer="336" from-port="3" to-layer="337" to-port="0"/>
		<edge from-layer="337" from-port="1" to-layer="338" to-port="0"/>
		<edge from-layer="338" from-port="3" to-layer="339" to-port="0"/>
		<edge from-layer="339" from-port="1" to-layer="340" to-port="0"/>
		<edge from-layer="335" from-port="1" to-layer="341" to-port="0"/>
		<edge from-layer="340" from-port="3" to-layer="341" to-port="1"/>
		<edge from-layer="341" from-port="2" to-layer="342" to-port="0"/>
		<edge from-layer="342" from-port="1" to-layer="343" to-port="0"/>
		<edge from-layer="343" from-port="3" to-layer="344" to-port="0"/>
		<edge from-layer="344" from-port="1" to-layer="345" to-port="0"/>
		<edge from-layer="345" from-port="3" to-layer="346" to-port="0"/>
		<edge from-layer="346" from-port="1" to-layer="347" to-port="0"/>
		<edge from-layer="342" from-port="1" to-layer="348" to-port="0"/>
		<edge from-layer="347" from-port="3" to-layer="348" to-port="1"/>
		<edge from-layer="348" from-port="2" to-layer="349" to-port="0"/>
		<edge from-layer="349" from-port="1" to-layer="350" to-port="0"/>
		<edge from-layer="350" from-port="3" to-layer="351" to-port="0"/>
		<edge from-layer="351" from-port="1" to-layer="352" to-port="0"/>
		<edge from-layer="352" from-port="3" to-layer="353" to-port="0"/>
		<edge from-layer="353" from-port="1" to-layer="354" to-port="0"/>
		<edge from-layer="349" from-port="1" to-layer="355" to-port="0"/>
		<edge from-layer="354" from-port="3" to-layer="355" to-port="1"/>
		<edge from-layer="355" from-port="2" to-layer="356" to-port="0"/>
		<edge from-layer="356" from-port="1" to-layer="357" to-port="0"/>
		<edge from-layer="357" from-port="1" to-layer="358" to-port="0"/>
		<edge from-layer="356" from-port="1" to-layer="359" to-port="0"/>
		<edge from-layer="359" from-port="3" to-layer="360" to-port="0"/>
		<edge from-layer="360" from-port="1" to-layer="361" to-port="0"/>
		<edge from-layer="361" from-port="3" to-layer="362" to-port="0"/>
		<edge from-layer="362" from-port="1" to-layer="363" to-port="0"/>
		<edge from-layer="358" from-port="3" to-layer="364" to-port="0"/>
		<edge from-layer="363" from-port="3" to-layer="364" to-port="1"/>
		<edge from-layer="364" from-port="2" to-layer="365" to-port="0"/>
		<edge from-layer="365" from-port="1" to-layer="366" to-port="0"/>
		<edge from-layer="366" from-port="3" to-layer="367" to-port="0"/>
		<edge from-layer="367" from-port="1" to-layer="368" to-port="0"/>
		<edge from-layer="368" from-port="3" to-layer="369" to-port="0"/>
		<edge from-layer="369" from-port="1" to-layer="370" to-port="0"/>
		<edge from-layer="365" from-port="1" to-layer="371" to-port="0"/>
		<edge from-layer="370" from-port="3" to-layer="371" to-port="1"/>
		<edge from-layer="371" from-port="2" to-layer="372" to-port="0"/>
		<edge from-layer="372" from-port="1" to-layer="373" to-port="0"/>
		<edge from-layer="373" from-port="3" to-layer="374" to-port="0"/>
		<edge from-layer="374" from-port="1" to-layer="375" to-port="0"/>
		<edge from-layer="375" from-port="3" to-layer="376" to-port="0"/>
		<edge from-layer="376" from-port="1" to-layer="377" to-port="0"/>
		<edge from-layer="372" from-port="1" to-layer="378" to-port="0"/>
		<edge from-layer="377" from-port="3" to-layer="378" to-port="1"/>
		<edge from-layer="378" from-port="2" to-layer="379" to-port="0"/>
		<edge from-layer="379" from-port="1" to-layer="380" to-port="0"/>
		<edge from-layer="380" from-port="3" to-layer="381" to-port="0"/>
		<edge from-layer="381" from-port="1" to-layer="382" to-port="0"/>
		<edge from-layer="382" from-port="3" to-layer="383" to-port="0"/>
		<edge from-layer="383" from-port="1" to-layer="384" to-port="0"/>
		<edge from-layer="379" from-port="1" to-layer="385" to-port="0"/>
		<edge from-layer="384" from-port="3" to-layer="385" to-port="1"/>
		<edge from-layer="385" from-port="2" to-layer="386" to-port="0"/>
		<edge from-layer="386" from-port="1" to-layer="387" to-port="0"/>
		<edge from-layer="387" from-port="3" to-layer="388" to-port="0"/>
		<edge from-layer="388" from-port="1" to-layer="389" to-port="0"/>
		<edge from-layer="389" from-port="3" to-layer="390" to-port="0"/>
		<edge from-layer="390" from-port="1" to-layer="391" to-port="0"/>
		<edge from-layer="386" from-port="1" to-layer="392" to-port="0"/>
		<edge from-layer="391" from-port="3" to-layer="392" to-port="1"/>
		<edge from-layer="392" from-port="2" to-layer="393" to-port="0"/>
		<edge from-layer="393" from-port="1" to-layer="394" to-port="0"/>
		<edge from-layer="394" from-port="3" to-layer="395" to-port="0"/>
		<edge from-layer="395" from-port="1" to-layer="396" to-port="0"/>
		<edge from-layer="396" from-port="3" to-layer="397" to-port="0"/>
		<edge from-layer="397" from-port="1" to-layer="398" to-port="0"/>
		<edge from-layer="393" from-port="1" to-layer="399" to-port="0"/>
		<edge from-layer="398" from-port="3" to-layer="399" to-port="1"/>
		<edge from-layer="399" from-port="2" to-layer="400" to-port="0"/>
		<edge from-layer="274" from-port="3" to-layer="401" to-port="0"/>
		<edge from-layer="400" from-port="1" to-layer="401" to-port="1"/>
		<edge from-layer="401" from-port="2" to-layer="402" to-port="0"/>
		<edge from-layer="402" from-port="1" to-layer="403" to-port="0"/>
		<edge from-layer="403" from-port="3" to-layer="404" to-port="0"/>
		<edge from-layer="404" from-port="1" to-layer="405" to-port="0"/>
		<edge from-layer="405" from-port="3" to-layer="406" to-port="0"/>
		<edge from-layer="406" from-port="1" to-layer="407" to-port="0"/>
		<edge from-layer="402" from-port="1" to-layer="408" to-port="0"/>
		<edge from-layer="407" from-port="3" to-layer="408" to-port="1"/>
		<edge from-layer="408" from-port="2" to-layer="409" to-port="0"/>
		<edge from-layer="409" from-port="1" to-layer="410" to-port="0"/>
		<edge from-layer="410" from-port="3" to-layer="411" to-port="0"/>
		<edge from-layer="411" from-port="1" to-layer="412" to-port="0"/>
		<edge from-layer="412" from-port="3" to-layer="413" to-port="0"/>
		<edge from-layer="413" from-port="1" to-layer="414" to-port="0"/>
		<edge from-layer="409" from-port="1" to-layer="415" to-port="0"/>
		<edge from-layer="414" from-port="3" to-layer="415" to-port="1"/>
		<edge from-layer="415" from-port="2" to-layer="416" to-port="0"/>
		<edge from-layer="416" from-port="1" to-layer="417" to-port="0"/>
		<edge from-layer="417" from-port="3" to-layer="418" to-port="0"/>
		<edge from-layer="418" from-port="1" to-layer="419" to-port="0"/>
		<edge from-layer="419" from-port="3" to-layer="420" to-port="0"/>
		<edge from-layer="420" from-port="1" to-layer="421" to-port="0"/>
		<edge from-layer="416" from-port="1" to-layer="422" to-port="0"/>
		<edge from-layer="421" from-port="3" to-layer="422" to-port="1"/>
		<edge from-layer="422" from-port="2" to-layer="423" to-port="0"/>
		<edge from-layer="423" from-port="1" to-layer="424" to-port="0"/>
		<edge from-layer="424" from-port="3" to-layer="425" to-port="0"/>
		<edge from-layer="425" from-port="1" to-layer="426" to-port="0"/>
		<edge from-layer="426" from-port="3" to-layer="427" to-port="0"/>
		<edge from-layer="427" from-port="1" to-layer="428" to-port="0"/>
		<edge from-layer="423" from-port="1" to-layer="429" to-port="0"/>
		<edge from-layer="428" from-port="3" to-layer="429" to-port="1"/>
		<edge from-layer="429" from-port="2" to-layer="430" to-port="0"/>
		<edge from-layer="430" from-port="1" to-layer="431" to-port="0"/>
		<edge from-layer="431" from-port="3" to-layer="432" to-port="0"/>
		<edge from-layer="432" from-port="1" to-layer="433" to-port="0"/>
		<edge from-layer="433" from-port="3" to-layer="434" to-port="0"/>
		<edge from-layer="434" from-port="1" to-layer="435" to-port="0"/>
		<edge from-layer="430" from-port="1" to-layer="436" to-port="0"/>
		<edge from-layer="435" from-port="3" to-layer="436" to-port="1"/>
		<edge from-layer="436" from-port="2" to-layer="437" to-port="0"/>
		<edge from-layer="437" from-port="1" to-layer="438" to-port="0"/>
		<edge from-layer="438" from-port="3" to-layer="439" to-port="0"/>
		<edge from-layer="439" from-port="1" to-layer="440" to-port="0"/>
		<edge from-layer="440" from-port="3" to-layer="441" to-port="0"/>
		<edge from-layer="441" from-port="1" to-layer="442" to-port="0"/>
		<edge from-layer="437" from-port="1" to-layer="443" to-port="0"/>
		<edge from-layer="442" from-port="3" to-layer="443" to-port="1"/>
		<edge from-layer="443" from-port="2" to-layer="444" to-port="0"/>
		<edge from-layer="444" from-port="1" to-layer="445" to-port="0"/>
		<edge from-layer="445" from-port="3" to-layer="446" to-port="0"/>
		<edge from-layer="273" from-port="2" to-layer="447" to-port="0"/>
		<edge from-layer="446" from-port="2" to-layer="447" to-port="1"/>
		<edge from-layer="447" from-port="2" to-layer="448" to-port="0"/>
		<edge from-layer="448" from-port="3" to-layer="449" to-port="0"/>
		<edge from-layer="449" from-port="1" to-layer="450" to-port="0"/>
		<edge from-layer="450" from-port="3" to-layer="451" to-port="0"/>
		<edge from-layer="451" from-port="1" to-layer="452" to-port="0"/>
		<edge from-layer="452" from-port="3" to-layer="453" to-port="0"/>
		<edge from-layer="453" from-port="2" to-layer="454" to-port="0"/>
		<edge from-layer="454" from-port="2" to-layer="455" to-port="0"/>
		<edge from-layer="455" from-port="1" to-layer="456" to-port="0"/>
		<edge from-layer="261" from-port="1" to-layer="457" to-port="0"/>
		<edge from-layer="457" from-port="3" to-layer="458" to-port="0"/>
		<edge from-layer="444" from-port="1" to-layer="459" to-port="0"/>
		<edge from-layer="459" from-port="3" to-layer="460" to-port="0"/>
		<edge from-layer="458" from-port="2" to-layer="461" to-port="0"/>
		<edge from-layer="460" from-port="2" to-layer="461" to-port="1"/>
		<edge from-layer="461" from-port="2" to-layer="462" to-port="0"/>
		<edge from-layer="462" from-port="3" to-layer="463" to-port="0"/>
		<edge from-layer="463" from-port="1" to-layer="464" to-port="0"/>
		<edge from-layer="464" from-port="3" to-layer="465" to-port="0"/>
		<edge from-layer="465" from-port="1" to-layer="466" to-port="0"/>
		<edge from-layer="466" from-port="3" to-layer="467" to-port="0"/>
		<edge from-layer="467" from-port="2" to-layer="468" to-port="0"/>
		<edge from-layer="468" from-port="2" to-layer="469" to-port="0"/>
		<edge from-layer="469" from-port="1" to-layer="470" to-port="0"/>
		<edge from-layer="261" from-port="1" to-layer="471" to-port="0"/>
		<edge from-layer="471" from-port="3" to-layer="472" to-port="0"/>
		<edge from-layer="444" from-port="1" to-layer="473" to-port="0"/>
		<edge from-layer="473" from-port="3" to-layer="474" to-port="0"/>
		<edge from-layer="472" from-port="2" to-layer="475" to-port="0"/>
		<edge from-layer="474" from-port="2" to-layer="475" to-port="1"/>
		<edge from-layer="475" from-port="2" to-layer="476" to-port="0"/>
		<edge from-layer="476" from-port="3" to-layer="477" to-port="0"/>
		<edge from-layer="477" from-port="1" to-layer="478" to-port="0"/>
		<edge from-layer="478" from-port="3" to-layer="479" to-port="0"/>
		<edge from-layer="479" from-port="1" to-layer="480" to-port="0"/>
		<edge from-layer="480" from-port="3" to-layer="481" to-port="0"/>
		<edge from-layer="481" from-port="2" to-layer="482" to-port="0"/>
		<edge from-layer="482" from-port="2" to-layer="483" to-port="0"/>
		<edge from-layer="483" from-port="1" to-layer="484" to-port="0"/>
		<edge from-layer="261" from-port="1" to-layer="485" to-port="0"/>
		<edge from-layer="485" from-port="3" to-layer="486" to-port="0"/>
		<edge from-layer="444" from-port="1" to-layer="487" to-port="0"/>
		<edge from-layer="487" from-port="3" to-layer="488" to-port="0"/>
		<edge from-layer="486" from-port="2" to-layer="489" to-port="0"/>
		<edge from-layer="488" from-port="2" to-layer="489" to-port="1"/>
		<edge from-layer="489" from-port="2" to-layer="490" to-port="0"/>
		<edge from-layer="490" from-port="3" to-layer="491" to-port="0"/>
		<edge from-layer="491" from-port="1" to-layer="492" to-port="0"/>
		<edge from-layer="492" from-port="3" to-layer="493" to-port="0"/>
		<edge from-layer="493" from-port="1" to-layer="494" to-port="0"/>
		<edge from-layer="494" from-port="3" to-layer="495" to-port="0"/>
		<edge from-layer="495" from-port="2" to-layer="496" to-port="0"/>
		<edge from-layer="496" from-port="2" to-layer="497" to-port="0"/>
		<edge from-layer="497" from-port="1" to-layer="498" to-port="0"/>
	</edges>
	<meta_data>
		<MO_version value="1.5.4.dacdc0a0"/>
		<cli_parameters>
			<data_type value="FP16"/>
			<disable_fusing value="False"/>
			<disable_gfusing value="False"/>
			<disable_nhwc_to_nchw value="False"/>
			<disable_omitting_optional value="False"/>
			<disable_resnet_optimization value="False"/>
			<enable_flattening_nested_params value="False"/>
			<extensions value="DIR"/>
			<framework value="caffe"/>
			<generate_deprecated_IR_V2 value="False"/>
			<input value="data"/>
			<input_model value="DIR/weights.caffemodel"/>
			<input_model_is_text value="False"/>
			<input_proto value="DIR/deploy.prototxt"/>
			<input_shape value="[1,3,400,680]"/>
			<k value="DIR/CustomLayersMapping.xml"/>
			<legacy_mxnet_model value="False"/>
			<log_level value="ERROR"/>
			<mean_values value="()"/>
			<model_name value="person-detection-action-recognition-0004"/>
			<move_to_preprocess value="False"/>
			<offload_unsupported_operations_to_tf value="False"/>
			<output value="mbox_loc1/out/conv/flat,mbox_main_conf/out/conv/flat/softmax/flat,mbox/priorbox,out/anchor1,out/anchor2,out/anchor3,out/anchor4"/>
			<output_dir value="DIR"/>
			<remove_output_softmax value="False"/>
			<reverse_input_channels value="False"/>
			<save_params_from_nd value="False"/>
			<scale_values value="()"/>
			<silent value="False"/>
			<version value="False"/>
			<unset unset_cli_parameters="batch, counts, finegrain_fusing, freeze_placeholder_with_value, input_checkpoint, input_meta_graph, input_symbol, mean_file, mean_file_offsets, nd_prefix_name, pretrained_model_name, saved_model_dir, saved_model_tags, scale, tensorboard_logdir, tensorflow_custom_layer_libraries, tensorflow_custom_operations_config_update, tensorflow_object_detection_api_pipeline_config, tensorflow_operation_patterns, tensorflow_subgraph_patterns, tensorflow_use_custom_operations_config"/>
		</cli_parameters>
	</meta_data>
</net>
